#loc = loc("/mnt/g/GitHub/VAE_ca_proj/Thermal/.compile_cache/m3/cm3anany5y2afk5qtdauuqoydhbistqzyuvnlqxqt2ofpdxo4pt4.py":18:0)
#loc17 = loc("in_out_ptr0"(#loc))
#loc18 = loc("in_ptr0"(#loc))
#loc19 = loc("xnumel"(#loc))
module {
  tt.func public @triton_poi_fused__to_copy_convolution_3(%in_out_ptr0: !tt.ptr<bf16> {tt.divisibility = 16 : i32} loc("in_out_ptr0"(#loc)), %in_ptr0: !tt.ptr<bf16> {tt.divisibility = 16 : i32} loc("in_ptr0"(#loc)), %xnumel: i32 {tt.divisibility = 16 : i32} loc("xnumel"(#loc))) attributes {noinline = false} {
    %xoffset = tt.get_program_id x : i32 loc(#loc20)
    %xoffset_0 = arith.constant 1024 : i32 loc(#loc21)
    %xoffset_1 = arith.constant 1024 : i32 loc(#loc21)
    %xoffset_2 = arith.muli %xoffset, %xoffset_1 : i32 loc(#loc21)
    %xindex = tt.make_range {end = 1024 : i32, start = 0 : i32} : tensor<1024xi32> loc(#loc22)
    %xindex_3 = tt.splat %xoffset_2 : i32 -> tensor<1024xi32> loc(#loc23)
    %xindex_4 = arith.addi %xindex_3, %xindex : tensor<1024xi32> loc(#loc23)
    %xmask = arith.constant true loc(#loc24)
    %xmask_5 = arith.constant dense<true> : tensor<1024xi1> loc(#loc24)
    %x0 = arith.constant 128 : i32 loc(#loc25)
    %x0_6 = arith.constant 128 : i32 loc(#loc25)
    %x0_7 = arith.constant dense<128> : tensor<1024xi32> loc(#loc25)
    %x0_8 = arith.remsi %xindex_4, %x0_7 : tensor<1024xi32> loc(#loc25)
    %tmp0 = tt.splat %in_out_ptr0 : !tt.ptr<bf16> -> tensor<1024x!tt.ptr<bf16>> loc(#loc26)
    %tmp0_9 = tt.addptr %tmp0, %xindex_4 : tensor<1024x!tt.ptr<bf16>>, tensor<1024xi32> loc(#loc26)
    %tmp0_10 = tt.load %tmp0_9 : tensor<1024x!tt.ptr<bf16>> loc(#loc27)
    %tmp0_11 = arith.extf %tmp0_10 : tensor<1024xbf16> to tensor<1024xf32> loc(#loc28)
    %tmp1 = tt.splat %in_ptr0 : !tt.ptr<bf16> -> tensor<1024x!tt.ptr<bf16>> loc(#loc29)
    %tmp1_12 = tt.addptr %tmp1, %x0_8 : tensor<1024x!tt.ptr<bf16>>, tensor<1024xi32> loc(#loc29)
    %tmp1_13 = tt.load %tmp1_12 evictionPolicy = evict_last : tensor<1024x!tt.ptr<bf16>> loc(#loc30)
    %tmp1_14 = arith.extf %tmp1_13 : tensor<1024xbf16> to tensor<1024xf32> loc(#loc31)
    %tmp2 = arith.addf %tmp0_11, %tmp1_14 : tensor<1024xf32> loc(#loc32)
    %0 = tt.splat %in_out_ptr0 : !tt.ptr<bf16> -> tensor<1024x!tt.ptr<bf16>> loc(#loc14)
    %1 = tt.addptr %0, %xindex_4 : tensor<1024x!tt.ptr<bf16>>, tensor<1024xi32> loc(#loc14)
    %2 = arith.truncf %tmp2 : tensor<1024xf32> to tensor<1024xbf16> loc(#loc15)
    tt.store %1, %2 : tensor<1024x!tt.ptr<bf16>> loc(#loc15)
    tt.return loc(#loc16)
  } loc(#loc)
} loc(#loc)
#loc1 = loc("/mnt/g/GitHub/VAE_ca_proj/Thermal/.compile_cache/m3/cm3anany5y2afk5qtdauuqoydhbistqzyuvnlqxqt2ofpdxo4pt4.py":19:28)
#loc2 = loc("/mnt/g/GitHub/VAE_ca_proj/Thermal/.compile_cache/m3/cm3anany5y2afk5qtdauuqoydhbistqzyuvnlqxqt2ofpdxo4pt4.py":19:33)
#loc3 = loc("/mnt/g/GitHub/VAE_ca_proj/Thermal/.compile_cache/m3/cm3anany5y2afk5qtdauuqoydhbistqzyuvnlqxqt2ofpdxo4pt4.py":20:36)
#loc4 = loc("/mnt/g/GitHub/VAE_ca_proj/Thermal/.compile_cache/m3/cm3anany5y2afk5qtdauuqoydhbistqzyuvnlqxqt2ofpdxo4pt4.py":20:23)
#loc5 = loc("/mnt/g/GitHub/VAE_ca_proj/Thermal/.compile_cache/m3/cm3anany5y2afk5qtdauuqoydhbistqzyuvnlqxqt2ofpdxo4pt4.py":21:36)
#loc6 = loc("/mnt/g/GitHub/VAE_ca_proj/Thermal/.compile_cache/m3/cm3anany5y2afk5qtdauuqoydhbistqzyuvnlqxqt2ofpdxo4pt4.py":23:19)
#loc7 = loc("/mnt/g/GitHub/VAE_ca_proj/Thermal/.compile_cache/m3/cm3anany5y2afk5qtdauuqoydhbistqzyuvnlqxqt2ofpdxo4pt4.py":24:34)
#loc8 = loc("/mnt/g/GitHub/VAE_ca_proj/Thermal/.compile_cache/m3/cm3anany5y2afk5qtdauuqoydhbistqzyuvnlqxqt2ofpdxo4pt4.py":24:39)
#loc9 = loc("/mnt/g/GitHub/VAE_ca_proj/Thermal/.compile_cache/m3/cm3anany5y2afk5qtdauuqoydhbistqzyuvnlqxqt2ofpdxo4pt4.py":24:48)
#loc10 = loc("/mnt/g/GitHub/VAE_ca_proj/Thermal/.compile_cache/m3/cm3anany5y2afk5qtdauuqoydhbistqzyuvnlqxqt2ofpdxo4pt4.py":25:30)
#loc11 = loc("/mnt/g/GitHub/VAE_ca_proj/Thermal/.compile_cache/m3/cm3anany5y2afk5qtdauuqoydhbistqzyuvnlqxqt2ofpdxo4pt4.py":25:35)
#loc12 = loc("/mnt/g/GitHub/VAE_ca_proj/Thermal/.compile_cache/m3/cm3anany5y2afk5qtdauuqoydhbistqzyuvnlqxqt2ofpdxo4pt4.py":25:74)
#loc13 = loc("/mnt/g/GitHub/VAE_ca_proj/Thermal/.compile_cache/m3/cm3anany5y2afk5qtdauuqoydhbistqzyuvnlqxqt2ofpdxo4pt4.py":26:18)
#loc14 = loc("/mnt/g/GitHub/VAE_ca_proj/Thermal/.compile_cache/m3/cm3anany5y2afk5qtdauuqoydhbistqzyuvnlqxqt2ofpdxo4pt4.py":27:28)
#loc15 = loc("/mnt/g/GitHub/VAE_ca_proj/Thermal/.compile_cache/m3/cm3anany5y2afk5qtdauuqoydhbistqzyuvnlqxqt2ofpdxo4pt4.py":27:39)
#loc16 = loc("/mnt/g/GitHub/VAE_ca_proj/Thermal/.compile_cache/m3/cm3anany5y2afk5qtdauuqoydhbistqzyuvnlqxqt2ofpdxo4pt4.py":27:4)
#loc20 = loc("xoffset"(#loc1))
#loc21 = loc("xoffset"(#loc2))
#loc22 = loc("xindex"(#loc3))
#loc23 = loc("xindex"(#loc4))
#loc24 = loc("xmask"(#loc5))
#loc25 = loc("x0"(#loc6))
#loc26 = loc("tmp0"(#loc7))
#loc27 = loc("tmp0"(#loc8))
#loc28 = loc("tmp0"(#loc9))
#loc29 = loc("tmp1"(#loc10))
#loc30 = loc("tmp1"(#loc11))
#loc31 = loc("tmp1"(#loc12))
#loc32 = loc("tmp2"(#loc13))
