#loc = loc("/mnt/g/GitHub/VAE_ca_proj/Thermal/.compile_cache/bs/cbs5mx7pdeaqea5u3x4c2e3xoae2q6lsyjpncroip4lcc2vzsfl4.py":18:0)
#loc17 = loc("in_out_ptr0"(#loc))
#loc18 = loc("in_ptr0"(#loc))
#loc19 = loc("xnumel"(#loc))
module {
  tt.func public @triton_poi_fused__to_copy_convolution_silu_53(%in_out_ptr0: !tt.ptr<bf16> {tt.divisibility = 16 : i32} loc("in_out_ptr0"(#loc)), %in_ptr0: !tt.ptr<f32> {tt.divisibility = 16 : i32} loc("in_ptr0"(#loc)), %xnumel: i32 {tt.divisibility = 16 : i32} loc("xnumel"(#loc))) attributes {noinline = false} {
    %xnumel_0 = arith.constant 4096 : i32 loc(#loc20)
    %xoffset = tt.get_program_id x : i32 loc(#loc21)
    %xoffset_1 = arith.constant 256 : i32 loc(#loc22)
    %xoffset_2 = arith.constant 256 : i32 loc(#loc22)
    %xoffset_3 = arith.muli %xoffset, %xoffset_2 : i32 loc(#loc22)
    %xindex = tt.make_range {end = 256 : i32, start = 0 : i32} : tensor<256xi32> loc(#loc23)
    %xindex_4 = tt.splat %xoffset_3 : i32 -> tensor<256xi32> loc(#loc24)
    %xindex_5 = arith.addi %xindex_4, %xindex : tensor<256xi32> loc(#loc24)
    %xmask = arith.constant true loc(#loc25)
    %xmask_6 = arith.constant dense<true> : tensor<256xi1> loc(#loc25)
    %x0 = arith.constant 4 : i32 loc(#loc26)
    %x0_7 = arith.constant 4 : i32 loc(#loc26)
    %x0_8 = arith.constant dense<4> : tensor<256xi32> loc(#loc26)
    %x0_9 = arith.remsi %xindex_5, %x0_8 : tensor<256xi32> loc(#loc26)
    %tmp0 = tt.splat %in_out_ptr0 : !tt.ptr<bf16> -> tensor<256x!tt.ptr<bf16>> loc(#loc27)
    %tmp0_10 = tt.addptr %tmp0, %xindex_5 : tensor<256x!tt.ptr<bf16>>, tensor<256xi32> loc(#loc27)
    %tmp0_11 = tt.load %tmp0_10 : tensor<256x!tt.ptr<bf16>> loc(#loc28)
    %tmp0_12 = arith.extf %tmp0_11 : tensor<256xbf16> to tensor<256xf32> loc(#loc29)
    %tmp1 = tt.splat %in_ptr0 : !tt.ptr<f32> -> tensor<256x!tt.ptr<f32>> loc(#loc30)
    %tmp1_13 = tt.addptr %tmp1, %x0_9 : tensor<256x!tt.ptr<f32>>, tensor<256xi32> loc(#loc30)
    %tmp1_14 = tt.load %tmp1_13 evictionPolicy = evict_last : tensor<256x!tt.ptr<f32>> loc(#loc31)
    %tmp3 = arith.addf %tmp0_12, %tmp1_14 : tensor<256xf32> loc(#loc32)
    %0 = tt.splat %in_out_ptr0 : !tt.ptr<bf16> -> tensor<256x!tt.ptr<bf16>> loc(#loc14)
    %1 = tt.addptr %0, %xindex_5 : tensor<256x!tt.ptr<bf16>>, tensor<256xi32> loc(#loc14)
    %2 = arith.truncf %tmp3 : tensor<256xf32> to tensor<256xbf16> loc(#loc15)
    tt.store %1, %2 : tensor<256x!tt.ptr<bf16>> loc(#loc15)
    tt.return loc(#loc16)
  } loc(#loc)
} loc(#loc)
#loc1 = loc("/mnt/g/GitHub/VAE_ca_proj/Thermal/.compile_cache/bs/cbs5mx7pdeaqea5u3x4c2e3xoae2q6lsyjpncroip4lcc2vzsfl4.py":19:13)
#loc2 = loc("/mnt/g/GitHub/VAE_ca_proj/Thermal/.compile_cache/bs/cbs5mx7pdeaqea5u3x4c2e3xoae2q6lsyjpncroip4lcc2vzsfl4.py":20:28)
#loc3 = loc("/mnt/g/GitHub/VAE_ca_proj/Thermal/.compile_cache/bs/cbs5mx7pdeaqea5u3x4c2e3xoae2q6lsyjpncroip4lcc2vzsfl4.py":20:33)
#loc4 = loc("/mnt/g/GitHub/VAE_ca_proj/Thermal/.compile_cache/bs/cbs5mx7pdeaqea5u3x4c2e3xoae2q6lsyjpncroip4lcc2vzsfl4.py":21:36)
#loc5 = loc("/mnt/g/GitHub/VAE_ca_proj/Thermal/.compile_cache/bs/cbs5mx7pdeaqea5u3x4c2e3xoae2q6lsyjpncroip4lcc2vzsfl4.py":21:23)
#loc6 = loc("/mnt/g/GitHub/VAE_ca_proj/Thermal/.compile_cache/bs/cbs5mx7pdeaqea5u3x4c2e3xoae2q6lsyjpncroip4lcc2vzsfl4.py":22:36)
#loc7 = loc("/mnt/g/GitHub/VAE_ca_proj/Thermal/.compile_cache/bs/cbs5mx7pdeaqea5u3x4c2e3xoae2q6lsyjpncroip4lcc2vzsfl4.py":24:19)
#loc8 = loc("/mnt/g/GitHub/VAE_ca_proj/Thermal/.compile_cache/bs/cbs5mx7pdeaqea5u3x4c2e3xoae2q6lsyjpncroip4lcc2vzsfl4.py":25:34)
#loc9 = loc("/mnt/g/GitHub/VAE_ca_proj/Thermal/.compile_cache/bs/cbs5mx7pdeaqea5u3x4c2e3xoae2q6lsyjpncroip4lcc2vzsfl4.py":25:39)
#loc10 = loc("/mnt/g/GitHub/VAE_ca_proj/Thermal/.compile_cache/bs/cbs5mx7pdeaqea5u3x4c2e3xoae2q6lsyjpncroip4lcc2vzsfl4.py":25:48)
#loc11 = loc("/mnt/g/GitHub/VAE_ca_proj/Thermal/.compile_cache/bs/cbs5mx7pdeaqea5u3x4c2e3xoae2q6lsyjpncroip4lcc2vzsfl4.py":26:30)
#loc12 = loc("/mnt/g/GitHub/VAE_ca_proj/Thermal/.compile_cache/bs/cbs5mx7pdeaqea5u3x4c2e3xoae2q6lsyjpncroip4lcc2vzsfl4.py":26:35)
#loc13 = loc("/mnt/g/GitHub/VAE_ca_proj/Thermal/.compile_cache/bs/cbs5mx7pdeaqea5u3x4c2e3xoae2q6lsyjpncroip4lcc2vzsfl4.py":28:18)
#loc14 = loc("/mnt/g/GitHub/VAE_ca_proj/Thermal/.compile_cache/bs/cbs5mx7pdeaqea5u3x4c2e3xoae2q6lsyjpncroip4lcc2vzsfl4.py":29:28)
#loc15 = loc("/mnt/g/GitHub/VAE_ca_proj/Thermal/.compile_cache/bs/cbs5mx7pdeaqea5u3x4c2e3xoae2q6lsyjpncroip4lcc2vzsfl4.py":29:39)
#loc16 = loc("/mnt/g/GitHub/VAE_ca_proj/Thermal/.compile_cache/bs/cbs5mx7pdeaqea5u3x4c2e3xoae2q6lsyjpncroip4lcc2vzsfl4.py":29:4)
#loc20 = loc("xnumel"(#loc1))
#loc21 = loc("xoffset"(#loc2))
#loc22 = loc("xoffset"(#loc3))
#loc23 = loc("xindex"(#loc4))
#loc24 = loc("xindex"(#loc5))
#loc25 = loc("xmask"(#loc6))
#loc26 = loc("x0"(#loc7))
#loc27 = loc("tmp0"(#loc8))
#loc28 = loc("tmp0"(#loc9))
#loc29 = loc("tmp0"(#loc10))
#loc30 = loc("tmp1"(#loc11))
#loc31 = loc("tmp1"(#loc12))
#loc32 = loc("tmp3"(#loc13))
