#loc = loc("/mnt/g/GitHub/VAE_ca_proj/Thermal/.compile_cache/j3/cj35wbyit3eq6wliiwthdkiexirl5ojkwyxnjqdkn4aizqelj45k.py":18:0)
#loc2 = loc(unknown)
#loc13 = loc("/mnt/g/GitHub/VAE_ca_proj/Thermal/.compile_cache/j3/cj35wbyit3eq6wliiwthdkiexirl5ojkwyxnjqdkn4aizqelj45k.py":36:24)
#loc19 = loc("in_ptr0"(#loc))
#loc20 = loc("out_ptr0"(#loc))
#loc21 = loc("xnumel"(#loc))
#loc22 = loc("r0_numel"(#loc))
#loc33 = loc("tmp3"(#loc13))
#loc36 = loc(callsite(#loc2 at #loc33))
module {
  tt.func public @triton_per_fused_native_group_norm_backward_29(%in_ptr0: !tt.ptr<f32> {tt.divisibility = 16 : i32} loc("in_ptr0"(#loc)), %out_ptr0: !tt.ptr<f32> {tt.divisibility = 16 : i32} loc("out_ptr0"(#loc)), %xnumel: i32 {tt.divisibility = 16 : i32} loc("xnumel"(#loc)), %r0_numel: i32 loc("r0_numel"(#loc))) attributes {noinline = false} {
    %tmp0 = arith.constant dense<8> : tensor<8x1xi32> loc(#loc23)
    %c8_i32 = arith.constant 8 : i32 loc(#loc2)
    %xoffset = tt.get_program_id x : i32 loc(#loc24)
    %xoffset_0 = arith.muli %xoffset, %c8_i32 : i32 loc(#loc25)
    %xindex = tt.make_range {end = 8 : i32, start = 0 : i32} : tensor<8xi32> loc(#loc26)
    %xindex_1 = tt.expand_dims %xindex {axis = 1 : i32} : tensor<8xi32> -> tensor<8x1xi32> loc(#loc27)
    %xindex_2 = tt.splat %xoffset_0 : i32 -> tensor<8x1xi32> loc(#loc28)
    %xindex_3 = arith.addi %xindex_2, %xindex_1 : tensor<8x1xi32> loc(#loc28)
    %r0_index = tt.expand_dims %xindex {axis = 0 : i32} : tensor<8xi32> -> tensor<1x8xi32> loc(#loc29)
    %tmp0_4 = arith.muli %xindex_3, %tmp0 : tensor<8x1xi32> loc(#loc23)
    %tmp0_5 = tt.broadcast %r0_index : tensor<1x8xi32> -> tensor<8x8xi32> loc(#loc30)
    %tmp0_6 = tt.broadcast %tmp0_4 : tensor<8x1xi32> -> tensor<8x8xi32> loc(#loc30)
    %tmp0_7 = arith.addi %tmp0_5, %tmp0_6 : tensor<8x8xi32> loc(#loc30)
    %tmp0_8 = tt.splat %in_ptr0 : !tt.ptr<f32> -> tensor<8x8x!tt.ptr<f32>> loc(#loc31)
    %tmp0_9 = tt.addptr %tmp0_8, %tmp0_7 : tensor<8x8x!tt.ptr<f32>>, tensor<8x8xi32> loc(#loc31)
    %tmp0_10 = tt.load %tmp0_9 : tensor<8x8x!tt.ptr<f32>> loc(#loc32)
    %tmp3 = "tt.reduce"(%tmp0_10) <{axis = 1 : i32}> ({
    ^bb0(%tmp3_12: f32 loc(callsite(#loc2 at #loc33)), %tmp3_13: f32 loc(callsite(#loc2 at #loc33))):
      %tmp3_14 = arith.addf %tmp3_12, %tmp3_13 : f32 loc(#loc37)
      tt.reduce.return %tmp3_14 : f32 loc(#loc35)
    }) : (tensor<8x8xf32>) -> tensor<8xf32> loc(#loc35)
    %tmp3_11 = tt.expand_dims %tmp3 {axis = 1 : i32} : tensor<8xf32> -> tensor<8x1xf32> loc(#loc34)
    %0 = tt.splat %out_ptr0 : !tt.ptr<f32> -> tensor<8x1x!tt.ptr<f32>> loc(#loc16)
    %1 = tt.addptr %0, %xindex_3 : tensor<8x1x!tt.ptr<f32>>, tensor<8x1xi32> loc(#loc16)
    tt.store %1, %tmp3_11 : tensor<8x1x!tt.ptr<f32>> loc(#loc17)
    tt.return loc(#loc18)
  } loc(#loc)
} loc(#loc)
#loc1 = loc("/mnt/g/GitHub/VAE_ca_proj/Thermal/.compile_cache/j3/cj35wbyit3eq6wliiwthdkiexirl5ojkwyxnjqdkn4aizqelj45k.py":34:39)
#loc3 = loc("/mnt/g/GitHub/VAE_ca_proj/Thermal/.compile_cache/j3/cj35wbyit3eq6wliiwthdkiexirl5ojkwyxnjqdkn4aizqelj45k.py":24:28)
#loc4 = loc("/mnt/g/GitHub/VAE_ca_proj/Thermal/.compile_cache/j3/cj35wbyit3eq6wliiwthdkiexirl5ojkwyxnjqdkn4aizqelj45k.py":24:33)
#loc5 = loc("/mnt/g/GitHub/VAE_ca_proj/Thermal/.compile_cache/j3/cj35wbyit3eq6wliiwthdkiexirl5ojkwyxnjqdkn4aizqelj45k.py":25:36)
#loc6 = loc("/mnt/g/GitHub/VAE_ca_proj/Thermal/.compile_cache/j3/cj35wbyit3eq6wliiwthdkiexirl5ojkwyxnjqdkn4aizqelj45k.py":25:44)
#loc7 = loc("/mnt/g/GitHub/VAE_ca_proj/Thermal/.compile_cache/j3/cj35wbyit3eq6wliiwthdkiexirl5ojkwyxnjqdkn4aizqelj45k.py":25:23)
#loc8 = loc("/mnt/g/GitHub/VAE_ca_proj/Thermal/.compile_cache/j3/cj35wbyit3eq6wliiwthdkiexirl5ojkwyxnjqdkn4aizqelj45k.py":27:38)
#loc9 = loc("/mnt/g/GitHub/VAE_ca_proj/Thermal/.compile_cache/j3/cj35wbyit3eq6wliiwthdkiexirl5ojkwyxnjqdkn4aizqelj45k.py":34:37)
#loc10 = loc("/mnt/g/GitHub/VAE_ca_proj/Thermal/.compile_cache/j3/cj35wbyit3eq6wliiwthdkiexirl5ojkwyxnjqdkn4aizqelj45k.py":34:30)
#loc11 = loc("/mnt/g/GitHub/VAE_ca_proj/Thermal/.compile_cache/j3/cj35wbyit3eq6wliiwthdkiexirl5ojkwyxnjqdkn4aizqelj45k.py":34:44)
#loc12 = loc("/home/xy/miniconda3/envs/cu128/lib/python3.12/site-packages/triton/language/standard.py":291:36)
#loc14 = loc("/home/xy/miniconda3/envs/cu128/lib/python3.12/site-packages/triton/language/standard.py":261:15)
#loc15 = loc("/mnt/g/GitHub/VAE_ca_proj/Thermal/.compile_cache/j3/cj35wbyit3eq6wliiwthdkiexirl5ojkwyxnjqdkn4aizqelj45k.py":36:27)
#loc16 = loc("/mnt/g/GitHub/VAE_ca_proj/Thermal/.compile_cache/j3/cj35wbyit3eq6wliiwthdkiexirl5ojkwyxnjqdkn4aizqelj45k.py":37:25)
#loc17 = loc("/mnt/g/GitHub/VAE_ca_proj/Thermal/.compile_cache/j3/cj35wbyit3eq6wliiwthdkiexirl5ojkwyxnjqdkn4aizqelj45k.py":37:36)
#loc18 = loc("/mnt/g/GitHub/VAE_ca_proj/Thermal/.compile_cache/j3/cj35wbyit3eq6wliiwthdkiexirl5ojkwyxnjqdkn4aizqelj45k.py":37:4)
#loc23 = loc("tmp0"(#loc1))
#loc24 = loc("xoffset"(#loc3))
#loc25 = loc("xoffset"(#loc4))
#loc26 = loc("xindex"(#loc5))
#loc27 = loc("xindex"(#loc6))
#loc28 = loc("xindex"(#loc7))
#loc29 = loc("r0_index"(#loc8))
#loc30 = loc("tmp0"(#loc9))
#loc31 = loc("tmp0"(#loc10))
#loc32 = loc("tmp0"(#loc11))
#loc34 = loc("tmp3"(#loc15))
#loc35 = loc(callsite(#loc12 at #loc33))
#loc37 = loc(callsite(#loc14 at #loc35))
