#loc = loc("/mnt/g/GitHub/VAE_ca_proj/Thermal/.compile_cache/ft/cftgw6pfii3qgieto76f5fjekzsc3t6uvz3mmwvfsz4xfz2owef6.py":18:0)
#loc2 = loc(unknown)
#loc20 = loc("/mnt/g/GitHub/VAE_ca_proj/Thermal/.compile_cache/ft/cftgw6pfii3qgieto76f5fjekzsc3t6uvz3mmwvfsz4xfz2owef6.py":41:25)
#loc26 = loc("in_ptr0"(#loc))
#loc27 = loc("out_ptr0"(#loc))
#loc28 = loc("xnumel"(#loc))
#loc29 = loc("r0_numel"(#loc))
#loc47 = loc("tmp3"(#loc20))
#loc50 = loc(callsite(#loc2 at #loc47))
module {
  tt.func public @triton_red_fused_sum_79(%in_ptr0: !tt.ptr<bf16> {tt.divisibility = 16 : i32} loc("in_ptr0"(#loc)), %out_ptr0: !tt.ptr<f32> {tt.divisibility = 16 : i32} loc("out_ptr0"(#loc)), %xnumel: i32 {tt.divisibility = 16 : i32} loc("xnumel"(#loc)), %r0_numel: i32 {tt.divisibility = 16 : i32} loc("r0_numel"(#loc))) attributes {noinline = false} {
    %tmp0 = arith.constant dense<0.000000e+00> : tensor<4x128xbf16> loc(#loc30)
    %cst = arith.constant dense<6400> : tensor<1x128xi32> loc(#loc2)
    %cst_0 = arith.constant dense<128> : tensor<1x128xi32> loc(#loc2)
    %cst_1 = arith.constant dense<0.000000e+00> : tensor<4x128xf32> loc(#loc2)
    %xmask = arith.constant dense<6400> : tensor<4x1xi32> loc(#loc31)
    %c4_i32 = arith.constant 4 : i32 loc(#loc2)
    %xoffset = tt.get_program_id x : i32 loc(#loc32)
    %xoffset_2 = arith.muli %xoffset, %c4_i32 : i32 loc(#loc33)
    %xindex = tt.make_range {end = 4 : i32, start = 0 : i32} : tensor<4xi32> loc(#loc34)
    %xindex_3 = tt.expand_dims %xindex {axis = 1 : i32} : tensor<4xi32> -> tensor<4x1xi32> loc(#loc35)
    %xindex_4 = tt.splat %xoffset_2 : i32 -> tensor<4x1xi32> loc(#loc36)
    %xindex_5 = arith.addi %xindex_4, %xindex_3 : tensor<4x1xi32> loc(#loc36)
    %xmask_6 = arith.cmpi slt, %xindex_5, %xmask : tensor<4x1xi32> loc(#loc31)
    %r0_base = tt.make_range {end = 128 : i32, start = 0 : i32} : tensor<128xi32> loc(#loc37)
    %r0_base_7 = tt.expand_dims %r0_base {axis = 0 : i32} : tensor<128xi32> -> tensor<1x128xi32> loc(#loc38)
    %r0_mask = arith.cmpi slt, %r0_base_7, %cst_0 : tensor<1x128xi32> loc(#loc39)
    %tmp0_8 = arith.muli %r0_base_7, %cst : tensor<1x128xi32> loc(#loc40)
    %tmp0_9 = tt.broadcast %xindex_5 : tensor<4x1xi32> -> tensor<4x128xi32> loc(#loc41)
    %tmp0_10 = tt.broadcast %tmp0_8 : tensor<1x128xi32> -> tensor<4x128xi32> loc(#loc41)
    %tmp0_11 = arith.addi %tmp0_9, %tmp0_10 : tensor<4x128xi32> loc(#loc41)
    %tmp0_12 = tt.splat %in_ptr0 : !tt.ptr<bf16> -> tensor<4x128x!tt.ptr<bf16>> loc(#loc42)
    %tmp0_13 = tt.addptr %tmp0_12, %tmp0_11 : tensor<4x128x!tt.ptr<bf16>>, tensor<4x128xi32> loc(#loc42)
    %tmp0_14 = tt.broadcast %r0_mask : tensor<1x128xi1> -> tensor<4x128xi1> loc(#loc43)
    %tmp0_15 = tt.broadcast %xmask_6 : tensor<4x1xi1> -> tensor<4x128xi1> loc(#loc43)
    %tmp0_16 = arith.andi %tmp0_14, %tmp0_15 : tensor<4x128xi1> loc(#loc43)
    %tmp0_17 = tt.load %tmp0_13, %tmp0_16, %tmp0 evictionPolicy = evict_first : tensor<4x128x!tt.ptr<bf16>> loc(#loc30)
    %tmp0_18 = arith.extf %tmp0_17 : tensor<4x128xbf16> to tensor<4x128xf32> loc(#loc44)
    %tmp4 = arith.addf %tmp0_18, %cst_1 : tensor<4x128xf32> loc(#loc45)
    %_tmp3 = arith.select %tmp0_16, %tmp4, %cst_1 : tensor<4x128xi1>, tensor<4x128xf32> loc(#loc46)
    %tmp3 = "tt.reduce"(%_tmp3) <{axis = 1 : i32}> ({
    ^bb0(%tmp3_20: f32 loc(callsite(#loc2 at #loc47)), %tmp3_21: f32 loc(callsite(#loc2 at #loc47))):
      %tmp3_22 = arith.addf %tmp3_20, %tmp3_21 : f32 loc(#loc51)
      tt.reduce.return %tmp3_22 : f32 loc(#loc49)
    }) : (tensor<4x128xf32>) -> tensor<4xf32> loc(#loc49)
    %tmp3_19 = tt.expand_dims %tmp3 {axis = 1 : i32} : tensor<4xf32> -> tensor<4x1xf32> loc(#loc48)
    %0 = tt.splat %out_ptr0 : !tt.ptr<f32> -> tensor<4x1x!tt.ptr<f32>> loc(#loc23)
    %1 = tt.addptr %0, %xindex_5 : tensor<4x1x!tt.ptr<f32>>, tensor<4x1xi32> loc(#loc23)
    tt.store %1, %tmp3_19, %xmask_6 : tensor<4x1x!tt.ptr<f32>> loc(#loc24)
    tt.return loc(#loc25)
  } loc(#loc)
} loc(#loc)
#loc1 = loc("/mnt/g/GitHub/VAE_ca_proj/Thermal/.compile_cache/ft/cftgw6pfii3qgieto76f5fjekzsc3t6uvz3mmwvfsz4xfz2owef6.py":36:51)
#loc3 = loc("/mnt/g/GitHub/VAE_ca_proj/Thermal/.compile_cache/ft/cftgw6pfii3qgieto76f5fjekzsc3t6uvz3mmwvfsz4xfz2owef6.py":25:21)
#loc4 = loc("/mnt/g/GitHub/VAE_ca_proj/Thermal/.compile_cache/ft/cftgw6pfii3qgieto76f5fjekzsc3t6uvz3mmwvfsz4xfz2owef6.py":23:28)
#loc5 = loc("/mnt/g/GitHub/VAE_ca_proj/Thermal/.compile_cache/ft/cftgw6pfii3qgieto76f5fjekzsc3t6uvz3mmwvfsz4xfz2owef6.py":23:33)
#loc6 = loc("/mnt/g/GitHub/VAE_ca_proj/Thermal/.compile_cache/ft/cftgw6pfii3qgieto76f5fjekzsc3t6uvz3mmwvfsz4xfz2owef6.py":24:36)
#loc7 = loc("/mnt/g/GitHub/VAE_ca_proj/Thermal/.compile_cache/ft/cftgw6pfii3qgieto76f5fjekzsc3t6uvz3mmwvfsz4xfz2owef6.py":24:44)
#loc8 = loc("/mnt/g/GitHub/VAE_ca_proj/Thermal/.compile_cache/ft/cftgw6pfii3qgieto76f5fjekzsc3t6uvz3mmwvfsz4xfz2owef6.py":24:23)
#loc9 = loc("/mnt/g/GitHub/VAE_ca_proj/Thermal/.compile_cache/ft/cftgw6pfii3qgieto76f5fjekzsc3t6uvz3mmwvfsz4xfz2owef6.py":26:27)
#loc10 = loc("/mnt/g/GitHub/VAE_ca_proj/Thermal/.compile_cache/ft/cftgw6pfii3qgieto76f5fjekzsc3t6uvz3mmwvfsz4xfz2owef6.py":26:37)
#loc11 = loc("/mnt/g/GitHub/VAE_ca_proj/Thermal/.compile_cache/ft/cftgw6pfii3qgieto76f5fjekzsc3t6uvz3mmwvfsz4xfz2owef6.py":32:29)
#loc12 = loc("/mnt/g/GitHub/VAE_ca_proj/Thermal/.compile_cache/ft/cftgw6pfii3qgieto76f5fjekzsc3t6uvz3mmwvfsz4xfz2owef6.py":36:44)
#loc13 = loc("/mnt/g/GitHub/VAE_ca_proj/Thermal/.compile_cache/ft/cftgw6pfii3qgieto76f5fjekzsc3t6uvz3mmwvfsz4xfz2owef6.py":36:39)
#loc14 = loc("/mnt/g/GitHub/VAE_ca_proj/Thermal/.compile_cache/ft/cftgw6pfii3qgieto76f5fjekzsc3t6uvz3mmwvfsz4xfz2owef6.py":36:34)
#loc15 = loc("/mnt/g/GitHub/VAE_ca_proj/Thermal/.compile_cache/ft/cftgw6pfii3qgieto76f5fjekzsc3t6uvz3mmwvfsz4xfz2owef6.py":36:61)
#loc16 = loc("/mnt/g/GitHub/VAE_ca_proj/Thermal/.compile_cache/ft/cftgw6pfii3qgieto76f5fjekzsc3t6uvz3mmwvfsz4xfz2owef6.py":36:113)
#loc17 = loc("/mnt/g/GitHub/VAE_ca_proj/Thermal/.compile_cache/ft/cftgw6pfii3qgieto76f5fjekzsc3t6uvz3mmwvfsz4xfz2owef6.py":39:23)
#loc18 = loc("/mnt/g/GitHub/VAE_ca_proj/Thermal/.compile_cache/ft/cftgw6pfii3qgieto76f5fjekzsc3t6uvz3mmwvfsz4xfz2owef6.py":40:48)
#loc19 = loc("/home/xy/miniconda3/envs/cu128/lib/python3.12/site-packages/triton/language/standard.py":291:36)
#loc21 = loc("/home/xy/miniconda3/envs/cu128/lib/python3.12/site-packages/triton/language/standard.py":261:15)
#loc22 = loc("/mnt/g/GitHub/VAE_ca_proj/Thermal/.compile_cache/ft/cftgw6pfii3qgieto76f5fjekzsc3t6uvz3mmwvfsz4xfz2owef6.py":41:28)
#loc23 = loc("/mnt/g/GitHub/VAE_ca_proj/Thermal/.compile_cache/ft/cftgw6pfii3qgieto76f5fjekzsc3t6uvz3mmwvfsz4xfz2owef6.py":42:25)
#loc24 = loc("/mnt/g/GitHub/VAE_ca_proj/Thermal/.compile_cache/ft/cftgw6pfii3qgieto76f5fjekzsc3t6uvz3mmwvfsz4xfz2owef6.py":42:36)
#loc25 = loc("/mnt/g/GitHub/VAE_ca_proj/Thermal/.compile_cache/ft/cftgw6pfii3qgieto76f5fjekzsc3t6uvz3mmwvfsz4xfz2owef6.py":42:4)
#loc30 = loc("tmp0"(#loc1))
#loc31 = loc("xmask"(#loc3))
#loc32 = loc("xoffset"(#loc4))
#loc33 = loc("xoffset"(#loc5))
#loc34 = loc("xindex"(#loc6))
#loc35 = loc("xindex"(#loc7))
#loc36 = loc("xindex"(#loc8))
#loc37 = loc("r0_base"(#loc9))
#loc38 = loc("r0_base"(#loc10))
#loc39 = loc("r0_mask"(#loc11))
#loc40 = loc("tmp0"(#loc12))
#loc41 = loc("tmp0"(#loc13))
#loc42 = loc("tmp0"(#loc14))
#loc43 = loc("tmp0"(#loc15))
#loc44 = loc("tmp0"(#loc16))
#loc45 = loc("tmp4"(#loc17))
#loc46 = loc("_tmp3"(#loc18))
#loc48 = loc("tmp3"(#loc22))
#loc49 = loc(callsite(#loc19 at #loc47))
#loc51 = loc(callsite(#loc21 at #loc49))
