#loc = loc("/mnt/g/GitHub/VAE_ca_proj/Thermal/.compile_cache/yn/cynfahtk2ba3o2ybagamiu6tjlytyidu3duoptp33lclae32zz5y.py":18:0)
#loc21 = loc("in_out_ptr0"(#loc))
#loc22 = loc("in_ptr0"(#loc))
#loc23 = loc("in_ptr1"(#loc))
#loc24 = loc("xnumel"(#loc))
module {
  tt.func public @triton_poi_fused_add_transpose_view_73(%in_out_ptr0: !tt.ptr<bf16> {tt.divisibility = 16 : i32} loc("in_out_ptr0"(#loc)), %in_ptr0: !tt.ptr<bf16> {tt.divisibility = 16 : i32} loc("in_ptr0"(#loc)), %in_ptr1: !tt.ptr<bf16> {tt.divisibility = 16 : i32} loc("in_ptr1"(#loc)), %xnumel: i32 {tt.divisibility = 16 : i32} loc("xnumel"(#loc))) attributes {noinline = false} {
    %xnumel_0 = arith.constant 4194304 : i32 loc(#loc25)
    %xoffset = tt.get_program_id x : i32 loc(#loc26)
    %xoffset_1 = arith.constant 1024 : i32 loc(#loc27)
    %xoffset_2 = arith.constant 1024 : i32 loc(#loc27)
    %xoffset_3 = arith.muli %xoffset, %xoffset_2 : i32 loc(#loc27)
    %xindex = tt.make_range {end = 1024 : i32, start = 0 : i32} : tensor<1024xi32> loc(#loc28)
    %xindex_4 = tt.splat %xoffset_3 : i32 -> tensor<1024xi32> loc(#loc29)
    %xindex_5 = arith.addi %xindex_4, %xindex : tensor<1024xi32> loc(#loc29)
    %xmask = arith.constant true loc(#loc30)
    %xmask_6 = arith.constant dense<true> : tensor<1024xi1> loc(#loc30)
    %tmp0 = tt.splat %in_out_ptr0 : !tt.ptr<bf16> -> tensor<1024x!tt.ptr<bf16>> loc(#loc31)
    %tmp0_7 = tt.addptr %tmp0, %xindex_5 : tensor<1024x!tt.ptr<bf16>>, tensor<1024xi32> loc(#loc31)
    %tmp0_8 = tt.load %tmp0_7 : tensor<1024x!tt.ptr<bf16>> loc(#loc32)
    %tmp0_9 = arith.extf %tmp0_8 : tensor<1024xbf16> to tensor<1024xf32> loc(#loc33)
    %tmp1 = tt.splat %in_ptr0 : !tt.ptr<bf16> -> tensor<1024x!tt.ptr<bf16>> loc(#loc34)
    %tmp1_10 = tt.addptr %tmp1, %xindex_5 : tensor<1024x!tt.ptr<bf16>>, tensor<1024xi32> loc(#loc34)
    %tmp1_11 = tt.load %tmp1_10 : tensor<1024x!tt.ptr<bf16>> loc(#loc35)
    %tmp1_12 = arith.extf %tmp1_11 : tensor<1024xbf16> to tensor<1024xf32> loc(#loc36)
    %tmp3 = tt.splat %in_ptr1 : !tt.ptr<bf16> -> tensor<1024x!tt.ptr<bf16>> loc(#loc37)
    %tmp3_13 = tt.addptr %tmp3, %xindex_5 : tensor<1024x!tt.ptr<bf16>>, tensor<1024xi32> loc(#loc37)
    %tmp3_14 = tt.load %tmp3_13 : tensor<1024x!tt.ptr<bf16>> loc(#loc38)
    %tmp3_15 = arith.extf %tmp3_14 : tensor<1024xbf16> to tensor<1024xf32> loc(#loc39)
    %tmp2 = arith.addf %tmp0_9, %tmp1_12 : tensor<1024xf32> loc(#loc40)
    %tmp4 = arith.addf %tmp2, %tmp3_15 : tensor<1024xf32> loc(#loc41)
    %0 = tt.splat %in_out_ptr0 : !tt.ptr<bf16> -> tensor<1024x!tt.ptr<bf16>> loc(#loc18)
    %1 = tt.addptr %0, %xindex_5 : tensor<1024x!tt.ptr<bf16>>, tensor<1024xi32> loc(#loc18)
    %2 = arith.truncf %tmp4 : tensor<1024xf32> to tensor<1024xbf16> loc(#loc19)
    tt.store %1, %2 : tensor<1024x!tt.ptr<bf16>> loc(#loc19)
    tt.return loc(#loc20)
  } loc(#loc)
} loc(#loc)
#loc1 = loc("/mnt/g/GitHub/VAE_ca_proj/Thermal/.compile_cache/yn/cynfahtk2ba3o2ybagamiu6tjlytyidu3duoptp33lclae32zz5y.py":19:13)
#loc2 = loc("/mnt/g/GitHub/VAE_ca_proj/Thermal/.compile_cache/yn/cynfahtk2ba3o2ybagamiu6tjlytyidu3duoptp33lclae32zz5y.py":20:28)
#loc3 = loc("/mnt/g/GitHub/VAE_ca_proj/Thermal/.compile_cache/yn/cynfahtk2ba3o2ybagamiu6tjlytyidu3duoptp33lclae32zz5y.py":20:33)
#loc4 = loc("/mnt/g/GitHub/VAE_ca_proj/Thermal/.compile_cache/yn/cynfahtk2ba3o2ybagamiu6tjlytyidu3duoptp33lclae32zz5y.py":21:36)
#loc5 = loc("/mnt/g/GitHub/VAE_ca_proj/Thermal/.compile_cache/yn/cynfahtk2ba3o2ybagamiu6tjlytyidu3duoptp33lclae32zz5y.py":21:23)
#loc6 = loc("/mnt/g/GitHub/VAE_ca_proj/Thermal/.compile_cache/yn/cynfahtk2ba3o2ybagamiu6tjlytyidu3duoptp33lclae32zz5y.py":22:36)
#loc7 = loc("/mnt/g/GitHub/VAE_ca_proj/Thermal/.compile_cache/yn/cynfahtk2ba3o2ybagamiu6tjlytyidu3duoptp33lclae32zz5y.py":24:34)
#loc8 = loc("/mnt/g/GitHub/VAE_ca_proj/Thermal/.compile_cache/yn/cynfahtk2ba3o2ybagamiu6tjlytyidu3duoptp33lclae32zz5y.py":24:39)
#loc9 = loc("/mnt/g/GitHub/VAE_ca_proj/Thermal/.compile_cache/yn/cynfahtk2ba3o2ybagamiu6tjlytyidu3duoptp33lclae32zz5y.py":24:48)
#loc10 = loc("/mnt/g/GitHub/VAE_ca_proj/Thermal/.compile_cache/yn/cynfahtk2ba3o2ybagamiu6tjlytyidu3duoptp33lclae32zz5y.py":25:30)
#loc11 = loc("/mnt/g/GitHub/VAE_ca_proj/Thermal/.compile_cache/yn/cynfahtk2ba3o2ybagamiu6tjlytyidu3duoptp33lclae32zz5y.py":25:35)
#loc12 = loc("/mnt/g/GitHub/VAE_ca_proj/Thermal/.compile_cache/yn/cynfahtk2ba3o2ybagamiu6tjlytyidu3duoptp33lclae32zz5y.py":25:44)
#loc13 = loc("/mnt/g/GitHub/VAE_ca_proj/Thermal/.compile_cache/yn/cynfahtk2ba3o2ybagamiu6tjlytyidu3duoptp33lclae32zz5y.py":26:30)
#loc14 = loc("/mnt/g/GitHub/VAE_ca_proj/Thermal/.compile_cache/yn/cynfahtk2ba3o2ybagamiu6tjlytyidu3duoptp33lclae32zz5y.py":26:35)
#loc15 = loc("/mnt/g/GitHub/VAE_ca_proj/Thermal/.compile_cache/yn/cynfahtk2ba3o2ybagamiu6tjlytyidu3duoptp33lclae32zz5y.py":26:44)
#loc16 = loc("/mnt/g/GitHub/VAE_ca_proj/Thermal/.compile_cache/yn/cynfahtk2ba3o2ybagamiu6tjlytyidu3duoptp33lclae32zz5y.py":27:18)
#loc17 = loc("/mnt/g/GitHub/VAE_ca_proj/Thermal/.compile_cache/yn/cynfahtk2ba3o2ybagamiu6tjlytyidu3duoptp33lclae32zz5y.py":28:18)
#loc18 = loc("/mnt/g/GitHub/VAE_ca_proj/Thermal/.compile_cache/yn/cynfahtk2ba3o2ybagamiu6tjlytyidu3duoptp33lclae32zz5y.py":29:28)
#loc19 = loc("/mnt/g/GitHub/VAE_ca_proj/Thermal/.compile_cache/yn/cynfahtk2ba3o2ybagamiu6tjlytyidu3duoptp33lclae32zz5y.py":29:39)
#loc20 = loc("/mnt/g/GitHub/VAE_ca_proj/Thermal/.compile_cache/yn/cynfahtk2ba3o2ybagamiu6tjlytyidu3duoptp33lclae32zz5y.py":29:4)
#loc25 = loc("xnumel"(#loc1))
#loc26 = loc("xoffset"(#loc2))
#loc27 = loc("xoffset"(#loc3))
#loc28 = loc("xindex"(#loc4))
#loc29 = loc("xindex"(#loc5))
#loc30 = loc("xmask"(#loc6))
#loc31 = loc("tmp0"(#loc7))
#loc32 = loc("tmp0"(#loc8))
#loc33 = loc("tmp0"(#loc9))
#loc34 = loc("tmp1"(#loc10))
#loc35 = loc("tmp1"(#loc11))
#loc36 = loc("tmp1"(#loc12))
#loc37 = loc("tmp3"(#loc13))
#loc38 = loc("tmp3"(#loc14))
#loc39 = loc("tmp3"(#loc15))
#loc40 = loc("tmp2"(#loc16))
#loc41 = loc("tmp4"(#loc17))
