#loc = loc("/mnt/g/GitHub/VAE_ca_proj/Thermal/.compile_cache/p6/cp6ut72pusxhiqywqapbxoy4sxdq3gxsht5yua36kgxslunbhze2.py":18:0)
#loc22 = loc("in_out_ptr0"(#loc))
#loc23 = loc("in_ptr0"(#loc))
#loc24 = loc("xnumel"(#loc))
module {
  tt.func public @triton_poi_fused__softmax__softmax_backward_data__to_copy_amax_mul_sub_view_65(%in_out_ptr0: !tt.ptr<bf16> {tt.divisibility = 16 : i32} loc("in_out_ptr0"(#loc)), %in_ptr0: !tt.ptr<bf16> {tt.divisibility = 16 : i32} loc("in_ptr0"(#loc)), %xnumel: i32 {tt.divisibility = 16 : i32} loc("xnumel"(#loc))) attributes {noinline = false} {
    %tmp9 = arith.constant dense<0.000000e+00> : tensor<256xf32> loc(#loc25)
    %cst = arith.constant dense<1.250000e-01> : tensor<256xf32> loc(#loc2)
    %c256_i32 = arith.constant 256 : i32 loc(#loc2)
    %xoffset = tt.get_program_id x : i32 loc(#loc26)
    %xoffset_0 = arith.muli %xoffset, %c256_i32 : i32 loc(#loc27)
    %xindex = tt.make_range {end = 256 : i32, start = 0 : i32} : tensor<256xi32> loc(#loc28)
    %xindex_1 = tt.splat %xoffset_0 : i32 -> tensor<256xi32> loc(#loc29)
    %xindex_2 = arith.addi %xindex_1, %xindex : tensor<256xi32> loc(#loc29)
    %tmp0 = tt.splat %in_out_ptr0 : !tt.ptr<bf16> -> tensor<256x!tt.ptr<bf16>> loc(#loc30)
    %tmp0_3 = tt.addptr %tmp0, %xindex_2 : tensor<256x!tt.ptr<bf16>>, tensor<256xi32> loc(#loc30)
    %tmp0_4 = tt.load %tmp0_3 : tensor<256x!tt.ptr<bf16>> loc(#loc31)
    %tmp0_5 = arith.extf %tmp0_4 : tensor<256xbf16> to tensor<256xf32> loc(#loc32)
    %tmp10 = tt.splat %in_ptr0 : !tt.ptr<bf16> -> tensor<256x!tt.ptr<bf16>> loc(#loc33)
    %tmp10_6 = tt.addptr %tmp10, %xindex_2 : tensor<256x!tt.ptr<bf16>>, tensor<256xi32> loc(#loc33)
    %tmp10_7 = tt.load %tmp10_6 : tensor<256x!tt.ptr<bf16>> loc(#loc34)
    %tmp10_8 = arith.extf %tmp10_7 : tensor<256xbf16> to tensor<256xf32> loc(#loc35)
    %tmp4 = arith.subf %tmp0_5, %tmp0_5 : tensor<256xf32> loc(#loc36)
    %tmp6 = arith.mulf %tmp4, %cst : tensor<256xf32> loc(#loc37)
    %tmp7 = tt.extern_elementwise %tmp6 {libname = "", libpath = "", pure = true, symbol = "__nv_expf"} : (tensor<256xf32>) -> tensor<256xf32> loc(#loc38)
    %tmp8 = arith.divf %tmp7, %tmp7 : tensor<256xf32> loc(#loc39)
    %tmp9_9 = arith.subf %tmp9, %tmp8 : tensor<256xf32> loc(#loc25)
    %tmp12 = arith.mulf %tmp10_8, %tmp8 : tensor<256xf32> loc(#loc40)
    %tmp13 = tt.extern_elementwise %tmp9_9, %tmp12, %tmp12 {libname = "", libpath = "", pure = true, symbol = "__nv_fmaf"} : (tensor<256xf32>, tensor<256xf32>, tensor<256xf32>) -> tensor<256xf32> loc(#loc41)
    %tmp15 = arith.mulf %tmp13, %cst : tensor<256xf32> loc(#loc42)
    %0 = arith.truncf %tmp15 : tensor<256xf32> to tensor<256xbf16> loc(#loc20)
    tt.store %tmp0_3, %0 : tensor<256x!tt.ptr<bf16>> loc(#loc20)
    tt.return loc(#loc21)
  } loc(#loc)
} loc(#loc)
#loc1 = loc("/mnt/g/GitHub/VAE_ca_proj/Thermal/.compile_cache/p6/cp6ut72pusxhiqywqapbxoy4sxdq3gxsht5yua36kgxslunbhze2.py":34:12)
#loc2 = loc(unknown)
#loc3 = loc("/mnt/g/GitHub/VAE_ca_proj/Thermal/.compile_cache/p6/cp6ut72pusxhiqywqapbxoy4sxdq3gxsht5yua36kgxslunbhze2.py":20:28)
#loc4 = loc("/mnt/g/GitHub/VAE_ca_proj/Thermal/.compile_cache/p6/cp6ut72pusxhiqywqapbxoy4sxdq3gxsht5yua36kgxslunbhze2.py":20:33)
#loc5 = loc("/mnt/g/GitHub/VAE_ca_proj/Thermal/.compile_cache/p6/cp6ut72pusxhiqywqapbxoy4sxdq3gxsht5yua36kgxslunbhze2.py":21:36)
#loc6 = loc("/mnt/g/GitHub/VAE_ca_proj/Thermal/.compile_cache/p6/cp6ut72pusxhiqywqapbxoy4sxdq3gxsht5yua36kgxslunbhze2.py":21:23)
#loc7 = loc("/mnt/g/GitHub/VAE_ca_proj/Thermal/.compile_cache/p6/cp6ut72pusxhiqywqapbxoy4sxdq3gxsht5yua36kgxslunbhze2.py":24:34)
#loc8 = loc("/mnt/g/GitHub/VAE_ca_proj/Thermal/.compile_cache/p6/cp6ut72pusxhiqywqapbxoy4sxdq3gxsht5yua36kgxslunbhze2.py":24:39)
#loc9 = loc("/mnt/g/GitHub/VAE_ca_proj/Thermal/.compile_cache/p6/cp6ut72pusxhiqywqapbxoy4sxdq3gxsht5yua36kgxslunbhze2.py":24:48)
#loc10 = loc("/mnt/g/GitHub/VAE_ca_proj/Thermal/.compile_cache/p6/cp6ut72pusxhiqywqapbxoy4sxdq3gxsht5yua36kgxslunbhze2.py":25:31)
#loc11 = loc("/mnt/g/GitHub/VAE_ca_proj/Thermal/.compile_cache/p6/cp6ut72pusxhiqywqapbxoy4sxdq3gxsht5yua36kgxslunbhze2.py":25:36)
#loc12 = loc("/mnt/g/GitHub/VAE_ca_proj/Thermal/.compile_cache/p6/cp6ut72pusxhiqywqapbxoy4sxdq3gxsht5yua36kgxslunbhze2.py":25:45)
#loc13 = loc("/mnt/g/GitHub/VAE_ca_proj/Thermal/.compile_cache/p6/cp6ut72pusxhiqywqapbxoy4sxdq3gxsht5yua36kgxslunbhze2.py":29:18)
#loc14 = loc("/mnt/g/GitHub/VAE_ca_proj/Thermal/.compile_cache/p6/cp6ut72pusxhiqywqapbxoy4sxdq3gxsht5yua36kgxslunbhze2.py":31:18)
#loc15 = loc("/mnt/g/GitHub/VAE_ca_proj/Thermal/.compile_cache/p6/cp6ut72pusxhiqywqapbxoy4sxdq3gxsht5yua36kgxslunbhze2.py":32:25)
#loc16 = loc("/mnt/g/GitHub/VAE_ca_proj/Thermal/.compile_cache/p6/cp6ut72pusxhiqywqapbxoy4sxdq3gxsht5yua36kgxslunbhze2.py":33:19)
#loc17 = loc("/mnt/g/GitHub/VAE_ca_proj/Thermal/.compile_cache/p6/cp6ut72pusxhiqywqapbxoy4sxdq3gxsht5yua36kgxslunbhze2.py":36:20)
#loc18 = loc("/mnt/g/GitHub/VAE_ca_proj/Thermal/.compile_cache/p6/cp6ut72pusxhiqywqapbxoy4sxdq3gxsht5yua36kgxslunbhze2.py":37:39)
#loc19 = loc("/mnt/g/GitHub/VAE_ca_proj/Thermal/.compile_cache/p6/cp6ut72pusxhiqywqapbxoy4sxdq3gxsht5yua36kgxslunbhze2.py":39:20)
#loc20 = loc("/mnt/g/GitHub/VAE_ca_proj/Thermal/.compile_cache/p6/cp6ut72pusxhiqywqapbxoy4sxdq3gxsht5yua36kgxslunbhze2.py":40:40)
#loc21 = loc("/mnt/g/GitHub/VAE_ca_proj/Thermal/.compile_cache/p6/cp6ut72pusxhiqywqapbxoy4sxdq3gxsht5yua36kgxslunbhze2.py":40:4)
#loc25 = loc("tmp9"(#loc1))
#loc26 = loc("xoffset"(#loc3))
#loc27 = loc("xoffset"(#loc4))
#loc28 = loc("xindex"(#loc5))
#loc29 = loc("xindex"(#loc6))
#loc30 = loc("tmp0"(#loc7))
#loc31 = loc("tmp0"(#loc8))
#loc32 = loc("tmp0"(#loc9))
#loc33 = loc("tmp10"(#loc10))
#loc34 = loc("tmp10"(#loc11))
#loc35 = loc("tmp10"(#loc12))
#loc36 = loc("tmp4"(#loc13))
#loc37 = loc("tmp6"(#loc14))
#loc38 = loc("tmp7"(#loc15))
#loc39 = loc("tmp8"(#loc16))
#loc40 = loc("tmp12"(#loc17))
#loc41 = loc("tmp13"(#loc18))
#loc42 = loc("tmp15"(#loc19))
