#loc = loc("/mnt/g/GitHub/VAE_ca_proj/Thermal/.compile_cache/gd/cgdwm277zujfl53uggs33uaayy2qjjyrtxfifq6drz4yyo6uofw4.py":18:0)
#loc19 = loc("in_out_ptr0"(#loc))
#loc20 = loc("xnumel"(#loc))
module {
  tt.func public @triton_poi_fused__softmax__to_copy_amax_mul_sub_view_25(%in_out_ptr0: !tt.ptr<bf16> {tt.divisibility = 16 : i32} loc("in_out_ptr0"(#loc)), %xnumel: i32 {tt.divisibility = 16 : i32} loc("xnumel"(#loc))) attributes {noinline = false} {
    %xoffset = tt.get_program_id x : i32 loc(#loc21)
    %xoffset_0 = arith.constant 128 : i32 loc(#loc22)
    %xoffset_1 = arith.constant 128 : i32 loc(#loc22)
    %xoffset_2 = arith.muli %xoffset, %xoffset_1 : i32 loc(#loc22)
    %xindex = tt.make_range {end = 128 : i32, start = 0 : i32} : tensor<128xi32> loc(#loc23)
    %xindex_3 = tt.splat %xoffset_2 : i32 -> tensor<128xi32> loc(#loc24)
    %xindex_4 = arith.addi %xindex_3, %xindex : tensor<128xi32> loc(#loc24)
    %xmask = tt.splat %xnumel : i32 -> tensor<128xi32> loc(#loc25)
    %xmask_5 = arith.cmpi slt, %xindex_4, %xmask : tensor<128xi32> loc(#loc25)
    %tmp0 = tt.splat %in_out_ptr0 : !tt.ptr<bf16> -> tensor<128x!tt.ptr<bf16>> loc(#loc26)
    %tmp0_6 = tt.addptr %tmp0, %xindex_4 : tensor<128x!tt.ptr<bf16>>, tensor<128xi32> loc(#loc26)
    %tmp0_7 = tt.load %tmp0_6, %xmask_5 : tensor<128x!tt.ptr<bf16>> loc(#loc27)
    %tmp0_8 = arith.extf %tmp0_7 : tensor<128xbf16> to tensor<128xf32> loc(#loc28)
    %tmp2 = arith.constant 1.000000e+00 : f32 loc(#loc29)
    %tmp3 = arith.constant dense<1.000000e+00> : tensor<128xf32> loc(#loc30)
    %tmp3_9 = arith.mulf %tmp0_8, %tmp3 : tensor<128xf32> loc(#loc30)
    %tmp4 = arith.subf %tmp3_9, %tmp3_9 : tensor<128xf32> loc(#loc31)
    %tmp5 = arith.constant 1.250000e-01 : f32 loc(#loc32)
    %tmp6 = arith.constant dense<1.250000e-01> : tensor<128xf32> loc(#loc33)
    %tmp6_10 = arith.mulf %tmp4, %tmp6 : tensor<128xf32> loc(#loc33)
    %tmp7 = tt.extern_elementwise %tmp6_10 {libname = "", libpath = "", pure = true, symbol = "__nv_expf"} : (tensor<128xf32>) -> tensor<128xf32> loc(#loc34)
    %tmp8 = arith.divf %tmp7, %tmp7 : tensor<128xf32> loc(#loc35)
    %0 = tt.splat %in_out_ptr0 : !tt.ptr<bf16> -> tensor<128x!tt.ptr<bf16>> loc(#loc16)
    %1 = tt.addptr %0, %xindex_4 : tensor<128x!tt.ptr<bf16>>, tensor<128xi32> loc(#loc16)
    %2 = arith.truncf %tmp8 : tensor<128xf32> to tensor<128xbf16> loc(#loc17)
    tt.store %1, %2, %xmask_5 : tensor<128x!tt.ptr<bf16>> loc(#loc17)
    tt.return loc(#loc18)
  } loc(#loc)
} loc(#loc)
#loc1 = loc("/mnt/g/GitHub/VAE_ca_proj/Thermal/.compile_cache/gd/cgdwm277zujfl53uggs33uaayy2qjjyrtxfifq6drz4yyo6uofw4.py":19:28)
#loc2 = loc("/mnt/g/GitHub/VAE_ca_proj/Thermal/.compile_cache/gd/cgdwm277zujfl53uggs33uaayy2qjjyrtxfifq6drz4yyo6uofw4.py":19:33)
#loc3 = loc("/mnt/g/GitHub/VAE_ca_proj/Thermal/.compile_cache/gd/cgdwm277zujfl53uggs33uaayy2qjjyrtxfifq6drz4yyo6uofw4.py":20:36)
#loc4 = loc("/mnt/g/GitHub/VAE_ca_proj/Thermal/.compile_cache/gd/cgdwm277zujfl53uggs33uaayy2qjjyrtxfifq6drz4yyo6uofw4.py":20:23)
#loc5 = loc("/mnt/g/GitHub/VAE_ca_proj/Thermal/.compile_cache/gd/cgdwm277zujfl53uggs33uaayy2qjjyrtxfifq6drz4yyo6uofw4.py":21:21)
#loc6 = loc("/mnt/g/GitHub/VAE_ca_proj/Thermal/.compile_cache/gd/cgdwm277zujfl53uggs33uaayy2qjjyrtxfifq6drz4yyo6uofw4.py":23:34)
#loc7 = loc("/mnt/g/GitHub/VAE_ca_proj/Thermal/.compile_cache/gd/cgdwm277zujfl53uggs33uaayy2qjjyrtxfifq6drz4yyo6uofw4.py":23:39)
#loc8 = loc("/mnt/g/GitHub/VAE_ca_proj/Thermal/.compile_cache/gd/cgdwm277zujfl53uggs33uaayy2qjjyrtxfifq6drz4yyo6uofw4.py":23:49)
#loc9 = loc("/mnt/g/GitHub/VAE_ca_proj/Thermal/.compile_cache/gd/cgdwm277zujfl53uggs33uaayy2qjjyrtxfifq6drz4yyo6uofw4.py":25:11)
#loc10 = loc("/mnt/g/GitHub/VAE_ca_proj/Thermal/.compile_cache/gd/cgdwm277zujfl53uggs33uaayy2qjjyrtxfifq6drz4yyo6uofw4.py":26:18)
#loc11 = loc("/mnt/g/GitHub/VAE_ca_proj/Thermal/.compile_cache/gd/cgdwm277zujfl53uggs33uaayy2qjjyrtxfifq6drz4yyo6uofw4.py":27:18)
#loc12 = loc("/mnt/g/GitHub/VAE_ca_proj/Thermal/.compile_cache/gd/cgdwm277zujfl53uggs33uaayy2qjjyrtxfifq6drz4yyo6uofw4.py":28:11)
#loc13 = loc("/mnt/g/GitHub/VAE_ca_proj/Thermal/.compile_cache/gd/cgdwm277zujfl53uggs33uaayy2qjjyrtxfifq6drz4yyo6uofw4.py":29:18)
#loc14 = loc("/mnt/g/GitHub/VAE_ca_proj/Thermal/.compile_cache/gd/cgdwm277zujfl53uggs33uaayy2qjjyrtxfifq6drz4yyo6uofw4.py":30:25)
#loc15 = loc("/mnt/g/GitHub/VAE_ca_proj/Thermal/.compile_cache/gd/cgdwm277zujfl53uggs33uaayy2qjjyrtxfifq6drz4yyo6uofw4.py":31:19)
#loc16 = loc("/mnt/g/GitHub/VAE_ca_proj/Thermal/.compile_cache/gd/cgdwm277zujfl53uggs33uaayy2qjjyrtxfifq6drz4yyo6uofw4.py":33:28)
#loc17 = loc("/mnt/g/GitHub/VAE_ca_proj/Thermal/.compile_cache/gd/cgdwm277zujfl53uggs33uaayy2qjjyrtxfifq6drz4yyo6uofw4.py":33:39)
#loc18 = loc("/mnt/g/GitHub/VAE_ca_proj/Thermal/.compile_cache/gd/cgdwm277zujfl53uggs33uaayy2qjjyrtxfifq6drz4yyo6uofw4.py":33:4)
#loc21 = loc("xoffset"(#loc1))
#loc22 = loc("xoffset"(#loc2))
#loc23 = loc("xindex"(#loc3))
#loc24 = loc("xindex"(#loc4))
#loc25 = loc("xmask"(#loc5))
#loc26 = loc("tmp0"(#loc6))
#loc27 = loc("tmp0"(#loc7))
#loc28 = loc("tmp0"(#loc8))
#loc29 = loc("tmp2"(#loc9))
#loc30 = loc("tmp3"(#loc10))
#loc31 = loc("tmp4"(#loc11))
#loc32 = loc("tmp5"(#loc12))
#loc33 = loc("tmp6"(#loc13))
#loc34 = loc("tmp7"(#loc14))
#loc35 = loc("tmp8"(#loc15))
