#loc = loc("/mnt/g/GitHub/VAE_ca_proj/Thermal/.compile_cache/ob/cobtdtxpb5l3kvwyb6p3tzyovlqklczodmlyb7fuk7om7fos2bfd.py":18:0)
#loc27 = loc("in_out_ptr0"(#loc))
#loc28 = loc("in_ptr0"(#loc))
#loc29 = loc("xnumel"(#loc))
module {
  tt.func public @triton_poi_fused__softmax__softmax_backward_data__to_copy_amax_mul_sub_view_36(%in_out_ptr0: !tt.ptr<bf16> {tt.divisibility = 16 : i32} loc("in_out_ptr0"(#loc)), %in_ptr0: !tt.ptr<bf16> {tt.divisibility = 16 : i32} loc("in_ptr0"(#loc)), %xnumel: i32 {tt.divisibility = 16 : i32} loc("xnumel"(#loc))) attributes {noinline = false} {
    %xnumel_0 = arith.constant 131072 : i32 loc(#loc30)
    %xoffset = tt.get_program_id x : i32 loc(#loc31)
    %xoffset_1 = arith.constant 1024 : i32 loc(#loc32)
    %xoffset_2 = arith.constant 1024 : i32 loc(#loc32)
    %xoffset_3 = arith.muli %xoffset, %xoffset_2 : i32 loc(#loc32)
    %xindex = tt.make_range {end = 1024 : i32, start = 0 : i32} : tensor<1024xi32> loc(#loc33)
    %xindex_4 = tt.splat %xoffset_3 : i32 -> tensor<1024xi32> loc(#loc34)
    %xindex_5 = arith.addi %xindex_4, %xindex : tensor<1024xi32> loc(#loc34)
    %xmask = arith.constant true loc(#loc35)
    %xmask_6 = arith.constant dense<true> : tensor<1024xi1> loc(#loc35)
    %tmp0 = tt.splat %in_out_ptr0 : !tt.ptr<bf16> -> tensor<1024x!tt.ptr<bf16>> loc(#loc36)
    %tmp0_7 = tt.addptr %tmp0, %xindex_5 : tensor<1024x!tt.ptr<bf16>>, tensor<1024xi32> loc(#loc36)
    %tmp0_8 = tt.load %tmp0_7 : tensor<1024x!tt.ptr<bf16>> loc(#loc37)
    %tmp0_9 = arith.extf %tmp0_8 : tensor<1024xbf16> to tensor<1024xf32> loc(#loc38)
    %tmp10 = tt.splat %in_ptr0 : !tt.ptr<bf16> -> tensor<1024x!tt.ptr<bf16>> loc(#loc39)
    %tmp10_10 = tt.addptr %tmp10, %xindex_5 : tensor<1024x!tt.ptr<bf16>>, tensor<1024xi32> loc(#loc39)
    %tmp10_11 = tt.load %tmp10_10 : tensor<1024x!tt.ptr<bf16>> loc(#loc40)
    %tmp10_12 = arith.extf %tmp10_11 : tensor<1024xbf16> to tensor<1024xf32> loc(#loc41)
    %tmp2 = arith.constant 1.000000e+00 : f32 loc(#loc42)
    %tmp3 = arith.constant dense<1.000000e+00> : tensor<1024xf32> loc(#loc43)
    %tmp3_13 = arith.mulf %tmp0_9, %tmp3 : tensor<1024xf32> loc(#loc43)
    %tmp4 = arith.subf %tmp3_13, %tmp3_13 : tensor<1024xf32> loc(#loc44)
    %tmp5 = arith.constant 1.250000e-01 : f32 loc(#loc45)
    %tmp6 = arith.constant dense<1.250000e-01> : tensor<1024xf32> loc(#loc46)
    %tmp6_14 = arith.mulf %tmp4, %tmp6 : tensor<1024xf32> loc(#loc46)
    %tmp7 = tt.extern_elementwise %tmp6_14 {libname = "", libpath = "", pure = true, symbol = "__nv_expf"} : (tensor<1024xf32>) -> tensor<1024xf32> loc(#loc47)
    %tmp8 = arith.divf %tmp7, %tmp7 : tensor<1024xf32> loc(#loc48)
    %tmp9 = arith.constant 0.000000e+00 : f32 loc(#loc49)
    %tmp9_15 = arith.constant dense<0.000000e+00> : tensor<1024xf32> loc(#loc49)
    %tmp9_16 = arith.subf %tmp9_15, %tmp8 : tensor<1024xf32> loc(#loc49)
    %tmp12 = arith.mulf %tmp10_12, %tmp8 : tensor<1024xf32> loc(#loc50)
    %tmp13 = tt.extern_elementwise %tmp9_16, %tmp12, %tmp12 {libname = "", libpath = "", pure = true, symbol = "__nv_fmaf"} : (tensor<1024xf32>, tensor<1024xf32>, tensor<1024xf32>) -> tensor<1024xf32> loc(#loc51)
    %tmp15 = arith.constant dense<1.250000e-01> : tensor<1024xf32> loc(#loc52)
    %tmp15_17 = arith.mulf %tmp13, %tmp15 : tensor<1024xf32> loc(#loc52)
    %0 = tt.splat %in_out_ptr0 : !tt.ptr<bf16> -> tensor<1024x!tt.ptr<bf16>> loc(#loc24)
    %1 = tt.addptr %0, %xindex_5 : tensor<1024x!tt.ptr<bf16>>, tensor<1024xi32> loc(#loc24)
    %2 = arith.truncf %tmp15_17 : tensor<1024xf32> to tensor<1024xbf16> loc(#loc25)
    tt.store %1, %2 : tensor<1024x!tt.ptr<bf16>> loc(#loc25)
    tt.return loc(#loc26)
  } loc(#loc)
} loc(#loc)
#loc1 = loc("/mnt/g/GitHub/VAE_ca_proj/Thermal/.compile_cache/ob/cobtdtxpb5l3kvwyb6p3tzyovlqklczodmlyb7fuk7om7fos2bfd.py":19:13)
#loc2 = loc("/mnt/g/GitHub/VAE_ca_proj/Thermal/.compile_cache/ob/cobtdtxpb5l3kvwyb6p3tzyovlqklczodmlyb7fuk7om7fos2bfd.py":20:28)
#loc3 = loc("/mnt/g/GitHub/VAE_ca_proj/Thermal/.compile_cache/ob/cobtdtxpb5l3kvwyb6p3tzyovlqklczodmlyb7fuk7om7fos2bfd.py":20:33)
#loc4 = loc("/mnt/g/GitHub/VAE_ca_proj/Thermal/.compile_cache/ob/cobtdtxpb5l3kvwyb6p3tzyovlqklczodmlyb7fuk7om7fos2bfd.py":21:36)
#loc5 = loc("/mnt/g/GitHub/VAE_ca_proj/Thermal/.compile_cache/ob/cobtdtxpb5l3kvwyb6p3tzyovlqklczodmlyb7fuk7om7fos2bfd.py":21:23)
#loc6 = loc("/mnt/g/GitHub/VAE_ca_proj/Thermal/.compile_cache/ob/cobtdtxpb5l3kvwyb6p3tzyovlqklczodmlyb7fuk7om7fos2bfd.py":22:36)
#loc7 = loc("/mnt/g/GitHub/VAE_ca_proj/Thermal/.compile_cache/ob/cobtdtxpb5l3kvwyb6p3tzyovlqklczodmlyb7fuk7om7fos2bfd.py":24:34)
#loc8 = loc("/mnt/g/GitHub/VAE_ca_proj/Thermal/.compile_cache/ob/cobtdtxpb5l3kvwyb6p3tzyovlqklczodmlyb7fuk7om7fos2bfd.py":24:39)
#loc9 = loc("/mnt/g/GitHub/VAE_ca_proj/Thermal/.compile_cache/ob/cobtdtxpb5l3kvwyb6p3tzyovlqklczodmlyb7fuk7om7fos2bfd.py":24:48)
#loc10 = loc("/mnt/g/GitHub/VAE_ca_proj/Thermal/.compile_cache/ob/cobtdtxpb5l3kvwyb6p3tzyovlqklczodmlyb7fuk7om7fos2bfd.py":25:31)
#loc11 = loc("/mnt/g/GitHub/VAE_ca_proj/Thermal/.compile_cache/ob/cobtdtxpb5l3kvwyb6p3tzyovlqklczodmlyb7fuk7om7fos2bfd.py":25:36)
#loc12 = loc("/mnt/g/GitHub/VAE_ca_proj/Thermal/.compile_cache/ob/cobtdtxpb5l3kvwyb6p3tzyovlqklczodmlyb7fuk7om7fos2bfd.py":25:45)
#loc13 = loc("/mnt/g/GitHub/VAE_ca_proj/Thermal/.compile_cache/ob/cobtdtxpb5l3kvwyb6p3tzyovlqklczodmlyb7fuk7om7fos2bfd.py":27:11)
#loc14 = loc("/mnt/g/GitHub/VAE_ca_proj/Thermal/.compile_cache/ob/cobtdtxpb5l3kvwyb6p3tzyovlqklczodmlyb7fuk7om7fos2bfd.py":28:18)
#loc15 = loc("/mnt/g/GitHub/VAE_ca_proj/Thermal/.compile_cache/ob/cobtdtxpb5l3kvwyb6p3tzyovlqklczodmlyb7fuk7om7fos2bfd.py":29:18)
#loc16 = loc("/mnt/g/GitHub/VAE_ca_proj/Thermal/.compile_cache/ob/cobtdtxpb5l3kvwyb6p3tzyovlqklczodmlyb7fuk7om7fos2bfd.py":30:11)
#loc17 = loc("/mnt/g/GitHub/VAE_ca_proj/Thermal/.compile_cache/ob/cobtdtxpb5l3kvwyb6p3tzyovlqklczodmlyb7fuk7om7fos2bfd.py":31:18)
#loc18 = loc("/mnt/g/GitHub/VAE_ca_proj/Thermal/.compile_cache/ob/cobtdtxpb5l3kvwyb6p3tzyovlqklczodmlyb7fuk7om7fos2bfd.py":32:25)
#loc19 = loc("/mnt/g/GitHub/VAE_ca_proj/Thermal/.compile_cache/ob/cobtdtxpb5l3kvwyb6p3tzyovlqklczodmlyb7fuk7om7fos2bfd.py":33:19)
#loc20 = loc("/mnt/g/GitHub/VAE_ca_proj/Thermal/.compile_cache/ob/cobtdtxpb5l3kvwyb6p3tzyovlqklczodmlyb7fuk7om7fos2bfd.py":34:12)
#loc21 = loc("/mnt/g/GitHub/VAE_ca_proj/Thermal/.compile_cache/ob/cobtdtxpb5l3kvwyb6p3tzyovlqklczodmlyb7fuk7om7fos2bfd.py":36:20)
#loc22 = loc("/mnt/g/GitHub/VAE_ca_proj/Thermal/.compile_cache/ob/cobtdtxpb5l3kvwyb6p3tzyovlqklczodmlyb7fuk7om7fos2bfd.py":37:39)
#loc23 = loc("/mnt/g/GitHub/VAE_ca_proj/Thermal/.compile_cache/ob/cobtdtxpb5l3kvwyb6p3tzyovlqklczodmlyb7fuk7om7fos2bfd.py":39:20)
#loc24 = loc("/mnt/g/GitHub/VAE_ca_proj/Thermal/.compile_cache/ob/cobtdtxpb5l3kvwyb6p3tzyovlqklczodmlyb7fuk7om7fos2bfd.py":40:28)
#loc25 = loc("/mnt/g/GitHub/VAE_ca_proj/Thermal/.compile_cache/ob/cobtdtxpb5l3kvwyb6p3tzyovlqklczodmlyb7fuk7om7fos2bfd.py":40:40)
#loc26 = loc("/mnt/g/GitHub/VAE_ca_proj/Thermal/.compile_cache/ob/cobtdtxpb5l3kvwyb6p3tzyovlqklczodmlyb7fuk7om7fos2bfd.py":40:4)
#loc30 = loc("xnumel"(#loc1))
#loc31 = loc("xoffset"(#loc2))
#loc32 = loc("xoffset"(#loc3))
#loc33 = loc("xindex"(#loc4))
#loc34 = loc("xindex"(#loc5))
#loc35 = loc("xmask"(#loc6))
#loc36 = loc("tmp0"(#loc7))
#loc37 = loc("tmp0"(#loc8))
#loc38 = loc("tmp0"(#loc9))
#loc39 = loc("tmp10"(#loc10))
#loc40 = loc("tmp10"(#loc11))
#loc41 = loc("tmp10"(#loc12))
#loc42 = loc("tmp2"(#loc13))
#loc43 = loc("tmp3"(#loc14))
#loc44 = loc("tmp4"(#loc15))
#loc45 = loc("tmp5"(#loc16))
#loc46 = loc("tmp6"(#loc17))
#loc47 = loc("tmp7"(#loc18))
#loc48 = loc("tmp8"(#loc19))
#loc49 = loc("tmp9"(#loc20))
#loc50 = loc("tmp12"(#loc21))
#loc51 = loc("tmp13"(#loc22))
#loc52 = loc("tmp15"(#loc23))
