#loc = loc("/mnt/g/GitHub/VAE_ca_proj/Thermal/.compile_cache/qj/cqj4na2tdx53r37dnojn36xalufiwyvm2yikv3sjbu4g5ljlkdzr.py":18:0)
#loc3 = loc(unknown)
#loc17 = loc("/mnt/g/GitHub/VAE_ca_proj/Thermal/.compile_cache/qj/cqj4na2tdx53r37dnojn36xalufiwyvm2yikv3sjbu4g5ljlkdzr.py":41:25)
#loc23 = loc("in_ptr0"(#loc))
#loc24 = loc("out_ptr0"(#loc))
#loc25 = loc("xnumel"(#loc))
#loc26 = loc("r0_numel"(#loc))
#loc41 = loc("tmp3"(#loc17))
#loc46 = loc(callsite(#loc3 at #loc41))
module {
  tt.func public @triton_red_fused_sum_89(%in_ptr0: !tt.ptr<bf16> {tt.divisibility = 16 : i32} loc("in_ptr0"(#loc)), %out_ptr0: !tt.ptr<f32> {tt.divisibility = 16 : i32} loc("out_ptr0"(#loc)), %xnumel: i32 {tt.divisibility = 16 : i32} loc("xnumel"(#loc)), %r0_numel: i32 {tt.divisibility = 16 : i32} loc("r0_numel"(#loc))) attributes {noinline = false} {
    %xmask = arith.constant 3200 : i32 loc(#loc27)
    %tmp0 = arith.constant dense<0.000000e+00> : tensor<1x128xbf16> loc(#loc28)
    %cst = arith.constant dense<3200> : tensor<1x128xi32> loc(#loc3)
    %cst_0 = arith.constant dense<128> : tensor<1x128xi32> loc(#loc3)
    %cst_1 = arith.constant dense<0.000000e+00> : tensor<1x128xf32> loc(#loc3)
    %xoffset = tt.get_program_id x : i32 loc(#loc29)
    %xmask_2 = arith.cmpi slt, %xoffset, %xmask : i32 loc(#loc27)
    %xmask_3 = tt.splat %xmask_2 : i1 -> tensor<1x1xi1> loc(#loc27)
    %r0_base = tt.make_range {end = 128 : i32, start = 0 : i32} : tensor<128xi32> loc(#loc30)
    %r0_base_4 = tt.expand_dims %r0_base {axis = 0 : i32} : tensor<128xi32> -> tensor<1x128xi32> loc(#loc31)
    %r0_mask = arith.cmpi slt, %r0_base_4, %cst_0 : tensor<1x128xi32> loc(#loc32)
    %tmp0_5 = arith.muli %r0_base_4, %cst : tensor<1x128xi32> loc(#loc33)
    %tmp0_6 = tt.splat %xoffset : i32 -> tensor<1x128xi32> loc(#loc43)
    %tmp0_7 = arith.addi %tmp0_6, %tmp0_5 : tensor<1x128xi32> loc(#loc34)
    %tmp0_8 = tt.splat %in_ptr0 : !tt.ptr<bf16> -> tensor<1x128x!tt.ptr<bf16>> loc(#loc36)
    %tmp0_9 = tt.addptr %tmp0_8, %tmp0_7 : tensor<1x128x!tt.ptr<bf16>>, tensor<1x128xi32> loc(#loc36)
    %tmp0_10 = tt.splat %xmask_2 : i1 -> tensor<1x128xi1> loc(#loc44)
    %tmp0_11 = arith.andi %r0_mask, %tmp0_10 : tensor<1x128xi1> loc(#loc37)
    %tmp0_12 = tt.load %tmp0_9, %tmp0_11, %tmp0 evictionPolicy = evict_first : tensor<1x128x!tt.ptr<bf16>> loc(#loc28)
    %tmp0_13 = arith.extf %tmp0_12 : tensor<1x128xbf16> to tensor<1x128xf32> loc(#loc38)
    %tmp4 = arith.addf %tmp0_13, %cst_1 : tensor<1x128xf32> loc(#loc39)
    %_tmp3 = arith.select %tmp0_11, %tmp4, %cst_1 : tensor<1x128xi1>, tensor<1x128xf32> loc(#loc40)
    %tmp3 = "tt.reduce"(%_tmp3) <{axis = 1 : i32}> ({
    ^bb0(%tmp3_15: f32 loc(callsite(#loc3 at #loc41)), %tmp3_16: f32 loc(callsite(#loc3 at #loc41))):
      %tmp3_17 = arith.addf %tmp3_15, %tmp3_16 : f32 loc(#loc47)
      tt.reduce.return %tmp3_17 : f32 loc(#loc45)
    }) : (tensor<1x128xf32>) -> tensor<1xf32> loc(#loc45)
    %tmp3_14 = tt.expand_dims %tmp3 {axis = 1 : i32} : tensor<1xf32> -> tensor<1x1xf32> loc(#loc42)
    %0 = tt.addptr %out_ptr0, %xoffset : !tt.ptr<f32>, i32 loc(#loc20)
    %1 = tt.splat %0 : !tt.ptr<f32> -> tensor<1x1x!tt.ptr<f32>> loc(#loc20)
    tt.store %1, %tmp3_14, %xmask_3 : tensor<1x1x!tt.ptr<f32>> loc(#loc21)
    tt.return loc(#loc22)
  } loc(#loc)
} loc(#loc)
#loc1 = loc("/mnt/g/GitHub/VAE_ca_proj/Thermal/.compile_cache/qj/cqj4na2tdx53r37dnojn36xalufiwyvm2yikv3sjbu4g5ljlkdzr.py":25:21)
#loc2 = loc("/mnt/g/GitHub/VAE_ca_proj/Thermal/.compile_cache/qj/cqj4na2tdx53r37dnojn36xalufiwyvm2yikv3sjbu4g5ljlkdzr.py":36:51)
#loc4 = loc("/mnt/g/GitHub/VAE_ca_proj/Thermal/.compile_cache/qj/cqj4na2tdx53r37dnojn36xalufiwyvm2yikv3sjbu4g5ljlkdzr.py":23:28)
#loc5 = loc("/mnt/g/GitHub/VAE_ca_proj/Thermal/.compile_cache/qj/cqj4na2tdx53r37dnojn36xalufiwyvm2yikv3sjbu4g5ljlkdzr.py":26:27)
#loc6 = loc("/mnt/g/GitHub/VAE_ca_proj/Thermal/.compile_cache/qj/cqj4na2tdx53r37dnojn36xalufiwyvm2yikv3sjbu4g5ljlkdzr.py":26:37)
#loc7 = loc("/mnt/g/GitHub/VAE_ca_proj/Thermal/.compile_cache/qj/cqj4na2tdx53r37dnojn36xalufiwyvm2yikv3sjbu4g5ljlkdzr.py":32:29)
#loc8 = loc("/mnt/g/GitHub/VAE_ca_proj/Thermal/.compile_cache/qj/cqj4na2tdx53r37dnojn36xalufiwyvm2yikv3sjbu4g5ljlkdzr.py":36:44)
#loc9 = loc("/mnt/g/GitHub/VAE_ca_proj/Thermal/.compile_cache/qj/cqj4na2tdx53r37dnojn36xalufiwyvm2yikv3sjbu4g5ljlkdzr.py":36:39)
#loc10 = loc("/mnt/g/GitHub/VAE_ca_proj/Thermal/.compile_cache/qj/cqj4na2tdx53r37dnojn36xalufiwyvm2yikv3sjbu4g5ljlkdzr.py":24:23)
#loc11 = loc("/mnt/g/GitHub/VAE_ca_proj/Thermal/.compile_cache/qj/cqj4na2tdx53r37dnojn36xalufiwyvm2yikv3sjbu4g5ljlkdzr.py":36:34)
#loc12 = loc("/mnt/g/GitHub/VAE_ca_proj/Thermal/.compile_cache/qj/cqj4na2tdx53r37dnojn36xalufiwyvm2yikv3sjbu4g5ljlkdzr.py":36:61)
#loc13 = loc("/mnt/g/GitHub/VAE_ca_proj/Thermal/.compile_cache/qj/cqj4na2tdx53r37dnojn36xalufiwyvm2yikv3sjbu4g5ljlkdzr.py":36:113)
#loc14 = loc("/mnt/g/GitHub/VAE_ca_proj/Thermal/.compile_cache/qj/cqj4na2tdx53r37dnojn36xalufiwyvm2yikv3sjbu4g5ljlkdzr.py":39:23)
#loc15 = loc("/mnt/g/GitHub/VAE_ca_proj/Thermal/.compile_cache/qj/cqj4na2tdx53r37dnojn36xalufiwyvm2yikv3sjbu4g5ljlkdzr.py":40:48)
#loc16 = loc("/home/xy/miniconda3/envs/cu128/lib/python3.12/site-packages/triton/language/standard.py":291:36)
#loc18 = loc("/home/xy/miniconda3/envs/cu128/lib/python3.12/site-packages/triton/language/standard.py":261:15)
#loc19 = loc("/mnt/g/GitHub/VAE_ca_proj/Thermal/.compile_cache/qj/cqj4na2tdx53r37dnojn36xalufiwyvm2yikv3sjbu4g5ljlkdzr.py":41:28)
#loc20 = loc("/mnt/g/GitHub/VAE_ca_proj/Thermal/.compile_cache/qj/cqj4na2tdx53r37dnojn36xalufiwyvm2yikv3sjbu4g5ljlkdzr.py":42:25)
#loc21 = loc("/mnt/g/GitHub/VAE_ca_proj/Thermal/.compile_cache/qj/cqj4na2tdx53r37dnojn36xalufiwyvm2yikv3sjbu4g5ljlkdzr.py":42:36)
#loc22 = loc("/mnt/g/GitHub/VAE_ca_proj/Thermal/.compile_cache/qj/cqj4na2tdx53r37dnojn36xalufiwyvm2yikv3sjbu4g5ljlkdzr.py":42:4)
#loc27 = loc("xmask"(#loc1))
#loc28 = loc("tmp0"(#loc2))
#loc29 = loc("xoffset"(#loc4))
#loc30 = loc("r0_base"(#loc5))
#loc31 = loc("r0_base"(#loc6))
#loc32 = loc("r0_mask"(#loc7))
#loc33 = loc("tmp0"(#loc8))
#loc34 = loc("tmp0"(#loc9))
#loc35 = loc("xindex"(#loc10))
#loc36 = loc("tmp0"(#loc11))
#loc37 = loc("tmp0"(#loc12))
#loc38 = loc("tmp0"(#loc13))
#loc39 = loc("tmp4"(#loc14))
#loc40 = loc("_tmp3"(#loc15))
#loc42 = loc("tmp3"(#loc19))
#loc43 = loc(fused[#loc34, #loc35])
#loc44 = loc(fused[#loc37, #loc27])
#loc45 = loc(callsite(#loc16 at #loc41))
#loc47 = loc(callsite(#loc18 at #loc45))
