#loc = loc("/mnt/g/GitHub/VAE_ca_proj/Thermal/.compile_cache/vk/cvkdaiqyfle5rzoxn3qynpllubhj4czv52uigmvcm6vneu4a472p.py":18:0)
#loc23 = loc("in_ptr0"(#loc))
#loc24 = loc("in_ptr1"(#loc))
#loc25 = loc("out_ptr0"(#loc))
#loc26 = loc("xnumel"(#loc))
module {
  tt.func public @triton_poi_fused__to_copy_cat_expand_unsqueeze_5(%in_ptr0: !tt.ptr<bf16> {tt.divisibility = 16 : i32} loc("in_ptr0"(#loc)), %in_ptr1: !tt.ptr<f32> {tt.divisibility = 16 : i32} loc("in_ptr1"(#loc)), %out_ptr0: !tt.ptr<bf16> {tt.divisibility = 16 : i32} loc("out_ptr0"(#loc)), %xnumel: i32 {tt.divisibility = 16 : i32} loc("xnumel"(#loc))) attributes {noinline = false} {
    %tmp5 = arith.constant dense<0.000000e+00> : tensor<512xbf16> loc(#loc27)
    %tmp12 = arith.constant dense<-256> : tensor<512xi32> loc(#loc28)
    %cst = arith.constant dense<0.000000e+00> : tensor<512xf32> loc(#loc3)
    %tmp5_0 = arith.constant dense<256> : tensor<512xi32> loc(#loc29)
    %cst_1 = arith.constant dense<256> : tensor<512xi64> loc(#loc3)
    %cst_2 = arith.constant dense<512> : tensor<512xi32> loc(#loc3)
    %c512_i32 = arith.constant 512 : i32 loc(#loc3)
    %xoffset = tt.get_program_id x : i32 loc(#loc30)
    %xoffset_3 = arith.muli %xoffset, %c512_i32 : i32 loc(#loc31)
    %xindex = tt.make_range {end = 512 : i32, start = 0 : i32} : tensor<512xi32> loc(#loc32)
    %xindex_4 = tt.splat %xoffset_3 : i32 -> tensor<512xi32> loc(#loc33)
    %xindex_5 = arith.addi %xindex_4, %xindex : tensor<512xi32> loc(#loc33)
    %x0 = arith.remsi %xindex_5, %cst_2 : tensor<512xi32> loc(#loc34)
    %x1 = arith.divsi %xindex_5, %cst_2 : tensor<512xi32> loc(#loc35)
    %tmp4 = arith.extsi %x0 : tensor<512xi32> to tensor<512xi64> loc(#loc36)
    %tmp4_6 = arith.cmpi slt, %tmp4, %cst_1 : tensor<512xi64> loc(#loc36)
    %tmp5_7 = arith.muli %x1, %tmp5_0 : tensor<512xi32> loc(#loc29)
    %tmp5_8 = arith.addi %tmp5_7, %x0 : tensor<512xi32> loc(#loc37)
    %tmp5_9 = tt.splat %in_ptr0 : !tt.ptr<bf16> -> tensor<512x!tt.ptr<bf16>> loc(#loc38)
    %tmp5_10 = tt.addptr %tmp5_9, %tmp5_8 : tensor<512x!tt.ptr<bf16>>, tensor<512xi32> loc(#loc38)
    %tmp5_11 = tt.load %tmp5_10, %tmp4_6, %tmp5 evictionPolicy = evict_last : tensor<512x!tt.ptr<bf16>> loc(#loc27)
    %tmp5_12 = arith.extf %tmp5_11 : tensor<512xbf16> to tensor<512xf32> loc(#loc39)
    %tmp9 = arith.cmpi sge, %tmp4, %cst_1 : tensor<512xi64> loc(#loc40)
    %tmp12_13 = arith.addi %x0, %tmp12 : tensor<512xi32> loc(#loc28)
    %tmp12_14 = tt.splat %in_ptr1 : !tt.ptr<f32> -> tensor<512x!tt.ptr<f32>> loc(#loc41)
    %tmp12_15 = tt.addptr %tmp12_14, %tmp12_13 : tensor<512x!tt.ptr<f32>>, tensor<512xi32> loc(#loc41)
    %tmp12_16 = tt.load %tmp12_15, %tmp9, %cst evictionPolicy = evict_last : tensor<512x!tt.ptr<f32>> loc(#loc42)
    %tmp13 = arith.select %tmp4_6, %tmp5_12, %tmp12_16 : tensor<512xi1>, tensor<512xf32> loc(#loc45)
    %0 = tt.splat %out_ptr0 : !tt.ptr<bf16> -> tensor<512x!tt.ptr<bf16>> loc(#loc20)
    %1 = tt.addptr %0, %xindex_5 : tensor<512x!tt.ptr<bf16>>, tensor<512xi32> loc(#loc20)
    %2 = arith.truncf %tmp13 : tensor<512xf32> to tensor<512xbf16> loc(#loc21)
    tt.store %1, %2 : tensor<512x!tt.ptr<bf16>> loc(#loc21)
    tt.return loc(#loc22)
  } loc(#loc)
} loc(#loc)
#loc1 = loc("/mnt/g/GitHub/VAE_ca_proj/Thermal/.compile_cache/vk/cvkdaiqyfle5rzoxn3qynpllubhj4czv52uigmvcm6vneu4a472p.py":31:46)
#loc2 = loc("/mnt/g/GitHub/VAE_ca_proj/Thermal/.compile_cache/vk/cvkdaiqyfle5rzoxn3qynpllubhj4czv52uigmvcm6vneu4a472p.py":38:40)
#loc3 = loc(unknown)
#loc4 = loc("/mnt/g/GitHub/VAE_ca_proj/Thermal/.compile_cache/vk/cvkdaiqyfle5rzoxn3qynpllubhj4czv52uigmvcm6vneu4a472p.py":31:34)
#loc5 = loc("/mnt/g/GitHub/VAE_ca_proj/Thermal/.compile_cache/vk/cvkdaiqyfle5rzoxn3qynpllubhj4czv52uigmvcm6vneu4a472p.py":20:28)
#loc6 = loc("/mnt/g/GitHub/VAE_ca_proj/Thermal/.compile_cache/vk/cvkdaiqyfle5rzoxn3qynpllubhj4czv52uigmvcm6vneu4a472p.py":20:33)
#loc7 = loc("/mnt/g/GitHub/VAE_ca_proj/Thermal/.compile_cache/vk/cvkdaiqyfle5rzoxn3qynpllubhj4czv52uigmvcm6vneu4a472p.py":21:36)
#loc8 = loc("/mnt/g/GitHub/VAE_ca_proj/Thermal/.compile_cache/vk/cvkdaiqyfle5rzoxn3qynpllubhj4czv52uigmvcm6vneu4a472p.py":21:23)
#loc9 = loc("/mnt/g/GitHub/VAE_ca_proj/Thermal/.compile_cache/vk/cvkdaiqyfle5rzoxn3qynpllubhj4czv52uigmvcm6vneu4a472p.py":23:19)
#loc10 = loc("/mnt/g/GitHub/VAE_ca_proj/Thermal/.compile_cache/vk/cvkdaiqyfle5rzoxn3qynpllubhj4czv52uigmvcm6vneu4a472p.py":24:19)
#loc11 = loc("/mnt/g/GitHub/VAE_ca_proj/Thermal/.compile_cache/vk/cvkdaiqyfle5rzoxn3qynpllubhj4czv52uigmvcm6vneu4a472p.py":30:18)
#loc12 = loc("/mnt/g/GitHub/VAE_ca_proj/Thermal/.compile_cache/vk/cvkdaiqyfle5rzoxn3qynpllubhj4czv52uigmvcm6vneu4a472p.py":31:40)
#loc13 = loc("/mnt/g/GitHub/VAE_ca_proj/Thermal/.compile_cache/vk/cvkdaiqyfle5rzoxn3qynpllubhj4czv52uigmvcm6vneu4a472p.py":31:30)
#loc14 = loc("/mnt/g/GitHub/VAE_ca_proj/Thermal/.compile_cache/vk/cvkdaiqyfle5rzoxn3qynpllubhj4czv52uigmvcm6vneu4a472p.py":31:96)
#loc15 = loc("/mnt/g/GitHub/VAE_ca_proj/Thermal/.compile_cache/vk/cvkdaiqyfle5rzoxn3qynpllubhj4czv52uigmvcm6vneu4a472p.py":35:19)
#loc16 = loc("/mnt/g/GitHub/VAE_ca_proj/Thermal/.compile_cache/vk/cvkdaiqyfle5rzoxn3qynpllubhj4czv52uigmvcm6vneu4a472p.py":38:31)
#loc17 = loc("/mnt/g/GitHub/VAE_ca_proj/Thermal/.compile_cache/vk/cvkdaiqyfle5rzoxn3qynpllubhj4czv52uigmvcm6vneu4a472p.py":38:45)
#loc18 = loc("/mnt/g/GitHub/VAE_ca_proj/Thermal/.compile_cache/vk/cvkdaiqyfle5rzoxn3qynpllubhj4czv52uigmvcm6vneu4a472p.py":39:33)
#loc19 = loc("/mnt/g/GitHub/VAE_ca_proj/Thermal/.compile_cache/vk/cvkdaiqyfle5rzoxn3qynpllubhj4czv52uigmvcm6vneu4a472p.py":34:32)
#loc20 = loc("/mnt/g/GitHub/VAE_ca_proj/Thermal/.compile_cache/vk/cvkdaiqyfle5rzoxn3qynpllubhj4czv52uigmvcm6vneu4a472p.py":41:25)
#loc21 = loc("/mnt/g/GitHub/VAE_ca_proj/Thermal/.compile_cache/vk/cvkdaiqyfle5rzoxn3qynpllubhj4czv52uigmvcm6vneu4a472p.py":41:37)
#loc22 = loc("/mnt/g/GitHub/VAE_ca_proj/Thermal/.compile_cache/vk/cvkdaiqyfle5rzoxn3qynpllubhj4czv52uigmvcm6vneu4a472p.py":41:4)
#loc27 = loc("tmp5"(#loc1))
#loc28 = loc("tmp12"(#loc2))
#loc29 = loc("tmp5"(#loc4))
#loc30 = loc("xoffset"(#loc5))
#loc31 = loc("xoffset"(#loc6))
#loc32 = loc("xindex"(#loc7))
#loc33 = loc("xindex"(#loc8))
#loc34 = loc("x0"(#loc9))
#loc35 = loc("x1"(#loc10))
#loc36 = loc("tmp4"(#loc11))
#loc37 = loc("tmp5"(#loc12))
#loc38 = loc("tmp5"(#loc13))
#loc39 = loc("tmp5"(#loc14))
#loc40 = loc("tmp9"(#loc15))
#loc41 = loc("tmp12"(#loc16))
#loc42 = loc("tmp12"(#loc17))
#loc43 = loc("tmp13"(#loc18))
#loc44 = loc("tmp8"(#loc19))
#loc45 = loc(fused[#loc43, #loc44])
