#loc = loc("/mnt/g/GitHub/VAE_ca_proj/Thermal/.compile_cache/oy/coybcqjmmpq7ryevejeju3nxhk73gdstwyb43i65y6ixzsppf4fv.py":18:0)
#loc24 = loc("in_out_ptr0"(#loc))
#loc25 = loc("in_ptr0"(#loc))
#loc26 = loc("xnumel"(#loc))
module {
  tt.func public @triton_poi_fused_add_fill_mul_sigmoid_sub_88(%in_out_ptr0: !tt.ptr<bf16> {tt.divisibility = 16 : i32} loc("in_out_ptr0"(#loc)), %in_ptr0: !tt.ptr<bf16> {tt.divisibility = 16 : i32} loc("in_ptr0"(#loc)), %xnumel: i32 {tt.divisibility = 16 : i32} loc("xnumel"(#loc))) attributes {noinline = false} {
    %tmp2 = arith.constant dense<0.000000e+00> : tensor<1024xf32> loc(#loc43)
    %cst = arith.constant dense<1.000000e+00> : tensor<1024xf32> loc(#loc3)
    %c1024_i32 = arith.constant 1024 : i32 loc(#loc3)
    %xoffset = tt.get_program_id x : i32 loc(#loc28)
    %xoffset_0 = arith.muli %xoffset, %c1024_i32 : i32 loc(#loc29)
    %xindex = tt.make_range {end = 1024 : i32, start = 0 : i32} : tensor<1024xi32> loc(#loc30)
    %xindex_1 = tt.splat %xoffset_0 : i32 -> tensor<1024xi32> loc(#loc31)
    %xindex_2 = arith.addi %xindex_1, %xindex : tensor<1024xi32> loc(#loc31)
    %tmp0 = tt.splat %in_out_ptr0 : !tt.ptr<bf16> -> tensor<1024x!tt.ptr<bf16>> loc(#loc32)
    %tmp0_3 = tt.addptr %tmp0, %xindex_2 : tensor<1024x!tt.ptr<bf16>>, tensor<1024xi32> loc(#loc32)
    %tmp0_4 = tt.load %tmp0_3 : tensor<1024x!tt.ptr<bf16>> loc(#loc33)
    %tmp0_5 = arith.extf %tmp0_4 : tensor<1024xbf16> to tensor<1024xf32> loc(#loc34)
    %tmp1 = tt.splat %in_ptr0 : !tt.ptr<bf16> -> tensor<1024x!tt.ptr<bf16>> loc(#loc35)
    %tmp1_6 = tt.addptr %tmp1, %xindex_2 : tensor<1024x!tt.ptr<bf16>>, tensor<1024xi32> loc(#loc35)
    %tmp1_7 = tt.load %tmp1_6 : tensor<1024x!tt.ptr<bf16>> loc(#loc36)
    %tmp1_8 = arith.extf %tmp1_7 : tensor<1024xbf16> to tensor<1024xf32> loc(#loc37)
    %tmp2_9 = arith.subf %tmp2, %tmp1_8 : tensor<1024xf32> loc(#loc43)
    %tmp2_10 = math.exp %tmp2_9 : tensor<1024xf32> loc(#loc44)
    %tmp2_11 = arith.addf %tmp2_10, %cst : tensor<1024xf32> loc(#loc45)
    %tmp2_12 = arith.divf %cst, %tmp2_11 : tensor<1024xf32> loc(#loc46)
    %tmp4 = arith.subf %cst, %tmp2_12 : tensor<1024xf32> loc(#loc38)
    %tmp5 = arith.mulf %tmp1_8, %tmp4 : tensor<1024xf32> loc(#loc39)
    %tmp6 = arith.addf %tmp5, %cst : tensor<1024xf32> loc(#loc40)
    %tmp7 = arith.mulf %tmp2_12, %tmp6 : tensor<1024xf32> loc(#loc41)
    %tmp8 = arith.mulf %tmp0_5, %tmp7 : tensor<1024xf32> loc(#loc42)
    %0 = arith.truncf %tmp8 : tensor<1024xf32> to tensor<1024xbf16> loc(#loc22)
    tt.store %tmp0_3, %0 : tensor<1024x!tt.ptr<bf16>> loc(#loc22)
    tt.return loc(#loc23)
  } loc(#loc)
} loc(#loc)
#loc1 = loc("/home/xy/miniconda3/envs/cu128/lib/python3.12/site-packages/triton/language/standard.py":48:30)
#loc2 = loc("/mnt/g/GitHub/VAE_ca_proj/Thermal/.compile_cache/oy/coybcqjmmpq7ryevejeju3nxhk73gdstwyb43i65y6ixzsppf4fv.py":26:22)
#loc3 = loc(unknown)
#loc4 = loc("/mnt/g/GitHub/VAE_ca_proj/Thermal/.compile_cache/oy/coybcqjmmpq7ryevejeju3nxhk73gdstwyb43i65y6ixzsppf4fv.py":20:28)
#loc5 = loc("/mnt/g/GitHub/VAE_ca_proj/Thermal/.compile_cache/oy/coybcqjmmpq7ryevejeju3nxhk73gdstwyb43i65y6ixzsppf4fv.py":20:33)
#loc6 = loc("/mnt/g/GitHub/VAE_ca_proj/Thermal/.compile_cache/oy/coybcqjmmpq7ryevejeju3nxhk73gdstwyb43i65y6ixzsppf4fv.py":21:36)
#loc7 = loc("/mnt/g/GitHub/VAE_ca_proj/Thermal/.compile_cache/oy/coybcqjmmpq7ryevejeju3nxhk73gdstwyb43i65y6ixzsppf4fv.py":21:23)
#loc8 = loc("/mnt/g/GitHub/VAE_ca_proj/Thermal/.compile_cache/oy/coybcqjmmpq7ryevejeju3nxhk73gdstwyb43i65y6ixzsppf4fv.py":24:34)
#loc9 = loc("/mnt/g/GitHub/VAE_ca_proj/Thermal/.compile_cache/oy/coybcqjmmpq7ryevejeju3nxhk73gdstwyb43i65y6ixzsppf4fv.py":24:39)
#loc10 = loc("/mnt/g/GitHub/VAE_ca_proj/Thermal/.compile_cache/oy/coybcqjmmpq7ryevejeju3nxhk73gdstwyb43i65y6ixzsppf4fv.py":24:48)
#loc11 = loc("/mnt/g/GitHub/VAE_ca_proj/Thermal/.compile_cache/oy/coybcqjmmpq7ryevejeju3nxhk73gdstwyb43i65y6ixzsppf4fv.py":25:30)
#loc12 = loc("/mnt/g/GitHub/VAE_ca_proj/Thermal/.compile_cache/oy/coybcqjmmpq7ryevejeju3nxhk73gdstwyb43i65y6ixzsppf4fv.py":25:35)
#loc13 = loc("/mnt/g/GitHub/VAE_ca_proj/Thermal/.compile_cache/oy/coybcqjmmpq7ryevejeju3nxhk73gdstwyb43i65y6ixzsppf4fv.py":25:44)
#loc14 = loc("/home/xy/miniconda3/envs/cu128/lib/python3.12/site-packages/triton/language/standard.py":48:29)
#loc15 = loc("/home/xy/miniconda3/envs/cu128/lib/python3.12/site-packages/triton/language/standard.py":48:20)
#loc16 = loc("/home/xy/miniconda3/envs/cu128/lib/python3.12/site-packages/triton/language/standard.py":48:16)
#loc17 = loc("/mnt/g/GitHub/VAE_ca_proj/Thermal/.compile_cache/oy/coybcqjmmpq7ryevejeju3nxhk73gdstwyb43i65y6ixzsppf4fv.py":28:18)
#loc18 = loc("/mnt/g/GitHub/VAE_ca_proj/Thermal/.compile_cache/oy/coybcqjmmpq7ryevejeju3nxhk73gdstwyb43i65y6ixzsppf4fv.py":29:18)
#loc19 = loc("/mnt/g/GitHub/VAE_ca_proj/Thermal/.compile_cache/oy/coybcqjmmpq7ryevejeju3nxhk73gdstwyb43i65y6ixzsppf4fv.py":30:18)
#loc20 = loc("/mnt/g/GitHub/VAE_ca_proj/Thermal/.compile_cache/oy/coybcqjmmpq7ryevejeju3nxhk73gdstwyb43i65y6ixzsppf4fv.py":31:18)
#loc21 = loc("/mnt/g/GitHub/VAE_ca_proj/Thermal/.compile_cache/oy/coybcqjmmpq7ryevejeju3nxhk73gdstwyb43i65y6ixzsppf4fv.py":32:18)
#loc22 = loc("/mnt/g/GitHub/VAE_ca_proj/Thermal/.compile_cache/oy/coybcqjmmpq7ryevejeju3nxhk73gdstwyb43i65y6ixzsppf4fv.py":33:39)
#loc23 = loc("/mnt/g/GitHub/VAE_ca_proj/Thermal/.compile_cache/oy/coybcqjmmpq7ryevejeju3nxhk73gdstwyb43i65y6ixzsppf4fv.py":33:4)
#loc27 = loc("tmp2"(#loc2))
#loc28 = loc("xoffset"(#loc4))
#loc29 = loc("xoffset"(#loc5))
#loc30 = loc("xindex"(#loc6))
#loc31 = loc("xindex"(#loc7))
#loc32 = loc("tmp0"(#loc8))
#loc33 = loc("tmp0"(#loc9))
#loc34 = loc("tmp0"(#loc10))
#loc35 = loc("tmp1"(#loc11))
#loc36 = loc("tmp1"(#loc12))
#loc37 = loc("tmp1"(#loc13))
#loc38 = loc("tmp4"(#loc17))
#loc39 = loc("tmp5"(#loc18))
#loc40 = loc("tmp6"(#loc19))
#loc41 = loc("tmp7"(#loc20))
#loc42 = loc("tmp8"(#loc21))
#loc43 = loc(callsite(#loc1 at #loc27))
#loc44 = loc(callsite(#loc14 at #loc27))
#loc45 = loc(callsite(#loc15 at #loc27))
#loc46 = loc(callsite(#loc16 at #loc27))
