#loc = loc("./.compile_cache/ha/chaodbl3vn5d6ncmqcyafglcdjhcj7df2dbbn4elohh75devwuzk.py":18:0)
#loc26 = loc("in_ptr0"(#loc))
#loc27 = loc("in_ptr1"(#loc))
#loc28 = loc("in_ptr2"(#loc))
#loc29 = loc("out_ptr0"(#loc))
#loc30 = loc("xnumel"(#loc))
module {
  tt.func public @triton_poi_fused_add_addmm_clone_convolution_native_group_norm_silu_split_with_sizes_transpose_view_57(%in_ptr0: !tt.ptr<f32> {tt.divisibility = 16 : i32} loc("in_ptr0"(#loc)), %in_ptr1: !tt.ptr<f32> {tt.divisibility = 16 : i32} loc("in_ptr1"(#loc)), %in_ptr2: !tt.ptr<f32> {tt.divisibility = 16 : i32} loc("in_ptr2"(#loc)), %out_ptr0: !tt.ptr<f32> {tt.divisibility = 16 : i32} loc("out_ptr0"(#loc)), %xnumel: i32 {tt.divisibility = 16 : i32} loc("xnumel"(#loc))) attributes {noinline = false} {
    %cst = arith.constant dense<0.000000e+00> : tensor<512xf32> loc(#loc1)
    %cst_0 = arith.constant dense<1.000000e+00> : tensor<512xf32> loc(#loc1)
    %x0 = arith.constant dense<256> : tensor<512xi32> loc(#loc31)
    %c512_i32 = arith.constant 512 : i32 loc(#loc1)
    %xoffset = tt.get_program_id x : i32 loc(#loc32)
    %xoffset_1 = arith.muli %xoffset, %c512_i32 : i32 loc(#loc33)
    %xindex = tt.make_range {end = 512 : i32, start = 0 : i32} : tensor<512xi32> loc(#loc34)
    %xindex_2 = tt.splat %xoffset_1 : i32 -> tensor<512xi32> loc(#loc35)
    %xindex_3 = arith.addi %xindex_2, %xindex : tensor<512xi32> loc(#loc35)
    %x0_4 = arith.remsi %xindex_3, %x0 : tensor<512xi32> loc(#loc31)
    %tmp0 = tt.splat %in_ptr0 : !tt.ptr<f32> -> tensor<512x!tt.ptr<f32>> loc(#loc36)
    %tmp0_5 = tt.addptr %tmp0, %xindex_3 : tensor<512x!tt.ptr<f32>>, tensor<512xi32> loc(#loc36)
    %tmp0_6 = tt.load %tmp0_5 : tensor<512x!tt.ptr<f32>> loc(#loc37)
    %tmp1 = tt.splat %in_ptr1 : !tt.ptr<f32> -> tensor<512x!tt.ptr<f32>> loc(#loc38)
    %tmp1_7 = tt.addptr %tmp1, %x0_4 : tensor<512x!tt.ptr<f32>>, tensor<512xi32> loc(#loc38)
    %tmp1_8 = tt.load %tmp1_7 evictionPolicy = evict_last : tensor<512x!tt.ptr<f32>> loc(#loc39)
    %tmp3 = tt.splat %in_ptr2 : !tt.ptr<f32> -> tensor<512x!tt.ptr<f32>> loc(#loc40)
    %tmp3_9 = tt.addptr %tmp3, %xindex_3 : tensor<512x!tt.ptr<f32>>, tensor<512xi32> loc(#loc40)
    %tmp3_10 = tt.load %tmp3_9 : tensor<512x!tt.ptr<f32>> loc(#loc41)
    %tmp2 = arith.addf %tmp0_6, %tmp1_8 : tensor<512xf32> loc(#loc42)
    %tmp4 = arith.subf %cst, %tmp3_10 : tensor<512xf32> loc(#loc48)
    %tmp4_11 = math.exp %tmp4 : tensor<512xf32> loc(#loc49)
    %tmp4_12 = arith.addf %tmp4_11, %cst_0 : tensor<512xf32> loc(#loc50)
    %tmp4_13 = arith.divf %cst_0, %tmp4_12 : tensor<512xf32> loc(#loc51)
    %tmp5 = arith.mulf %tmp3_10, %tmp4_13 : tensor<512xf32> loc(#loc44)
    %tmp6 = arith.addf %tmp2, %tmp5 : tensor<512xf32> loc(#loc45)
    %tmp7 = arith.subf %cst, %tmp6 : tensor<512xf32> loc(#loc52)
    %tmp7_14 = math.exp %tmp7 : tensor<512xf32> loc(#loc53)
    %tmp7_15 = arith.addf %tmp7_14, %cst_0 : tensor<512xf32> loc(#loc54)
    %tmp7_16 = arith.divf %cst_0, %tmp7_15 : tensor<512xf32> loc(#loc55)
    %tmp8 = arith.mulf %tmp6, %tmp7_16 : tensor<512xf32> loc(#loc47)
    %0 = tt.splat %out_ptr0 : !tt.ptr<f32> -> tensor<512x!tt.ptr<f32>> loc(#loc23)
    %1 = tt.addptr %0, %xindex_3 : tensor<512x!tt.ptr<f32>>, tensor<512xi32> loc(#loc23)
    tt.store %1, %tmp8 : tensor<512x!tt.ptr<f32>> loc(#loc24)
    tt.return loc(#loc25)
  } loc(#loc)
} loc(#loc)
#loc1 = loc(unknown)
#loc2 = loc("./.compile_cache/ha/chaodbl3vn5d6ncmqcyafglcdjhcj7df2dbbn4elohh75devwuzk.py":24:19)
#loc3 = loc("./.compile_cache/ha/chaodbl3vn5d6ncmqcyafglcdjhcj7df2dbbn4elohh75devwuzk.py":20:28)
#loc4 = loc("./.compile_cache/ha/chaodbl3vn5d6ncmqcyafglcdjhcj7df2dbbn4elohh75devwuzk.py":20:33)
#loc5 = loc("./.compile_cache/ha/chaodbl3vn5d6ncmqcyafglcdjhcj7df2dbbn4elohh75devwuzk.py":21:36)
#loc6 = loc("./.compile_cache/ha/chaodbl3vn5d6ncmqcyafglcdjhcj7df2dbbn4elohh75devwuzk.py":21:23)
#loc7 = loc("./.compile_cache/ha/chaodbl3vn5d6ncmqcyafglcdjhcj7df2dbbn4elohh75devwuzk.py":25:30)
#loc8 = loc("./.compile_cache/ha/chaodbl3vn5d6ncmqcyafglcdjhcj7df2dbbn4elohh75devwuzk.py":25:35)
#loc9 = loc("./.compile_cache/ha/chaodbl3vn5d6ncmqcyafglcdjhcj7df2dbbn4elohh75devwuzk.py":26:30)
#loc10 = loc("./.compile_cache/ha/chaodbl3vn5d6ncmqcyafglcdjhcj7df2dbbn4elohh75devwuzk.py":26:35)
#loc11 = loc("./.compile_cache/ha/chaodbl3vn5d6ncmqcyafglcdjhcj7df2dbbn4elohh75devwuzk.py":27:30)
#loc12 = loc("./.compile_cache/ha/chaodbl3vn5d6ncmqcyafglcdjhcj7df2dbbn4elohh75devwuzk.py":27:35)
#loc13 = loc("./.compile_cache/ha/chaodbl3vn5d6ncmqcyafglcdjhcj7df2dbbn4elohh75devwuzk.py":28:18)
#loc14 = loc("/home/xy/miniconda3/envs/cu128/lib/python3.12/site-packages/triton/language/standard.py":48:30)
#loc15 = loc("./.compile_cache/ha/chaodbl3vn5d6ncmqcyafglcdjhcj7df2dbbn4elohh75devwuzk.py":29:22)
#loc16 = loc("/home/xy/miniconda3/envs/cu128/lib/python3.12/site-packages/triton/language/standard.py":48:29)
#loc17 = loc("/home/xy/miniconda3/envs/cu128/lib/python3.12/site-packages/triton/language/standard.py":48:20)
#loc18 = loc("/home/xy/miniconda3/envs/cu128/lib/python3.12/site-packages/triton/language/standard.py":48:16)
#loc19 = loc("./.compile_cache/ha/chaodbl3vn5d6ncmqcyafglcdjhcj7df2dbbn4elohh75devwuzk.py":30:18)
#loc20 = loc("./.compile_cache/ha/chaodbl3vn5d6ncmqcyafglcdjhcj7df2dbbn4elohh75devwuzk.py":31:18)
#loc21 = loc("./.compile_cache/ha/chaodbl3vn5d6ncmqcyafglcdjhcj7df2dbbn4elohh75devwuzk.py":32:22)
#loc22 = loc("./.compile_cache/ha/chaodbl3vn5d6ncmqcyafglcdjhcj7df2dbbn4elohh75devwuzk.py":33:18)
#loc23 = loc("./.compile_cache/ha/chaodbl3vn5d6ncmqcyafglcdjhcj7df2dbbn4elohh75devwuzk.py":34:25)
#loc24 = loc("./.compile_cache/ha/chaodbl3vn5d6ncmqcyafglcdjhcj7df2dbbn4elohh75devwuzk.py":34:36)
#loc25 = loc("./.compile_cache/ha/chaodbl3vn5d6ncmqcyafglcdjhcj7df2dbbn4elohh75devwuzk.py":34:4)
#loc31 = loc("x0"(#loc2))
#loc32 = loc("xoffset"(#loc3))
#loc33 = loc("xoffset"(#loc4))
#loc34 = loc("xindex"(#loc5))
#loc35 = loc("xindex"(#loc6))
#loc36 = loc("tmp0"(#loc7))
#loc37 = loc("tmp0"(#loc8))
#loc38 = loc("tmp1"(#loc9))
#loc39 = loc("tmp1"(#loc10))
#loc40 = loc("tmp3"(#loc11))
#loc41 = loc("tmp3"(#loc12))
#loc42 = loc("tmp2"(#loc13))
#loc43 = loc("tmp4"(#loc15))
#loc44 = loc("tmp5"(#loc19))
#loc45 = loc("tmp6"(#loc20))
#loc46 = loc("tmp7"(#loc21))
#loc47 = loc("tmp8"(#loc22))
#loc48 = loc(callsite(#loc14 at #loc43))
#loc49 = loc(callsite(#loc16 at #loc43))
#loc50 = loc(callsite(#loc17 at #loc43))
#loc51 = loc(callsite(#loc18 at #loc43))
#loc52 = loc(callsite(#loc14 at #loc46))
#loc53 = loc(callsite(#loc16 at #loc46))
#loc54 = loc(callsite(#loc17 at #loc46))
#loc55 = loc(callsite(#loc18 at #loc46))
