#loc = loc("/mnt/g/GitHub/VAE_ca_proj/Thermal/.compile_cache/j2/cj2lxlub75ou6xhkobwlqjjhesvgaitqakhlimktganli34omvig.py":18:0)
#loc22 = loc("in_out_ptr0"(#loc))
#loc23 = loc("in_ptr0"(#loc))
#loc24 = loc("in_ptr1"(#loc))
#loc25 = loc("xnumel"(#loc))
module {
  tt.func public @triton_poi_fused__to_copy_add_convolution_67(%in_out_ptr0: !tt.ptr<bf16> {tt.divisibility = 16 : i32} loc("in_out_ptr0"(#loc)), %in_ptr0: !tt.ptr<bf16> {tt.divisibility = 16 : i32} loc("in_ptr0"(#loc)), %in_ptr1: !tt.ptr<bf16> {tt.divisibility = 16 : i32} loc("in_ptr1"(#loc)), %xnumel: i32 {tt.divisibility = 16 : i32} loc("xnumel"(#loc))) attributes {noinline = false} {
    %xnumel_0 = arith.constant 16777216 : i32 loc(#loc26)
    %xoffset = tt.get_program_id x : i32 loc(#loc27)
    %xoffset_1 = arith.constant 512 : i32 loc(#loc28)
    %xoffset_2 = arith.constant 512 : i32 loc(#loc28)
    %xoffset_3 = arith.muli %xoffset, %xoffset_2 : i32 loc(#loc28)
    %xindex = tt.make_range {end = 512 : i32, start = 0 : i32} : tensor<512xi32> loc(#loc29)
    %xindex_4 = tt.splat %xoffset_3 : i32 -> tensor<512xi32> loc(#loc30)
    %xindex_5 = arith.addi %xindex_4, %xindex : tensor<512xi32> loc(#loc30)
    %xmask = arith.constant true loc(#loc31)
    %xmask_6 = arith.constant dense<true> : tensor<512xi1> loc(#loc31)
    %x0 = arith.constant 128 : i32 loc(#loc32)
    %x0_7 = arith.constant 128 : i32 loc(#loc32)
    %x0_8 = arith.constant dense<128> : tensor<512xi32> loc(#loc32)
    %x0_9 = arith.remsi %xindex_5, %x0_8 : tensor<512xi32> loc(#loc32)
    %tmp0 = tt.splat %in_out_ptr0 : !tt.ptr<bf16> -> tensor<512x!tt.ptr<bf16>> loc(#loc33)
    %tmp0_10 = tt.addptr %tmp0, %xindex_5 : tensor<512x!tt.ptr<bf16>>, tensor<512xi32> loc(#loc33)
    %tmp0_11 = tt.load %tmp0_10 : tensor<512x!tt.ptr<bf16>> loc(#loc34)
    %tmp0_12 = arith.extf %tmp0_11 : tensor<512xbf16> to tensor<512xf32> loc(#loc35)
    %tmp1 = tt.splat %in_ptr0 : !tt.ptr<bf16> -> tensor<512x!tt.ptr<bf16>> loc(#loc36)
    %tmp1_13 = tt.addptr %tmp1, %x0_9 : tensor<512x!tt.ptr<bf16>>, tensor<512xi32> loc(#loc36)
    %tmp1_14 = tt.load %tmp1_13 evictionPolicy = evict_last : tensor<512x!tt.ptr<bf16>> loc(#loc37)
    %tmp1_15 = arith.extf %tmp1_14 : tensor<512xbf16> to tensor<512xf32> loc(#loc38)
    %tmp3 = tt.splat %in_ptr1 : !tt.ptr<bf16> -> tensor<512x!tt.ptr<bf16>> loc(#loc39)
    %tmp3_16 = tt.addptr %tmp3, %xindex_5 : tensor<512x!tt.ptr<bf16>>, tensor<512xi32> loc(#loc39)
    %tmp3_17 = tt.load %tmp3_16 : tensor<512x!tt.ptr<bf16>> loc(#loc40)
    %tmp3_18 = arith.extf %tmp3_17 : tensor<512xbf16> to tensor<512xf32> loc(#loc41)
    %tmp2 = arith.addf %tmp0_12, %tmp1_15 : tensor<512xf32> loc(#loc42)
    %tmp4 = arith.addf %tmp2, %tmp3_18 : tensor<512xf32> loc(#loc43)
    %0 = tt.splat %in_out_ptr0 : !tt.ptr<bf16> -> tensor<512x!tt.ptr<bf16>> loc(#loc19)
    %1 = tt.addptr %0, %xindex_5 : tensor<512x!tt.ptr<bf16>>, tensor<512xi32> loc(#loc19)
    %2 = arith.truncf %tmp4 : tensor<512xf32> to tensor<512xbf16> loc(#loc20)
    tt.store %1, %2 : tensor<512x!tt.ptr<bf16>> loc(#loc20)
    tt.return loc(#loc21)
  } loc(#loc)
} loc(#loc)
#loc1 = loc("/mnt/g/GitHub/VAE_ca_proj/Thermal/.compile_cache/j2/cj2lxlub75ou6xhkobwlqjjhesvgaitqakhlimktganli34omvig.py":19:13)
#loc2 = loc("/mnt/g/GitHub/VAE_ca_proj/Thermal/.compile_cache/j2/cj2lxlub75ou6xhkobwlqjjhesvgaitqakhlimktganli34omvig.py":20:28)
#loc3 = loc("/mnt/g/GitHub/VAE_ca_proj/Thermal/.compile_cache/j2/cj2lxlub75ou6xhkobwlqjjhesvgaitqakhlimktganli34omvig.py":20:33)
#loc4 = loc("/mnt/g/GitHub/VAE_ca_proj/Thermal/.compile_cache/j2/cj2lxlub75ou6xhkobwlqjjhesvgaitqakhlimktganli34omvig.py":21:36)
#loc5 = loc("/mnt/g/GitHub/VAE_ca_proj/Thermal/.compile_cache/j2/cj2lxlub75ou6xhkobwlqjjhesvgaitqakhlimktganli34omvig.py":21:23)
#loc6 = loc("/mnt/g/GitHub/VAE_ca_proj/Thermal/.compile_cache/j2/cj2lxlub75ou6xhkobwlqjjhesvgaitqakhlimktganli34omvig.py":22:36)
#loc7 = loc("/mnt/g/GitHub/VAE_ca_proj/Thermal/.compile_cache/j2/cj2lxlub75ou6xhkobwlqjjhesvgaitqakhlimktganli34omvig.py":24:19)
#loc8 = loc("/mnt/g/GitHub/VAE_ca_proj/Thermal/.compile_cache/j2/cj2lxlub75ou6xhkobwlqjjhesvgaitqakhlimktganli34omvig.py":25:34)
#loc9 = loc("/mnt/g/GitHub/VAE_ca_proj/Thermal/.compile_cache/j2/cj2lxlub75ou6xhkobwlqjjhesvgaitqakhlimktganli34omvig.py":25:39)
#loc10 = loc("/mnt/g/GitHub/VAE_ca_proj/Thermal/.compile_cache/j2/cj2lxlub75ou6xhkobwlqjjhesvgaitqakhlimktganli34omvig.py":25:48)
#loc11 = loc("/mnt/g/GitHub/VAE_ca_proj/Thermal/.compile_cache/j2/cj2lxlub75ou6xhkobwlqjjhesvgaitqakhlimktganli34omvig.py":26:30)
#loc12 = loc("/mnt/g/GitHub/VAE_ca_proj/Thermal/.compile_cache/j2/cj2lxlub75ou6xhkobwlqjjhesvgaitqakhlimktganli34omvig.py":26:35)
#loc13 = loc("/mnt/g/GitHub/VAE_ca_proj/Thermal/.compile_cache/j2/cj2lxlub75ou6xhkobwlqjjhesvgaitqakhlimktganli34omvig.py":26:74)
#loc14 = loc("/mnt/g/GitHub/VAE_ca_proj/Thermal/.compile_cache/j2/cj2lxlub75ou6xhkobwlqjjhesvgaitqakhlimktganli34omvig.py":27:30)
#loc15 = loc("/mnt/g/GitHub/VAE_ca_proj/Thermal/.compile_cache/j2/cj2lxlub75ou6xhkobwlqjjhesvgaitqakhlimktganli34omvig.py":27:35)
#loc16 = loc("/mnt/g/GitHub/VAE_ca_proj/Thermal/.compile_cache/j2/cj2lxlub75ou6xhkobwlqjjhesvgaitqakhlimktganli34omvig.py":27:44)
#loc17 = loc("/mnt/g/GitHub/VAE_ca_proj/Thermal/.compile_cache/j2/cj2lxlub75ou6xhkobwlqjjhesvgaitqakhlimktganli34omvig.py":28:18)
#loc18 = loc("/mnt/g/GitHub/VAE_ca_proj/Thermal/.compile_cache/j2/cj2lxlub75ou6xhkobwlqjjhesvgaitqakhlimktganli34omvig.py":29:18)
#loc19 = loc("/mnt/g/GitHub/VAE_ca_proj/Thermal/.compile_cache/j2/cj2lxlub75ou6xhkobwlqjjhesvgaitqakhlimktganli34omvig.py":30:28)
#loc20 = loc("/mnt/g/GitHub/VAE_ca_proj/Thermal/.compile_cache/j2/cj2lxlub75ou6xhkobwlqjjhesvgaitqakhlimktganli34omvig.py":30:39)
#loc21 = loc("/mnt/g/GitHub/VAE_ca_proj/Thermal/.compile_cache/j2/cj2lxlub75ou6xhkobwlqjjhesvgaitqakhlimktganli34omvig.py":30:4)
#loc26 = loc("xnumel"(#loc1))
#loc27 = loc("xoffset"(#loc2))
#loc28 = loc("xoffset"(#loc3))
#loc29 = loc("xindex"(#loc4))
#loc30 = loc("xindex"(#loc5))
#loc31 = loc("xmask"(#loc6))
#loc32 = loc("x0"(#loc7))
#loc33 = loc("tmp0"(#loc8))
#loc34 = loc("tmp0"(#loc9))
#loc35 = loc("tmp0"(#loc10))
#loc36 = loc("tmp1"(#loc11))
#loc37 = loc("tmp1"(#loc12))
#loc38 = loc("tmp1"(#loc13))
#loc39 = loc("tmp3"(#loc14))
#loc40 = loc("tmp3"(#loc15))
#loc41 = loc("tmp3"(#loc16))
#loc42 = loc("tmp2"(#loc17))
#loc43 = loc("tmp4"(#loc18))
