#loc = loc("./.compile_cache/rt/crtu26w7ci3cjokicbnzag7e5bn4qf6fjfyvbf4ynvjwsalrohxj.py":18:0)
#loc30 = loc("/home/xy/miniconda3/envs/cu128/lib/python3.12/site-packages/torch/_inductor/runtime/triton_helpers.py":264:0)
#loc32 = loc(unknown)
#loc35 = loc("/home/xy/miniconda3/envs/cu128/lib/python3.12/site-packages/torch/_inductor/runtime/triton_helpers.py":259:0)
#loc39 = loc("in_ptr0"(#loc))
#loc40 = loc("out_ptr0"(#loc))
#loc41 = loc("out_ptr1"(#loc))
#loc42 = loc("r0_numel"(#loc))
#loc66 = loc("a"(#loc30))
#loc67 = loc("a"(#loc35))
#loc68 = loc("b"(#loc35))
module {
  tt.func public @triton_per_fused_any_full_like_gt_lt_where_zeros_like_64(%in_ptr0: !tt.ptr<f32> {tt.divisibility = 16 : i32} loc("in_ptr0"(#loc)), %out_ptr0: !tt.ptr<f32> {tt.divisibility = 16 : i32} loc("out_ptr0"(#loc)), %out_ptr1: !tt.ptr<i1> {tt.divisibility = 16 : i32} loc("out_ptr1"(#loc)), %r0_numel: i32 loc("r0_numel"(#loc))) attributes {noinline = false} {
    %xnumel = arith.constant 1 : i32 loc(#loc43)
    %r0_numel_0 = arith.constant 40 : i32 loc(#loc44)
    %xoffset = tt.get_program_id x : i32 loc(#loc45)
    %xoffset_1 = arith.constant 1 : i32 loc(#loc46)
    %xoffset_2 = arith.constant 1 : i32 loc(#loc46)
    %xoffset_3 = arith.muli %xoffset, %xoffset_2 : i32 loc(#loc46)
    %xindex = tt.make_range {end = 1 : i32, start = 0 : i32} : tensor<1xi32> loc(#loc47)
    %xindex_4 = tt.expand_dims %xindex {axis = 1 : i32} : tensor<1xi32> -> tensor<1x1xi32> loc(#loc48)
    %xindex_5 = tt.splat %xoffset_3 : i32 -> tensor<1x1xi32> loc(#loc49)
    %xindex_6 = arith.addi %xindex_5, %xindex_4 : tensor<1x1xi32> loc(#loc49)
    %xmask = arith.constant true loc(#loc50)
    %xmask_7 = arith.constant dense<true> : tensor<1x64xi1> loc(#loc50)
    %r0_index = tt.make_range {end = 64 : i32, start = 0 : i32} : tensor<64xi32> loc(#loc51)
    %r0_index_8 = tt.expand_dims %r0_index {axis = 0 : i32} : tensor<64xi32> -> tensor<1x64xi32> loc(#loc52)
    %r0_offset = arith.constant 0 : i32 loc(#loc53)
    %r0_mask = arith.constant dense<40> : tensor<1x64xi32> loc(#loc54)
    %r0_mask_9 = arith.cmpi slt, %r0_index_8, %r0_mask : tensor<1x64xi32> loc(#loc54)
    %tmp0 = tt.splat %in_ptr0 : !tt.ptr<f32> -> tensor<1x64x!tt.ptr<f32>> loc(#loc55)
    %tmp0_10 = tt.addptr %tmp0, %r0_index_8 : tensor<1x64x!tt.ptr<f32>>, tensor<1x64xi32> loc(#loc55)
    %tmp0_11 = arith.constant 0.000000e+00 : f32 loc(#loc56)
    %tmp0_12 = arith.constant dense<0.000000e+00> : tensor<1x64xf32> loc(#loc56)
    %tmp0_13 = tt.load %tmp0_10, %r0_mask_9, %tmp0_12 : tensor<1x64x!tt.ptr<f32>> loc(#loc56)
    %tmp1 = arith.constant 5.000000e-01 : f32 loc(#loc57)
    %tmp2 = arith.constant dense<5.000000e-01> : tensor<1x64xf32> loc(#loc58)
    %tmp2_14 = arith.cmpf olt, %tmp0_13, %tmp2 : tensor<1x64xf32> loc(#loc58)
    %tmp3 = arith.constant 0.000000e+00 : f32 loc(#loc59)
    %tmp4 = arith.constant 3.000000e-01 : f32 loc(#loc60)
    %tmp5 = arith.constant dense<0.000000e+00> : tensor<1x64xf32> loc(#loc61)
    %tmp5_15 = arith.constant dense<3.000000e-01> : tensor<1x64xf32> loc(#loc61)
    %tmp5_16 = arith.select %tmp2_14, %tmp5, %tmp5_15 : tensor<1x64xi1>, tensor<1x64xf32> loc(#loc61)
    %tmp6 = arith.constant dense<0.000000e+00> : tensor<1x64xf32> loc(#loc62)
    %tmp6_17 = arith.cmpf ogt, %tmp5_16, %tmp6 : tensor<1x64xf32> loc(#loc62)
    %tmp9 = arith.constant false loc(#loc63)
    %tmp9_18 = arith.constant false loc(#loc63)
    %tmp9_19 = arith.constant dense<false> : tensor<1x64xi1> loc(#loc63)
    %tmp9_20 = arith.select %r0_mask_9, %tmp6_17, %tmp9_19 : tensor<1x64xi1>, tensor<1x64xi1> loc(#loc63)
    %tmp10 = tt.call @"torch._inductor.runtime.triton_helpers.any__u1S1_64S__(1,)cconstexpr_1_"(%tmp9_20) : (tensor<1x64xi1>) -> tensor<1xi1> loc(#loc64)
    %tmp10_21 = tt.expand_dims %tmp10 {axis = 1 : i32} : tensor<1xi1> -> tensor<1x1xi1> loc(#loc65)
    %0 = tt.splat %out_ptr0 : !tt.ptr<f32> -> tensor<1x64x!tt.ptr<f32>> loc(#loc24)
    %1 = tt.addptr %0, %r0_index_8 : tensor<1x64x!tt.ptr<f32>>, tensor<1x64xi32> loc(#loc24)
    tt.store %1, %tmp5_16, %r0_mask_9 : tensor<1x64x!tt.ptr<f32>> loc(#loc25)
    %c0_i32 = arith.constant 0 : i32 loc(#loc26)
    %cst = arith.constant dense<0> : tensor<1x1xi32> loc(#loc26)
    %2 = tt.splat %out_ptr1 : !tt.ptr<i1> -> tensor<1x1x!tt.ptr<i1>> loc(#loc27)
    %3 = tt.addptr %2, %cst : tensor<1x1x!tt.ptr<i1>>, tensor<1x1xi32> loc(#loc27)
    %4 = tt.bitcast %3 : tensor<1x1x!tt.ptr<i1>> -> tensor<1x1x!tt.ptr<i8>> loc(#loc28)
    %5 = arith.extui %tmp10_21 : tensor<1x1xi1> to tensor<1x1xi8> loc(#loc28)
    tt.store %4, %5 : tensor<1x1x!tt.ptr<i8>> loc(#loc28)
    tt.return loc(#loc29)
  } loc(#loc)
  tt.func private @"torch._inductor.runtime.triton_helpers.any__u1S1_64S__(1,)cconstexpr_1_"(%a: tensor<1x64xi1> loc("a"(#loc30))) -> tensor<1xi1> attributes {noinline = false} {
    %0 = "tt.reduce"(%a) <{axis = 1 : i32}> ({
    ^bb0(%arg1: i1 loc(unknown), %arg2: i1 loc(unknown)):
      %2 = tt.call @torch._inductor.runtime.triton_helpers._any_combine__u1_u1__(%arg1, %arg2) : (i1, i1) -> i1 loc(#loc31)
      tt.reduce.return %2 : i1 loc(#loc31)
    }) : (tensor<1x64xi1>) -> tensor<1xi1> loc(#loc31)
    tt.return %0 : tensor<1xi1> loc(#loc33)
  ^bb1:  // no predecessors
    %1 = ub.poison : tensor<1xi1> loc(#loc34)
    tt.return %1 : tensor<1xi1> loc(#loc34)
  } loc(#loc30)
  tt.func private @torch._inductor.runtime.triton_helpers._any_combine__u1_u1__(%a: i1 loc("a"(#loc35)), %b: i1 loc("b"(#loc35))) -> i1 attributes {noinline = false} {
    %0 = arith.ori %a, %b : i1 loc(#loc36)
    tt.return %0 : i1 loc(#loc37)
  ^bb1:  // no predecessors
    %1 = ub.poison : i1 loc(#loc38)
    tt.return %1 : i1 loc(#loc38)
  } loc(#loc35)
} loc(#loc)
#loc1 = loc("./.compile_cache/rt/crtu26w7ci3cjokicbnzag7e5bn4qf6fjfyvbf4ynvjwsalrohxj.py":19:13)
#loc2 = loc("./.compile_cache/rt/crtu26w7ci3cjokicbnzag7e5bn4qf6fjfyvbf4ynvjwsalrohxj.py":20:15)
#loc3 = loc("./.compile_cache/rt/crtu26w7ci3cjokicbnzag7e5bn4qf6fjfyvbf4ynvjwsalrohxj.py":24:28)
#loc4 = loc("./.compile_cache/rt/crtu26w7ci3cjokicbnzag7e5bn4qf6fjfyvbf4ynvjwsalrohxj.py":24:33)
#loc5 = loc("./.compile_cache/rt/crtu26w7ci3cjokicbnzag7e5bn4qf6fjfyvbf4ynvjwsalrohxj.py":25:36)
#loc6 = loc("./.compile_cache/rt/crtu26w7ci3cjokicbnzag7e5bn4qf6fjfyvbf4ynvjwsalrohxj.py":25:44)
#loc7 = loc("./.compile_cache/rt/crtu26w7ci3cjokicbnzag7e5bn4qf6fjfyvbf4ynvjwsalrohxj.py":25:23)
#loc8 = loc("./.compile_cache/rt/crtu26w7ci3cjokicbnzag7e5bn4qf6fjfyvbf4ynvjwsalrohxj.py":26:46)
#loc9 = loc("./.compile_cache/rt/crtu26w7ci3cjokicbnzag7e5bn4qf6fjfyvbf4ynvjwsalrohxj.py":27:28)
#loc10 = loc("./.compile_cache/rt/crtu26w7ci3cjokicbnzag7e5bn4qf6fjfyvbf4ynvjwsalrohxj.py":27:38)
#loc11 = loc("./.compile_cache/rt/crtu26w7ci3cjokicbnzag7e5bn4qf6fjfyvbf4ynvjwsalrohxj.py":28:16)
#loc12 = loc("./.compile_cache/rt/crtu26w7ci3cjokicbnzag7e5bn4qf6fjfyvbf4ynvjwsalrohxj.py":29:25)
#loc13 = loc("./.compile_cache/rt/crtu26w7ci3cjokicbnzag7e5bn4qf6fjfyvbf4ynvjwsalrohxj.py":33:30)
#loc14 = loc("./.compile_cache/rt/crtu26w7ci3cjokicbnzag7e5bn4qf6fjfyvbf4ynvjwsalrohxj.py":33:37)
#loc15 = loc("./.compile_cache/rt/crtu26w7ci3cjokicbnzag7e5bn4qf6fjfyvbf4ynvjwsalrohxj.py":34:11)
#loc16 = loc("./.compile_cache/rt/crtu26w7ci3cjokicbnzag7e5bn4qf6fjfyvbf4ynvjwsalrohxj.py":35:18)
#loc17 = loc("./.compile_cache/rt/crtu26w7ci3cjokicbnzag7e5bn4qf6fjfyvbf4ynvjwsalrohxj.py":36:11)
#loc18 = loc("./.compile_cache/rt/crtu26w7ci3cjokicbnzag7e5bn4qf6fjfyvbf4ynvjwsalrohxj.py":37:11)
#loc19 = loc("./.compile_cache/rt/crtu26w7ci3cjokicbnzag7e5bn4qf6fjfyvbf4ynvjwsalrohxj.py":38:32)
#loc20 = loc("./.compile_cache/rt/crtu26w7ci3cjokicbnzag7e5bn4qf6fjfyvbf4ynvjwsalrohxj.py":39:18)
#loc21 = loc("./.compile_cache/rt/crtu26w7ci3cjokicbnzag7e5bn4qf6fjfyvbf4ynvjwsalrohxj.py":41:35)
#loc22 = loc("./.compile_cache/rt/crtu26w7ci3cjokicbnzag7e5bn4qf6fjfyvbf4ynvjwsalrohxj.py":42:37)
#loc23 = loc("./.compile_cache/rt/crtu26w7ci3cjokicbnzag7e5bn4qf6fjfyvbf4ynvjwsalrohxj.py":42:40)
#loc24 = loc("./.compile_cache/rt/crtu26w7ci3cjokicbnzag7e5bn4qf6fjfyvbf4ynvjwsalrohxj.py":43:25)
#loc25 = loc("./.compile_cache/rt/crtu26w7ci3cjokicbnzag7e5bn4qf6fjfyvbf4ynvjwsalrohxj.py":43:75)
#loc26 = loc("./.compile_cache/rt/crtu26w7ci3cjokicbnzag7e5bn4qf6fjfyvbf4ynvjwsalrohxj.py":44:49)
#loc27 = loc("./.compile_cache/rt/crtu26w7ci3cjokicbnzag7e5bn4qf6fjfyvbf4ynvjwsalrohxj.py":44:25)
#loc28 = loc("./.compile_cache/rt/crtu26w7ci3cjokicbnzag7e5bn4qf6fjfyvbf4ynvjwsalrohxj.py":44:68)
#loc29 = loc("./.compile_cache/rt/crtu26w7ci3cjokicbnzag7e5bn4qf6fjfyvbf4ynvjwsalrohxj.py":44:4)
#loc31 = loc("/home/xy/miniconda3/envs/cu128/lib/python3.12/site-packages/torch/_inductor/runtime/triton_helpers.py":265:29)
#loc33 = loc("/home/xy/miniconda3/envs/cu128/lib/python3.12/site-packages/torch/_inductor/runtime/triton_helpers.py":265:11)
#loc34 = loc("/home/xy/miniconda3/envs/cu128/lib/python3.12/site-packages/torch/_inductor/runtime/triton_helpers.py":265:4)
#loc36 = loc("/home/xy/miniconda3/envs/cu128/lib/python3.12/site-packages/torch/_inductor/runtime/triton_helpers.py":260:15)
#loc37 = loc("/home/xy/miniconda3/envs/cu128/lib/python3.12/site-packages/torch/_inductor/runtime/triton_helpers.py":260:11)
#loc38 = loc("/home/xy/miniconda3/envs/cu128/lib/python3.12/site-packages/torch/_inductor/runtime/triton_helpers.py":260:4)
#loc43 = loc("xnumel"(#loc1))
#loc44 = loc("r0_numel"(#loc2))
#loc45 = loc("xoffset"(#loc3))
#loc46 = loc("xoffset"(#loc4))
#loc47 = loc("xindex"(#loc5))
#loc48 = loc("xindex"(#loc6))
#loc49 = loc("xindex"(#loc7))
#loc50 = loc("xmask"(#loc8))
#loc51 = loc("r0_index"(#loc9))
#loc52 = loc("r0_index"(#loc10))
#loc53 = loc("r0_offset"(#loc11))
#loc54 = loc("r0_mask"(#loc12))
#loc55 = loc("tmp0"(#loc13))
#loc56 = loc("tmp0"(#loc14))
#loc57 = loc("tmp1"(#loc15))
#loc58 = loc("tmp2"(#loc16))
#loc59 = loc("tmp3"(#loc17))
#loc60 = loc("tmp4"(#loc18))
#loc61 = loc("tmp5"(#loc19))
#loc62 = loc("tmp6"(#loc20))
#loc63 = loc("tmp9"(#loc21))
#loc64 = loc("tmp10"(#loc22))
#loc65 = loc("tmp10"(#loc23))
