#loc = loc("./.compile_cache/rt/crtu26w7ci3cjokicbnzag7e5bn4qf6fjfyvbf4ynvjwsalrohxj.py":18:0)
#loc4 = loc(unknown)
#loc12 = loc("./.compile_cache/rt/crtu26w7ci3cjokicbnzag7e5bn4qf6fjfyvbf4ynvjwsalrohxj.py":42:37)
#loc19 = loc("in_ptr0"(#loc))
#loc20 = loc("out_ptr0"(#loc))
#loc21 = loc("out_ptr1"(#loc))
#loc22 = loc("r0_numel"(#loc))
#loc32 = loc("tmp10"(#loc12))
#loc35 = loc(callsite(#loc4 at #loc32))
module {
  tt.func public @triton_per_fused_any_full_like_gt_lt_where_zeros_like_64(%in_ptr0: !tt.ptr<f32> {tt.divisibility = 16 : i32} loc("in_ptr0"(#loc)), %out_ptr0: !tt.ptr<f32> {tt.divisibility = 16 : i32} loc("out_ptr0"(#loc)), %out_ptr1: !tt.ptr<i1> {tt.divisibility = 16 : i32} loc("out_ptr1"(#loc)), %r0_numel: i32 loc("r0_numel"(#loc))) attributes {noinline = false} {
    %tmp9 = arith.constant dense<false> : tensor<1x64xi1> loc(#loc23)
    %tmp5 = arith.constant dense<3.000000e-01> : tensor<1x64xf32> loc(#loc24)
    %tmp2 = arith.constant dense<5.000000e-01> : tensor<1x64xf32> loc(#loc25)
    %cst = arith.constant dense<0.000000e+00> : tensor<1x64xf32> loc(#loc4)
    %r0_mask = arith.constant dense<40> : tensor<1x64xi32> loc(#loc26)
    %r0_index = tt.make_range {end = 64 : i32, start = 0 : i32} : tensor<64xi32> loc(#loc27)
    %r0_index_0 = tt.expand_dims %r0_index {axis = 0 : i32} : tensor<64xi32> -> tensor<1x64xi32> loc(#loc28)
    %r0_mask_1 = arith.cmpi slt, %r0_index_0, %r0_mask : tensor<1x64xi32> loc(#loc26)
    %tmp0 = tt.splat %in_ptr0 : !tt.ptr<f32> -> tensor<1x64x!tt.ptr<f32>> loc(#loc29)
    %tmp0_2 = tt.addptr %tmp0, %r0_index_0 : tensor<1x64x!tt.ptr<f32>>, tensor<1x64xi32> loc(#loc29)
    %tmp0_3 = tt.load %tmp0_2, %r0_mask_1, %cst : tensor<1x64x!tt.ptr<f32>> loc(#loc30)
    %tmp2_4 = arith.cmpf olt, %tmp0_3, %tmp2 : tensor<1x64xf32> loc(#loc25)
    %tmp5_5 = arith.select %tmp2_4, %cst, %tmp5 : tensor<1x64xi1>, tensor<1x64xf32> loc(#loc24)
    %tmp6 = arith.cmpf ogt, %tmp5_5, %cst : tensor<1x64xf32> loc(#loc31)
    %tmp9_6 = arith.select %r0_mask_1, %tmp6, %tmp9 : tensor<1x64xi1>, tensor<1x64xi1> loc(#loc23)
    %tmp10 = "tt.reduce"(%tmp9_6) <{axis = 1 : i32}> ({
    ^bb0(%tmp10_8: i1 loc(callsite(#loc4 at #loc32)), %tmp10_9: i1 loc(callsite(#loc4 at #loc32))):
      %tmp10_10 = arith.ori %tmp10_8, %tmp10_9 : i1 loc(#loc36)
      tt.reduce.return %tmp10_10 : i1 loc(#loc34)
    }) : (tensor<1x64xi1>) -> tensor<1xi1> loc(#loc34)
    %tmp10_7 = tt.expand_dims %tmp10 {axis = 1 : i32} : tensor<1xi1> -> tensor<1x1xi1> loc(#loc33)
    %0 = tt.splat %out_ptr0 : !tt.ptr<f32> -> tensor<1x64x!tt.ptr<f32>> loc(#loc15)
    %1 = tt.addptr %0, %r0_index_0 : tensor<1x64x!tt.ptr<f32>>, tensor<1x64xi32> loc(#loc15)
    tt.store %1, %tmp5_5, %r0_mask_1 : tensor<1x64x!tt.ptr<f32>> loc(#loc16)
    %2 = tt.bitcast %out_ptr1 : !tt.ptr<i1> -> !tt.ptr<i8> loc(#loc17)
    %3 = tt.splat %2 : !tt.ptr<i8> -> tensor<1x1x!tt.ptr<i8>> loc(#loc17)
    %4 = arith.extui %tmp10_7 : tensor<1x1xi1> to tensor<1x1xi8> loc(#loc17)
    tt.store %3, %4 : tensor<1x1x!tt.ptr<i8>> loc(#loc17)
    tt.return loc(#loc18)
  } loc(#loc)
} loc(#loc)
#loc1 = loc("./.compile_cache/rt/crtu26w7ci3cjokicbnzag7e5bn4qf6fjfyvbf4ynvjwsalrohxj.py":41:35)
#loc2 = loc("./.compile_cache/rt/crtu26w7ci3cjokicbnzag7e5bn4qf6fjfyvbf4ynvjwsalrohxj.py":38:32)
#loc3 = loc("./.compile_cache/rt/crtu26w7ci3cjokicbnzag7e5bn4qf6fjfyvbf4ynvjwsalrohxj.py":35:18)
#loc5 = loc("./.compile_cache/rt/crtu26w7ci3cjokicbnzag7e5bn4qf6fjfyvbf4ynvjwsalrohxj.py":29:25)
#loc6 = loc("./.compile_cache/rt/crtu26w7ci3cjokicbnzag7e5bn4qf6fjfyvbf4ynvjwsalrohxj.py":27:28)
#loc7 = loc("./.compile_cache/rt/crtu26w7ci3cjokicbnzag7e5bn4qf6fjfyvbf4ynvjwsalrohxj.py":27:38)
#loc8 = loc("./.compile_cache/rt/crtu26w7ci3cjokicbnzag7e5bn4qf6fjfyvbf4ynvjwsalrohxj.py":33:30)
#loc9 = loc("./.compile_cache/rt/crtu26w7ci3cjokicbnzag7e5bn4qf6fjfyvbf4ynvjwsalrohxj.py":33:37)
#loc10 = loc("./.compile_cache/rt/crtu26w7ci3cjokicbnzag7e5bn4qf6fjfyvbf4ynvjwsalrohxj.py":39:18)
#loc11 = loc("/home/xy/miniconda3/envs/cu128/lib/python3.12/site-packages/torch/_inductor/runtime/triton_helpers.py":265:29)
#loc13 = loc("/home/xy/miniconda3/envs/cu128/lib/python3.12/site-packages/torch/_inductor/runtime/triton_helpers.py":260:15)
#loc14 = loc("./.compile_cache/rt/crtu26w7ci3cjokicbnzag7e5bn4qf6fjfyvbf4ynvjwsalrohxj.py":42:40)
#loc15 = loc("./.compile_cache/rt/crtu26w7ci3cjokicbnzag7e5bn4qf6fjfyvbf4ynvjwsalrohxj.py":43:25)
#loc16 = loc("./.compile_cache/rt/crtu26w7ci3cjokicbnzag7e5bn4qf6fjfyvbf4ynvjwsalrohxj.py":43:75)
#loc17 = loc("./.compile_cache/rt/crtu26w7ci3cjokicbnzag7e5bn4qf6fjfyvbf4ynvjwsalrohxj.py":44:68)
#loc18 = loc("./.compile_cache/rt/crtu26w7ci3cjokicbnzag7e5bn4qf6fjfyvbf4ynvjwsalrohxj.py":44:4)
#loc23 = loc("tmp9"(#loc1))
#loc24 = loc("tmp5"(#loc2))
#loc25 = loc("tmp2"(#loc3))
#loc26 = loc("r0_mask"(#loc5))
#loc27 = loc("r0_index"(#loc6))
#loc28 = loc("r0_index"(#loc7))
#loc29 = loc("tmp0"(#loc8))
#loc30 = loc("tmp0"(#loc9))
#loc31 = loc("tmp6"(#loc10))
#loc33 = loc("tmp10"(#loc14))
#loc34 = loc(callsite(#loc11 at #loc32))
#loc36 = loc(callsite(#loc13 at #loc34))
