#loc = loc("/mnt/g/GitHub/VAE_ca_proj/Thermal/.compile_cache/j3/cj35wbyit3eq6wliiwthdkiexirl5ojkwyxnjqdkn4aizqelj45k.py":18:0)
#loc2 = loc(unknown)
#loc14 = loc("/mnt/g/GitHub/VAE_ca_proj/Thermal/.compile_cache/j3/cj35wbyit3eq6wliiwthdkiexirl5ojkwyxnjqdkn4aizqelj45k.py":36:24)
#loc20 = loc("in_ptr0"(#loc))
#loc21 = loc("out_ptr0"(#loc))
#loc22 = loc("xnumel"(#loc))
#loc23 = loc("r0_numel"(#loc))
#loc35 = loc("tmp3"(#loc14))
#loc38 = loc(callsite(#loc2 at #loc35))
module {
  tt.func public @triton_per_fused_native_group_norm_backward_29(%in_ptr0: !tt.ptr<f32> {tt.divisibility = 16 : i32} loc("in_ptr0"(#loc)), %out_ptr0: !tt.ptr<f32> {tt.divisibility = 16 : i32} loc("out_ptr0"(#loc)), %xnumel: i32 {tt.divisibility = 16 : i32} loc("xnumel"(#loc)), %r0_numel: i32 loc("r0_numel"(#loc))) attributes {noinline = false} {
    %tmp0 = arith.constant dense<8> : tensor<32x1xi32> loc(#loc24)
    %c32_i32 = arith.constant 32 : i32 loc(#loc2)
    %xoffset = tt.get_program_id x : i32 loc(#loc25)
    %xoffset_0 = arith.muli %xoffset, %c32_i32 : i32 loc(#loc26)
    %xindex = tt.make_range {end = 32 : i32, start = 0 : i32} : tensor<32xi32> loc(#loc27)
    %xindex_1 = tt.expand_dims %xindex {axis = 1 : i32} : tensor<32xi32> -> tensor<32x1xi32> loc(#loc28)
    %xindex_2 = tt.splat %xoffset_0 : i32 -> tensor<32x1xi32> loc(#loc29)
    %xindex_3 = arith.addi %xindex_2, %xindex_1 : tensor<32x1xi32> loc(#loc29)
    %r0_index = tt.make_range {end = 8 : i32, start = 0 : i32} : tensor<8xi32> loc(#loc30)
    %r0_index_4 = tt.expand_dims %r0_index {axis = 0 : i32} : tensor<8xi32> -> tensor<1x8xi32> loc(#loc31)
    %tmp0_5 = arith.muli %xindex_3, %tmp0 : tensor<32x1xi32> loc(#loc24)
    %tmp0_6 = tt.broadcast %r0_index_4 : tensor<1x8xi32> -> tensor<32x8xi32> loc(#loc32)
    %tmp0_7 = tt.broadcast %tmp0_5 : tensor<32x1xi32> -> tensor<32x8xi32> loc(#loc32)
    %tmp0_8 = arith.addi %tmp0_6, %tmp0_7 : tensor<32x8xi32> loc(#loc32)
    %tmp0_9 = tt.splat %in_ptr0 : !tt.ptr<f32> -> tensor<32x8x!tt.ptr<f32>> loc(#loc33)
    %tmp0_10 = tt.addptr %tmp0_9, %tmp0_8 : tensor<32x8x!tt.ptr<f32>>, tensor<32x8xi32> loc(#loc33)
    %tmp0_11 = tt.load %tmp0_10 : tensor<32x8x!tt.ptr<f32>> loc(#loc34)
    %tmp3 = "tt.reduce"(%tmp0_11) <{axis = 1 : i32}> ({
    ^bb0(%tmp3_13: f32 loc(callsite(#loc2 at #loc35)), %tmp3_14: f32 loc(callsite(#loc2 at #loc35))):
      %tmp3_15 = arith.addf %tmp3_13, %tmp3_14 : f32 loc(#loc39)
      tt.reduce.return %tmp3_15 : f32 loc(#loc37)
    }) : (tensor<32x8xf32>) -> tensor<32xf32> loc(#loc37)
    %tmp3_12 = tt.expand_dims %tmp3 {axis = 1 : i32} : tensor<32xf32> -> tensor<32x1xf32> loc(#loc36)
    %0 = tt.splat %out_ptr0 : !tt.ptr<f32> -> tensor<32x1x!tt.ptr<f32>> loc(#loc17)
    %1 = tt.addptr %0, %xindex_3 : tensor<32x1x!tt.ptr<f32>>, tensor<32x1xi32> loc(#loc17)
    tt.store %1, %tmp3_12 : tensor<32x1x!tt.ptr<f32>> loc(#loc18)
    tt.return loc(#loc19)
  } loc(#loc)
} loc(#loc)
#loc1 = loc("/mnt/g/GitHub/VAE_ca_proj/Thermal/.compile_cache/j3/cj35wbyit3eq6wliiwthdkiexirl5ojkwyxnjqdkn4aizqelj45k.py":34:39)
#loc3 = loc("/mnt/g/GitHub/VAE_ca_proj/Thermal/.compile_cache/j3/cj35wbyit3eq6wliiwthdkiexirl5ojkwyxnjqdkn4aizqelj45k.py":24:28)
#loc4 = loc("/mnt/g/GitHub/VAE_ca_proj/Thermal/.compile_cache/j3/cj35wbyit3eq6wliiwthdkiexirl5ojkwyxnjqdkn4aizqelj45k.py":24:33)
#loc5 = loc("/mnt/g/GitHub/VAE_ca_proj/Thermal/.compile_cache/j3/cj35wbyit3eq6wliiwthdkiexirl5ojkwyxnjqdkn4aizqelj45k.py":25:36)
#loc6 = loc("/mnt/g/GitHub/VAE_ca_proj/Thermal/.compile_cache/j3/cj35wbyit3eq6wliiwthdkiexirl5ojkwyxnjqdkn4aizqelj45k.py":25:44)
#loc7 = loc("/mnt/g/GitHub/VAE_ca_proj/Thermal/.compile_cache/j3/cj35wbyit3eq6wliiwthdkiexirl5ojkwyxnjqdkn4aizqelj45k.py":25:23)
#loc8 = loc("/mnt/g/GitHub/VAE_ca_proj/Thermal/.compile_cache/j3/cj35wbyit3eq6wliiwthdkiexirl5ojkwyxnjqdkn4aizqelj45k.py":27:28)
#loc9 = loc("/mnt/g/GitHub/VAE_ca_proj/Thermal/.compile_cache/j3/cj35wbyit3eq6wliiwthdkiexirl5ojkwyxnjqdkn4aizqelj45k.py":27:38)
#loc10 = loc("/mnt/g/GitHub/VAE_ca_proj/Thermal/.compile_cache/j3/cj35wbyit3eq6wliiwthdkiexirl5ojkwyxnjqdkn4aizqelj45k.py":34:37)
#loc11 = loc("/mnt/g/GitHub/VAE_ca_proj/Thermal/.compile_cache/j3/cj35wbyit3eq6wliiwthdkiexirl5ojkwyxnjqdkn4aizqelj45k.py":34:30)
#loc12 = loc("/mnt/g/GitHub/VAE_ca_proj/Thermal/.compile_cache/j3/cj35wbyit3eq6wliiwthdkiexirl5ojkwyxnjqdkn4aizqelj45k.py":34:44)
#loc13 = loc("/home/xy/miniconda3/envs/cu128/lib/python3.12/site-packages/triton/language/standard.py":291:36)
#loc15 = loc("/home/xy/miniconda3/envs/cu128/lib/python3.12/site-packages/triton/language/standard.py":261:15)
#loc16 = loc("/mnt/g/GitHub/VAE_ca_proj/Thermal/.compile_cache/j3/cj35wbyit3eq6wliiwthdkiexirl5ojkwyxnjqdkn4aizqelj45k.py":36:27)
#loc17 = loc("/mnt/g/GitHub/VAE_ca_proj/Thermal/.compile_cache/j3/cj35wbyit3eq6wliiwthdkiexirl5ojkwyxnjqdkn4aizqelj45k.py":37:25)
#loc18 = loc("/mnt/g/GitHub/VAE_ca_proj/Thermal/.compile_cache/j3/cj35wbyit3eq6wliiwthdkiexirl5ojkwyxnjqdkn4aizqelj45k.py":37:36)
#loc19 = loc("/mnt/g/GitHub/VAE_ca_proj/Thermal/.compile_cache/j3/cj35wbyit3eq6wliiwthdkiexirl5ojkwyxnjqdkn4aizqelj45k.py":37:4)
#loc24 = loc("tmp0"(#loc1))
#loc25 = loc("xoffset"(#loc3))
#loc26 = loc("xoffset"(#loc4))
#loc27 = loc("xindex"(#loc5))
#loc28 = loc("xindex"(#loc6))
#loc29 = loc("xindex"(#loc7))
#loc30 = loc("r0_index"(#loc8))
#loc31 = loc("r0_index"(#loc9))
#loc32 = loc("tmp0"(#loc10))
#loc33 = loc("tmp0"(#loc11))
#loc34 = loc("tmp0"(#loc12))
#loc36 = loc("tmp3"(#loc16))
#loc37 = loc(callsite(#loc13 at #loc35))
#loc39 = loc(callsite(#loc15 at #loc37))
