#loc = loc("/mnt/g/GitHub/VAE_ca_proj/Thermal/.compile_cache/kz/ckznuirqrz5qu7mf3zl4yyrfy657yjmziuczhmeou3w2aapnpdhi.py":18:0)
#loc29 = loc("in_out_ptr0"(#loc))
#loc30 = loc("in_ptr0"(#loc))
#loc31 = loc("in_ptr1"(#loc))
#loc32 = loc("xnumel"(#loc))
module {
  tt.func public @triton_poi_fused__to_copy_add_convolution_fill_mul_sigmoid_sub_73(%in_out_ptr0: !tt.ptr<bf16> {tt.divisibility = 16 : i32} loc("in_out_ptr0"(#loc)), %in_ptr0: !tt.ptr<bf16> {tt.divisibility = 16 : i32} loc("in_ptr0"(#loc)), %in_ptr1: !tt.ptr<bf16> {tt.divisibility = 16 : i32} loc("in_ptr1"(#loc)), %xnumel: i32 {tt.divisibility = 16 : i32} loc("xnumel"(#loc))) attributes {noinline = false} {
    %tmp5 = arith.constant dense<0.000000e+00> : tensor<1024xf32> loc(#loc54)
    %cst = arith.constant dense<1.000000e+00> : tensor<1024xf32> loc(#loc3)
    %x0 = arith.constant dense<128> : tensor<1024xi32> loc(#loc34)
    %c1024_i32 = arith.constant 1024 : i32 loc(#loc3)
    %xoffset = tt.get_program_id x : i32 loc(#loc35)
    %xoffset_0 = arith.muli %xoffset, %c1024_i32 : i32 loc(#loc36)
    %xindex = tt.make_range {end = 1024 : i32, start = 0 : i32} : tensor<1024xi32> loc(#loc37)
    %xindex_1 = tt.splat %xoffset_0 : i32 -> tensor<1024xi32> loc(#loc38)
    %xindex_2 = arith.addi %xindex_1, %xindex : tensor<1024xi32> loc(#loc38)
    %x0_3 = arith.remsi %xindex_2, %x0 : tensor<1024xi32> loc(#loc34)
    %tmp0 = tt.splat %in_out_ptr0 : !tt.ptr<bf16> -> tensor<1024x!tt.ptr<bf16>> loc(#loc39)
    %tmp0_4 = tt.addptr %tmp0, %xindex_2 : tensor<1024x!tt.ptr<bf16>>, tensor<1024xi32> loc(#loc39)
    %tmp0_5 = tt.load %tmp0_4 : tensor<1024x!tt.ptr<bf16>> loc(#loc40)
    %tmp0_6 = arith.extf %tmp0_5 : tensor<1024xbf16> to tensor<1024xf32> loc(#loc41)
    %tmp1 = tt.splat %in_ptr0 : !tt.ptr<bf16> -> tensor<1024x!tt.ptr<bf16>> loc(#loc42)
    %tmp1_7 = tt.addptr %tmp1, %x0_3 : tensor<1024x!tt.ptr<bf16>>, tensor<1024xi32> loc(#loc42)
    %tmp1_8 = tt.load %tmp1_7 evictionPolicy = evict_last : tensor<1024x!tt.ptr<bf16>> loc(#loc43)
    %tmp1_9 = arith.extf %tmp1_8 : tensor<1024xbf16> to tensor<1024xf32> loc(#loc44)
    %tmp3 = tt.splat %in_ptr1 : !tt.ptr<bf16> -> tensor<1024x!tt.ptr<bf16>> loc(#loc45)
    %tmp3_10 = tt.addptr %tmp3, %xindex_2 : tensor<1024x!tt.ptr<bf16>>, tensor<1024xi32> loc(#loc45)
    %tmp3_11 = tt.load %tmp3_10 : tensor<1024x!tt.ptr<bf16>> loc(#loc46)
    %tmp3_12 = arith.extf %tmp3_11 : tensor<1024xbf16> to tensor<1024xf32> loc(#loc47)
    %tmp2 = arith.addf %tmp0_6, %tmp1_9 : tensor<1024xf32> loc(#loc48)
    %tmp4 = arith.addf %tmp2, %tmp3_12 : tensor<1024xf32> loc(#loc49)
    %tmp5_13 = arith.subf %tmp5, %tmp4 : tensor<1024xf32> loc(#loc54)
    %tmp5_14 = math.exp %tmp5_13 : tensor<1024xf32> loc(#loc55)
    %tmp5_15 = arith.addf %tmp5_14, %cst : tensor<1024xf32> loc(#loc56)
    %tmp5_16 = arith.divf %cst, %tmp5_15 : tensor<1024xf32> loc(#loc57)
    %tmp7 = arith.subf %cst, %tmp5_16 : tensor<1024xf32> loc(#loc50)
    %tmp8 = arith.mulf %tmp4, %tmp7 : tensor<1024xf32> loc(#loc51)
    %tmp9 = arith.addf %tmp8, %cst : tensor<1024xf32> loc(#loc52)
    %tmp10 = arith.mulf %tmp5_16, %tmp9 : tensor<1024xf32> loc(#loc53)
    %0 = arith.truncf %tmp10 : tensor<1024xf32> to tensor<1024xbf16> loc(#loc27)
    tt.store %tmp0_4, %0 : tensor<1024x!tt.ptr<bf16>> loc(#loc27)
    tt.return loc(#loc28)
  } loc(#loc)
} loc(#loc)
#loc1 = loc("/home/xy/miniconda3/envs/cu128/lib/python3.12/site-packages/triton/language/standard.py":48:30)
#loc2 = loc("/mnt/g/GitHub/VAE_ca_proj/Thermal/.compile_cache/kz/ckznuirqrz5qu7mf3zl4yyrfy657yjmziuczhmeou3w2aapnpdhi.py":30:22)
#loc3 = loc(unknown)
#loc4 = loc("/mnt/g/GitHub/VAE_ca_proj/Thermal/.compile_cache/kz/ckznuirqrz5qu7mf3zl4yyrfy657yjmziuczhmeou3w2aapnpdhi.py":24:19)
#loc5 = loc("/mnt/g/GitHub/VAE_ca_proj/Thermal/.compile_cache/kz/ckznuirqrz5qu7mf3zl4yyrfy657yjmziuczhmeou3w2aapnpdhi.py":20:28)
#loc6 = loc("/mnt/g/GitHub/VAE_ca_proj/Thermal/.compile_cache/kz/ckznuirqrz5qu7mf3zl4yyrfy657yjmziuczhmeou3w2aapnpdhi.py":20:33)
#loc7 = loc("/mnt/g/GitHub/VAE_ca_proj/Thermal/.compile_cache/kz/ckznuirqrz5qu7mf3zl4yyrfy657yjmziuczhmeou3w2aapnpdhi.py":21:36)
#loc8 = loc("/mnt/g/GitHub/VAE_ca_proj/Thermal/.compile_cache/kz/ckznuirqrz5qu7mf3zl4yyrfy657yjmziuczhmeou3w2aapnpdhi.py":21:23)
#loc9 = loc("/mnt/g/GitHub/VAE_ca_proj/Thermal/.compile_cache/kz/ckznuirqrz5qu7mf3zl4yyrfy657yjmziuczhmeou3w2aapnpdhi.py":25:34)
#loc10 = loc("/mnt/g/GitHub/VAE_ca_proj/Thermal/.compile_cache/kz/ckznuirqrz5qu7mf3zl4yyrfy657yjmziuczhmeou3w2aapnpdhi.py":25:39)
#loc11 = loc("/mnt/g/GitHub/VAE_ca_proj/Thermal/.compile_cache/kz/ckznuirqrz5qu7mf3zl4yyrfy657yjmziuczhmeou3w2aapnpdhi.py":25:48)
#loc12 = loc("/mnt/g/GitHub/VAE_ca_proj/Thermal/.compile_cache/kz/ckznuirqrz5qu7mf3zl4yyrfy657yjmziuczhmeou3w2aapnpdhi.py":26:30)
#loc13 = loc("/mnt/g/GitHub/VAE_ca_proj/Thermal/.compile_cache/kz/ckznuirqrz5qu7mf3zl4yyrfy657yjmziuczhmeou3w2aapnpdhi.py":26:35)
#loc14 = loc("/mnt/g/GitHub/VAE_ca_proj/Thermal/.compile_cache/kz/ckznuirqrz5qu7mf3zl4yyrfy657yjmziuczhmeou3w2aapnpdhi.py":26:74)
#loc15 = loc("/mnt/g/GitHub/VAE_ca_proj/Thermal/.compile_cache/kz/ckznuirqrz5qu7mf3zl4yyrfy657yjmziuczhmeou3w2aapnpdhi.py":27:30)
#loc16 = loc("/mnt/g/GitHub/VAE_ca_proj/Thermal/.compile_cache/kz/ckznuirqrz5qu7mf3zl4yyrfy657yjmziuczhmeou3w2aapnpdhi.py":27:35)
#loc17 = loc("/mnt/g/GitHub/VAE_ca_proj/Thermal/.compile_cache/kz/ckznuirqrz5qu7mf3zl4yyrfy657yjmziuczhmeou3w2aapnpdhi.py":27:44)
#loc18 = loc("/mnt/g/GitHub/VAE_ca_proj/Thermal/.compile_cache/kz/ckznuirqrz5qu7mf3zl4yyrfy657yjmziuczhmeou3w2aapnpdhi.py":28:18)
#loc19 = loc("/mnt/g/GitHub/VAE_ca_proj/Thermal/.compile_cache/kz/ckznuirqrz5qu7mf3zl4yyrfy657yjmziuczhmeou3w2aapnpdhi.py":29:18)
#loc20 = loc("/home/xy/miniconda3/envs/cu128/lib/python3.12/site-packages/triton/language/standard.py":48:29)
#loc21 = loc("/home/xy/miniconda3/envs/cu128/lib/python3.12/site-packages/triton/language/standard.py":48:20)
#loc22 = loc("/home/xy/miniconda3/envs/cu128/lib/python3.12/site-packages/triton/language/standard.py":48:16)
#loc23 = loc("/mnt/g/GitHub/VAE_ca_proj/Thermal/.compile_cache/kz/ckznuirqrz5qu7mf3zl4yyrfy657yjmziuczhmeou3w2aapnpdhi.py":32:18)
#loc24 = loc("/mnt/g/GitHub/VAE_ca_proj/Thermal/.compile_cache/kz/ckznuirqrz5qu7mf3zl4yyrfy657yjmziuczhmeou3w2aapnpdhi.py":33:18)
#loc25 = loc("/mnt/g/GitHub/VAE_ca_proj/Thermal/.compile_cache/kz/ckznuirqrz5qu7mf3zl4yyrfy657yjmziuczhmeou3w2aapnpdhi.py":34:18)
#loc26 = loc("/mnt/g/GitHub/VAE_ca_proj/Thermal/.compile_cache/kz/ckznuirqrz5qu7mf3zl4yyrfy657yjmziuczhmeou3w2aapnpdhi.py":35:19)
#loc27 = loc("/mnt/g/GitHub/VAE_ca_proj/Thermal/.compile_cache/kz/ckznuirqrz5qu7mf3zl4yyrfy657yjmziuczhmeou3w2aapnpdhi.py":36:40)
#loc28 = loc("/mnt/g/GitHub/VAE_ca_proj/Thermal/.compile_cache/kz/ckznuirqrz5qu7mf3zl4yyrfy657yjmziuczhmeou3w2aapnpdhi.py":36:4)
#loc33 = loc("tmp5"(#loc2))
#loc34 = loc("x0"(#loc4))
#loc35 = loc("xoffset"(#loc5))
#loc36 = loc("xoffset"(#loc6))
#loc37 = loc("xindex"(#loc7))
#loc38 = loc("xindex"(#loc8))
#loc39 = loc("tmp0"(#loc9))
#loc40 = loc("tmp0"(#loc10))
#loc41 = loc("tmp0"(#loc11))
#loc42 = loc("tmp1"(#loc12))
#loc43 = loc("tmp1"(#loc13))
#loc44 = loc("tmp1"(#loc14))
#loc45 = loc("tmp3"(#loc15))
#loc46 = loc("tmp3"(#loc16))
#loc47 = loc("tmp3"(#loc17))
#loc48 = loc("tmp2"(#loc18))
#loc49 = loc("tmp4"(#loc19))
#loc50 = loc("tmp7"(#loc23))
#loc51 = loc("tmp8"(#loc24))
#loc52 = loc("tmp9"(#loc25))
#loc53 = loc("tmp10"(#loc26))
#loc54 = loc(callsite(#loc1 at #loc33))
#loc55 = loc(callsite(#loc20 at #loc33))
#loc56 = loc(callsite(#loc21 at #loc33))
#loc57 = loc(callsite(#loc22 at #loc33))
