#loc = loc("./.compile_cache/q5/cq5olgy7n7doyj5rupejnaou5znv3tzd2zrvn7iirlyu4zuy4qtl.py":18:0)
#loc23 = loc("in_out_ptr0"(#loc))
#loc24 = loc("in_ptr0"(#loc))
#loc25 = loc("in_ptr1"(#loc))
#loc26 = loc("xnumel"(#loc))
module {
  tt.func public @triton_poi_fused_add_convolution_native_group_norm_silu_split_with_sizes_view_12(%in_out_ptr0: !tt.ptr<f32> {tt.divisibility = 16 : i32} loc("in_out_ptr0"(#loc)), %in_ptr0: !tt.ptr<f32> {tt.divisibility = 16 : i32} loc("in_ptr0"(#loc)), %in_ptr1: !tt.ptr<f32> {tt.divisibility = 16 : i32} loc("in_ptr1"(#loc)), %xnumel: i32 {tt.divisibility = 16 : i32} loc("xnumel"(#loc))) attributes {noinline = false} {
    %tmp5 = arith.constant dense<0.000000e+00> : tensor<512xf32> loc(#loc42)
    %tmp5_0 = arith.constant dense<1.000000e+00> : tensor<512xf32> loc(#loc43)
    %x0 = arith.constant dense<128> : tensor<512xi32> loc(#loc28)
    %c512_i32 = arith.constant 512 : i32 loc(#loc3)
    %xoffset = tt.get_program_id x : i32 loc(#loc29)
    %xoffset_1 = arith.muli %xoffset, %c512_i32 : i32 loc(#loc30)
    %xindex = tt.make_range {end = 512 : i32, start = 0 : i32} : tensor<512xi32> loc(#loc31)
    %xindex_2 = tt.splat %xoffset_1 : i32 -> tensor<512xi32> loc(#loc32)
    %xindex_3 = arith.addi %xindex_2, %xindex : tensor<512xi32> loc(#loc32)
    %x0_4 = arith.remsi %xindex_3, %x0 : tensor<512xi32> loc(#loc28)
    %tmp0 = tt.splat %in_out_ptr0 : !tt.ptr<f32> -> tensor<512x!tt.ptr<f32>> loc(#loc33)
    %tmp0_5 = tt.addptr %tmp0, %xindex_3 : tensor<512x!tt.ptr<f32>>, tensor<512xi32> loc(#loc33)
    %tmp0_6 = tt.load %tmp0_5 : tensor<512x!tt.ptr<f32>> loc(#loc34)
    %tmp1 = tt.splat %in_ptr0 : !tt.ptr<f32> -> tensor<512x!tt.ptr<f32>> loc(#loc35)
    %tmp1_7 = tt.addptr %tmp1, %x0_4 : tensor<512x!tt.ptr<f32>>, tensor<512xi32> loc(#loc35)
    %tmp1_8 = tt.load %tmp1_7 evictionPolicy = evict_last : tensor<512x!tt.ptr<f32>> loc(#loc36)
    %tmp3 = tt.splat %in_ptr1 : !tt.ptr<f32> -> tensor<512x!tt.ptr<f32>> loc(#loc37)
    %tmp3_9 = tt.addptr %tmp3, %xindex_3 : tensor<512x!tt.ptr<f32>>, tensor<512xi32> loc(#loc37)
    %tmp3_10 = tt.load %tmp3_9 : tensor<512x!tt.ptr<f32>> loc(#loc38)
    %tmp2 = arith.addf %tmp0_6, %tmp1_8 : tensor<512xf32> loc(#loc39)
    %tmp4 = arith.addf %tmp2, %tmp3_10 : tensor<512xf32> loc(#loc40)
    %tmp5_11 = arith.subf %tmp5, %tmp4 : tensor<512xf32> loc(#loc42)
    %tmp5_12 = math.exp %tmp5_11 : tensor<512xf32> loc(#loc44)
    %tmp5_13 = arith.addf %tmp5_12, %tmp5_0 : tensor<512xf32> loc(#loc45)
    %tmp5_14 = arith.divf %tmp5_0, %tmp5_13 : tensor<512xf32> loc(#loc46)
    %tmp6 = arith.mulf %tmp4, %tmp5_14 : tensor<512xf32> loc(#loc41)
    tt.store %tmp0_5, %tmp6 : tensor<512x!tt.ptr<f32>> loc(#loc21)
    tt.return loc(#loc22)
  } loc(#loc)
} loc(#loc)
#loc1 = loc("/home/xy/miniconda3/envs/cu128/lib/python3.12/site-packages/triton/language/standard.py":48:30)
#loc2 = loc("./.compile_cache/q5/cq5olgy7n7doyj5rupejnaou5znv3tzd2zrvn7iirlyu4zuy4qtl.py":30:22)
#loc3 = loc(unknown)
#loc4 = loc("./.compile_cache/q5/cq5olgy7n7doyj5rupejnaou5znv3tzd2zrvn7iirlyu4zuy4qtl.py":24:19)
#loc5 = loc("./.compile_cache/q5/cq5olgy7n7doyj5rupejnaou5znv3tzd2zrvn7iirlyu4zuy4qtl.py":20:28)
#loc6 = loc("./.compile_cache/q5/cq5olgy7n7doyj5rupejnaou5znv3tzd2zrvn7iirlyu4zuy4qtl.py":20:33)
#loc7 = loc("./.compile_cache/q5/cq5olgy7n7doyj5rupejnaou5znv3tzd2zrvn7iirlyu4zuy4qtl.py":21:36)
#loc8 = loc("./.compile_cache/q5/cq5olgy7n7doyj5rupejnaou5znv3tzd2zrvn7iirlyu4zuy4qtl.py":21:23)
#loc9 = loc("./.compile_cache/q5/cq5olgy7n7doyj5rupejnaou5znv3tzd2zrvn7iirlyu4zuy4qtl.py":25:34)
#loc10 = loc("./.compile_cache/q5/cq5olgy7n7doyj5rupejnaou5znv3tzd2zrvn7iirlyu4zuy4qtl.py":25:39)
#loc11 = loc("./.compile_cache/q5/cq5olgy7n7doyj5rupejnaou5znv3tzd2zrvn7iirlyu4zuy4qtl.py":26:30)
#loc12 = loc("./.compile_cache/q5/cq5olgy7n7doyj5rupejnaou5znv3tzd2zrvn7iirlyu4zuy4qtl.py":26:35)
#loc13 = loc("./.compile_cache/q5/cq5olgy7n7doyj5rupejnaou5znv3tzd2zrvn7iirlyu4zuy4qtl.py":27:30)
#loc14 = loc("./.compile_cache/q5/cq5olgy7n7doyj5rupejnaou5znv3tzd2zrvn7iirlyu4zuy4qtl.py":27:35)
#loc15 = loc("./.compile_cache/q5/cq5olgy7n7doyj5rupejnaou5znv3tzd2zrvn7iirlyu4zuy4qtl.py":28:18)
#loc16 = loc("./.compile_cache/q5/cq5olgy7n7doyj5rupejnaou5znv3tzd2zrvn7iirlyu4zuy4qtl.py":29:18)
#loc17 = loc("/home/xy/miniconda3/envs/cu128/lib/python3.12/site-packages/triton/language/standard.py":48:29)
#loc18 = loc("/home/xy/miniconda3/envs/cu128/lib/python3.12/site-packages/triton/language/standard.py":48:20)
#loc19 = loc("/home/xy/miniconda3/envs/cu128/lib/python3.12/site-packages/triton/language/standard.py":48:16)
#loc20 = loc("./.compile_cache/q5/cq5olgy7n7doyj5rupejnaou5znv3tzd2zrvn7iirlyu4zuy4qtl.py":31:18)
#loc21 = loc("./.compile_cache/q5/cq5olgy7n7doyj5rupejnaou5znv3tzd2zrvn7iirlyu4zuy4qtl.py":32:39)
#loc22 = loc("./.compile_cache/q5/cq5olgy7n7doyj5rupejnaou5znv3tzd2zrvn7iirlyu4zuy4qtl.py":32:4)
#loc27 = loc("tmp5"(#loc2))
#loc28 = loc("x0"(#loc4))
#loc29 = loc("xoffset"(#loc5))
#loc30 = loc("xoffset"(#loc6))
#loc31 = loc("xindex"(#loc7))
#loc32 = loc("xindex"(#loc8))
#loc33 = loc("tmp0"(#loc9))
#loc34 = loc("tmp0"(#loc10))
#loc35 = loc("tmp1"(#loc11))
#loc36 = loc("tmp1"(#loc12))
#loc37 = loc("tmp3"(#loc13))
#loc38 = loc("tmp3"(#loc14))
#loc39 = loc("tmp2"(#loc15))
#loc40 = loc("tmp4"(#loc16))
#loc41 = loc("tmp6"(#loc20))
#loc42 = loc(callsite(#loc1 at #loc27))
#loc43 = loc(callsite(#loc3 at #loc27))
#loc44 = loc(callsite(#loc17 at #loc27))
#loc45 = loc(callsite(#loc18 at #loc27))
#loc46 = loc(callsite(#loc19 at #loc27))
