#loc = loc("/mnt/g/GitHub/VAE_ca_proj/Thermal/.compile_cache/qj/cqjuvlod5ryozqpa25imbb2nqebjynnz2dsiuoi4pi4e3ya7fvhl.py":18:0)
#loc21 = loc("in_out_ptr0"(#loc))
#loc22 = loc("in_ptr0"(#loc))
#loc23 = loc("xnumel"(#loc))
module {
  tt.func public @triton_poi_fused__to_copy_addmm_silu_10(%in_out_ptr0: !tt.ptr<bf16> {tt.divisibility = 16 : i32} loc("in_out_ptr0"(#loc)), %in_ptr0: !tt.ptr<f32> {tt.divisibility = 16 : i32} loc("in_ptr0"(#loc)), %xnumel: i32 {tt.divisibility = 16 : i32} loc("xnumel"(#loc))) attributes {noinline = false} {
    %tmp5 = arith.constant dense<0.000000e+00> : tensor<256xf32> loc(#loc37)
    %tmp5_0 = arith.constant dense<1.000000e+00> : tensor<256xf32> loc(#loc38)
    %xmask = arith.constant dense<512> : tensor<256xi32> loc(#loc25)
    %c256_i32 = arith.constant 256 : i32 loc(#loc3)
    %xoffset = tt.get_program_id x : i32 loc(#loc26)
    %xoffset_1 = arith.muli %xoffset, %c256_i32 : i32 loc(#loc27)
    %xindex = tt.make_range {end = 256 : i32, start = 0 : i32} : tensor<256xi32> loc(#loc28)
    %xindex_2 = tt.splat %xoffset_1 : i32 -> tensor<256xi32> loc(#loc29)
    %xindex_3 = arith.addi %xindex_2, %xindex : tensor<256xi32> loc(#loc29)
    %xmask_4 = arith.cmpi slt, %xindex_3, %xmask : tensor<256xi32> loc(#loc25)
    %tmp0 = tt.splat %in_out_ptr0 : !tt.ptr<bf16> -> tensor<256x!tt.ptr<bf16>> loc(#loc30)
    %tmp0_5 = tt.addptr %tmp0, %xindex_3 : tensor<256x!tt.ptr<bf16>>, tensor<256xi32> loc(#loc30)
    %tmp0_6 = tt.load %tmp0_5, %xmask_4 : tensor<256x!tt.ptr<bf16>> loc(#loc31)
    %tmp0_7 = arith.extf %tmp0_6 : tensor<256xbf16> to tensor<256xf32> loc(#loc32)
    %tmp1 = tt.splat %in_ptr0 : !tt.ptr<f32> -> tensor<256x!tt.ptr<f32>> loc(#loc33)
    %tmp1_8 = tt.addptr %tmp1, %xindex_3 : tensor<256x!tt.ptr<f32>>, tensor<256xi32> loc(#loc33)
    %tmp1_9 = tt.load %tmp1_8, %xmask_4 : tensor<256x!tt.ptr<f32>> loc(#loc34)
    %tmp3 = arith.addf %tmp0_7, %tmp1_9 : tensor<256xf32> loc(#loc35)
    %tmp5_10 = arith.subf %tmp5, %tmp3 : tensor<256xf32> loc(#loc37)
    %tmp5_11 = math.exp %tmp5_10 : tensor<256xf32> loc(#loc39)
    %tmp5_12 = arith.addf %tmp5_11, %tmp5_0 : tensor<256xf32> loc(#loc40)
    %tmp5_13 = arith.divf %tmp5_0, %tmp5_12 : tensor<256xf32> loc(#loc41)
    %tmp6 = arith.mulf %tmp3, %tmp5_13 : tensor<256xf32> loc(#loc36)
    %0 = arith.truncf %tmp6 : tensor<256xf32> to tensor<256xbf16> loc(#loc19)
    tt.store %tmp0_5, %0, %xmask_4 : tensor<256x!tt.ptr<bf16>> loc(#loc19)
    tt.return loc(#loc20)
  } loc(#loc)
} loc(#loc)
#loc1 = loc("/home/xy/miniconda3/envs/cu128/lib/python3.12/site-packages/triton/language/standard.py":48:30)
#loc2 = loc("/mnt/g/GitHub/VAE_ca_proj/Thermal/.compile_cache/qj/cqjuvlod5ryozqpa25imbb2nqebjynnz2dsiuoi4pi4e3ya7fvhl.py":29:22)
#loc3 = loc(unknown)
#loc4 = loc("/mnt/g/GitHub/VAE_ca_proj/Thermal/.compile_cache/qj/cqjuvlod5ryozqpa25imbb2nqebjynnz2dsiuoi4pi4e3ya7fvhl.py":22:21)
#loc5 = loc("/mnt/g/GitHub/VAE_ca_proj/Thermal/.compile_cache/qj/cqjuvlod5ryozqpa25imbb2nqebjynnz2dsiuoi4pi4e3ya7fvhl.py":20:28)
#loc6 = loc("/mnt/g/GitHub/VAE_ca_proj/Thermal/.compile_cache/qj/cqjuvlod5ryozqpa25imbb2nqebjynnz2dsiuoi4pi4e3ya7fvhl.py":20:33)
#loc7 = loc("/mnt/g/GitHub/VAE_ca_proj/Thermal/.compile_cache/qj/cqjuvlod5ryozqpa25imbb2nqebjynnz2dsiuoi4pi4e3ya7fvhl.py":21:36)
#loc8 = loc("/mnt/g/GitHub/VAE_ca_proj/Thermal/.compile_cache/qj/cqjuvlod5ryozqpa25imbb2nqebjynnz2dsiuoi4pi4e3ya7fvhl.py":21:23)
#loc9 = loc("/mnt/g/GitHub/VAE_ca_proj/Thermal/.compile_cache/qj/cqjuvlod5ryozqpa25imbb2nqebjynnz2dsiuoi4pi4e3ya7fvhl.py":24:34)
#loc10 = loc("/mnt/g/GitHub/VAE_ca_proj/Thermal/.compile_cache/qj/cqjuvlod5ryozqpa25imbb2nqebjynnz2dsiuoi4pi4e3ya7fvhl.py":24:39)
#loc11 = loc("/mnt/g/GitHub/VAE_ca_proj/Thermal/.compile_cache/qj/cqjuvlod5ryozqpa25imbb2nqebjynnz2dsiuoi4pi4e3ya7fvhl.py":24:49)
#loc12 = loc("/mnt/g/GitHub/VAE_ca_proj/Thermal/.compile_cache/qj/cqjuvlod5ryozqpa25imbb2nqebjynnz2dsiuoi4pi4e3ya7fvhl.py":25:30)
#loc13 = loc("/mnt/g/GitHub/VAE_ca_proj/Thermal/.compile_cache/qj/cqjuvlod5ryozqpa25imbb2nqebjynnz2dsiuoi4pi4e3ya7fvhl.py":25:35)
#loc14 = loc("/mnt/g/GitHub/VAE_ca_proj/Thermal/.compile_cache/qj/cqjuvlod5ryozqpa25imbb2nqebjynnz2dsiuoi4pi4e3ya7fvhl.py":27:18)
#loc15 = loc("/home/xy/miniconda3/envs/cu128/lib/python3.12/site-packages/triton/language/standard.py":48:29)
#loc16 = loc("/home/xy/miniconda3/envs/cu128/lib/python3.12/site-packages/triton/language/standard.py":48:20)
#loc17 = loc("/home/xy/miniconda3/envs/cu128/lib/python3.12/site-packages/triton/language/standard.py":48:16)
#loc18 = loc("/mnt/g/GitHub/VAE_ca_proj/Thermal/.compile_cache/qj/cqjuvlod5ryozqpa25imbb2nqebjynnz2dsiuoi4pi4e3ya7fvhl.py":30:18)
#loc19 = loc("/mnt/g/GitHub/VAE_ca_proj/Thermal/.compile_cache/qj/cqjuvlod5ryozqpa25imbb2nqebjynnz2dsiuoi4pi4e3ya7fvhl.py":32:39)
#loc20 = loc("/mnt/g/GitHub/VAE_ca_proj/Thermal/.compile_cache/qj/cqjuvlod5ryozqpa25imbb2nqebjynnz2dsiuoi4pi4e3ya7fvhl.py":32:4)
#loc24 = loc("tmp5"(#loc2))
#loc25 = loc("xmask"(#loc4))
#loc26 = loc("xoffset"(#loc5))
#loc27 = loc("xoffset"(#loc6))
#loc28 = loc("xindex"(#loc7))
#loc29 = loc("xindex"(#loc8))
#loc30 = loc("tmp0"(#loc9))
#loc31 = loc("tmp0"(#loc10))
#loc32 = loc("tmp0"(#loc11))
#loc33 = loc("tmp1"(#loc12))
#loc34 = loc("tmp1"(#loc13))
#loc35 = loc("tmp3"(#loc14))
#loc36 = loc("tmp6"(#loc18))
#loc37 = loc(callsite(#loc1 at #loc24))
#loc38 = loc(callsite(#loc3 at #loc24))
#loc39 = loc(callsite(#loc15 at #loc24))
#loc40 = loc(callsite(#loc16 at #loc24))
#loc41 = loc(callsite(#loc17 at #loc24))
