#loc = loc("./.compile_cache/2e/c2ehzuavlqohivuzcnroa7g27tjwxgntvzfb4fkkkc45owsuq5wt.py":18:0)
#loc27 = loc("in_ptr0"(#loc))
#loc28 = loc("in_ptr1"(#loc))
#loc29 = loc("out_ptr0"(#loc))
#loc30 = loc("ynumel"(#loc))
#loc31 = loc("xnumel"(#loc))
module {
  tt.func public @triton_poi_fused_addmm_clone_permute_select_transpose_view_45(%in_ptr0: !tt.ptr<f32> {tt.divisibility = 16 : i32} loc("in_ptr0"(#loc)), %in_ptr1: !tt.ptr<f32> {tt.divisibility = 16 : i32} loc("in_ptr1"(#loc)), %out_ptr0: !tt.ptr<f32> {tt.divisibility = 16 : i32} loc("out_ptr0"(#loc)), %ynumel: i32 {tt.divisibility = 16 : i32} loc("ynumel"(#loc)), %xnumel: i32 {tt.divisibility = 16 : i32} loc("xnumel"(#loc))) attributes {noinline = false} {
    %tmp0 = arith.constant 1536 : i32 loc(#loc32)
    %xmask = arith.constant 64 : i32 loc(#loc33)
    %cst = arith.constant dense<64> : tensor<1024x1xi32> loc(#loc3)
    %tmp0_0 = arith.constant dense<98304> : tensor<1024x1xi32> loc(#loc34)
    %cst_1 = arith.constant dense<512> : tensor<1024x1xi32> loc(#loc5)
    %c1024_i32 = arith.constant 1024 : i32 loc(#loc5)
    %yoffset = tt.get_program_id y : i32 loc(#loc35)
    %yoffset_2 = arith.muli %yoffset, %c1024_i32 : i32 loc(#loc36)
    %yindex = tt.make_range {end = 1024 : i32, start = 0 : i32} : tensor<1024xi32> loc(#loc37)
    %yindex_3 = tt.expand_dims %yindex {axis = 1 : i32} : tensor<1024xi32> -> tensor<1024x1xi32> loc(#loc38)
    %yindex_4 = tt.splat %yoffset_2 : i32 -> tensor<1024x1xi32> loc(#loc39)
    %yindex_5 = arith.addi %yindex_4, %yindex_3 : tensor<1024x1xi32> loc(#loc39)
    %xoffset = tt.get_program_id x : i32 loc(#loc40)
    %xmask_6 = arith.cmpi slt, %xoffset, %xmask : i32 loc(#loc33)
    %y0 = arith.remsi %yindex_5, %cst_1 : tensor<1024x1xi32> loc(#loc41)
    %y1 = arith.divsi %yindex_5, %cst_1 : tensor<1024x1xi32> loc(#loc42)
    %tmp0_7 = arith.addi %y0, %cst_1 : tensor<1024x1xi32> loc(#loc43)
    %tmp0_8 = arith.muli %xoffset, %tmp0 : i32 loc(#loc32)
    %tmp0_9 = tt.splat %tmp0_8 : i32 -> tensor<1024x1xi32> loc(#loc52)
    %tmp0_10 = arith.addi %tmp0_7, %tmp0_9 : tensor<1024x1xi32> loc(#loc44)
    %tmp0_11 = arith.muli %y1, %tmp0_0 : tensor<1024x1xi32> loc(#loc34)
    %tmp0_12 = arith.addi %tmp0_10, %tmp0_11 : tensor<1024x1xi32> loc(#loc45)
    %tmp0_13 = tt.splat %in_ptr0 : !tt.ptr<f32> -> tensor<1024x1x!tt.ptr<f32>> loc(#loc46)
    %tmp0_14 = tt.addptr %tmp0_13, %tmp0_12 : tensor<1024x1x!tt.ptr<f32>>, tensor<1024x1xi32> loc(#loc46)
    %tmp0_15 = tt.splat %xmask_6 : i1 -> tensor<1024x1xi1> loc(#loc53)
    %tmp0_16 = tt.load %tmp0_14, %tmp0_15 evictionPolicy = evict_last : tensor<1024x1x!tt.ptr<f32>> loc(#loc47)
    %tmp1 = tt.splat %in_ptr1 : !tt.ptr<f32> -> tensor<1024x1x!tt.ptr<f32>> loc(#loc48)
    %tmp1_17 = tt.addptr %tmp1, %tmp0_7 : tensor<1024x1x!tt.ptr<f32>>, tensor<1024x1xi32> loc(#loc48)
    %tmp1_18 = tt.load %tmp1_17 evictionPolicy = evict_last : tensor<1024x1x!tt.ptr<f32>> loc(#loc49)
    %tmp2 = arith.addf %tmp0_16, %tmp1_18 : tensor<1024x1xf32> loc(#loc50)
    %0 = arith.muli %yindex_5, %cst : tensor<1024x1xi32> loc(#loc3)
    %xindex = tt.splat %xoffset : i32 -> tensor<1024x1xi32> loc(#loc54)
    %1 = arith.addi %xindex, %0 : tensor<1024x1xi32> loc(#loc22)
    %2 = tt.splat %out_ptr0 : !tt.ptr<f32> -> tensor<1024x1x!tt.ptr<f32>> loc(#loc24)
    %3 = tt.addptr %2, %1 : tensor<1024x1x!tt.ptr<f32>>, tensor<1024x1xi32> loc(#loc24)
    tt.store %3, %tmp2, %tmp0_15 : tensor<1024x1x!tt.ptr<f32>> loc(#loc25)
    tt.return loc(#loc26)
  } loc(#loc)
} loc(#loc)
#loc1 = loc("./.compile_cache/2e/c2ehzuavlqohivuzcnroa7g27tjwxgntvzfb4fkkkc45owsuq5wt.py":31:46)
#loc2 = loc("./.compile_cache/2e/c2ehzuavlqohivuzcnroa7g27tjwxgntvzfb4fkkkc45owsuq5wt.py":26:21)
#loc3 = loc("./.compile_cache/2e/c2ehzuavlqohivuzcnroa7g27tjwxgntvzfb4fkkkc45owsuq5wt.py":34:33)
#loc4 = loc("./.compile_cache/2e/c2ehzuavlqohivuzcnroa7g27tjwxgntvzfb4fkkkc45owsuq5wt.py":31:57)
#loc5 = loc(unknown)
#loc6 = loc("./.compile_cache/2e/c2ehzuavlqohivuzcnroa7g27tjwxgntvzfb4fkkkc45owsuq5wt.py":21:28)
#loc7 = loc("./.compile_cache/2e/c2ehzuavlqohivuzcnroa7g27tjwxgntvzfb4fkkkc45owsuq5wt.py":21:33)
#loc8 = loc("./.compile_cache/2e/c2ehzuavlqohivuzcnroa7g27tjwxgntvzfb4fkkkc45owsuq5wt.py":22:36)
#loc9 = loc("./.compile_cache/2e/c2ehzuavlqohivuzcnroa7g27tjwxgntvzfb4fkkkc45owsuq5wt.py":22:44)
#loc10 = loc("./.compile_cache/2e/c2ehzuavlqohivuzcnroa7g27tjwxgntvzfb4fkkkc45owsuq5wt.py":22:23)
#loc11 = loc("./.compile_cache/2e/c2ehzuavlqohivuzcnroa7g27tjwxgntvzfb4fkkkc45owsuq5wt.py":24:28)
#loc12 = loc("./.compile_cache/2e/c2ehzuavlqohivuzcnroa7g27tjwxgntvzfb4fkkkc45owsuq5wt.py":28:19)
#loc13 = loc("./.compile_cache/2e/c2ehzuavlqohivuzcnroa7g27tjwxgntvzfb4fkkkc45owsuq5wt.py":29:19)
#loc14 = loc("./.compile_cache/2e/c2ehzuavlqohivuzcnroa7g27tjwxgntvzfb4fkkkc45owsuq5wt.py":31:36)
#loc15 = loc("./.compile_cache/2e/c2ehzuavlqohivuzcnroa7g27tjwxgntvzfb4fkkkc45owsuq5wt.py":31:41)
#loc16 = loc("./.compile_cache/2e/c2ehzuavlqohivuzcnroa7g27tjwxgntvzfb4fkkkc45owsuq5wt.py":31:51)
#loc17 = loc("./.compile_cache/2e/c2ehzuavlqohivuzcnroa7g27tjwxgntvzfb4fkkkc45owsuq5wt.py":31:30)
#loc18 = loc("./.compile_cache/2e/c2ehzuavlqohivuzcnroa7g27tjwxgntvzfb4fkkkc45owsuq5wt.py":31:62)
#loc19 = loc("./.compile_cache/2e/c2ehzuavlqohivuzcnroa7g27tjwxgntvzfb4fkkkc45owsuq5wt.py":32:30)
#loc20 = loc("./.compile_cache/2e/c2ehzuavlqohivuzcnroa7g27tjwxgntvzfb4fkkkc45owsuq5wt.py":32:41)
#loc21 = loc("./.compile_cache/2e/c2ehzuavlqohivuzcnroa7g27tjwxgntvzfb4fkkkc45owsuq5wt.py":33:18)
#loc22 = loc("./.compile_cache/2e/c2ehzuavlqohivuzcnroa7g27tjwxgntvzfb4fkkkc45owsuq5wt.py":34:30)
#loc23 = loc("./.compile_cache/2e/c2ehzuavlqohivuzcnroa7g27tjwxgntvzfb4fkkkc45owsuq5wt.py":25:23)
#loc24 = loc("./.compile_cache/2e/c2ehzuavlqohivuzcnroa7g27tjwxgntvzfb4fkkkc45owsuq5wt.py":34:25)
#loc25 = loc("./.compile_cache/2e/c2ehzuavlqohivuzcnroa7g27tjwxgntvzfb4fkkkc45owsuq5wt.py":34:44)
#loc26 = loc("./.compile_cache/2e/c2ehzuavlqohivuzcnroa7g27tjwxgntvzfb4fkkkc45owsuq5wt.py":34:4)
#loc32 = loc("tmp0"(#loc1))
#loc33 = loc("xmask"(#loc2))
#loc34 = loc("tmp0"(#loc4))
#loc35 = loc("yoffset"(#loc6))
#loc36 = loc("yoffset"(#loc7))
#loc37 = loc("yindex"(#loc8))
#loc38 = loc("yindex"(#loc9))
#loc39 = loc("yindex"(#loc10))
#loc40 = loc("xoffset"(#loc11))
#loc41 = loc("y0"(#loc12))
#loc42 = loc("y1"(#loc13))
#loc43 = loc("tmp0"(#loc14))
#loc44 = loc("tmp0"(#loc15))
#loc45 = loc("tmp0"(#loc16))
#loc46 = loc("tmp0"(#loc17))
#loc47 = loc("tmp0"(#loc18))
#loc48 = loc("tmp1"(#loc19))
#loc49 = loc("tmp1"(#loc20))
#loc50 = loc("tmp2"(#loc21))
#loc51 = loc("xindex"(#loc23))
#loc52 = loc(fused[#loc44, #loc32])
#loc53 = loc(fused[#loc47, #loc33])
#loc54 = loc(fused[#loc22, #loc51])
