#loc = loc("/mnt/g/GitHub/VAE_ca_proj/Thermal/.compile_cache/o2/co2s7wsugajfddcx74jlrajzfnfcealanohygmreqe56v3vfng2e.py":18:0)
#loc1 = loc(unknown)
#loc19 = loc("/mnt/g/GitHub/VAE_ca_proj/Thermal/.compile_cache/o2/co2s7wsugajfddcx74jlrajzfnfcealanohygmreqe56v3vfng2e.py":40:25)
#loc25 = loc("in_ptr0"(#loc))
#loc26 = loc("out_ptr0"(#loc))
#loc27 = loc("xnumel"(#loc))
#loc28 = loc("r0_numel"(#loc))
#loc45 = loc("tmp2"(#loc19))
#loc48 = loc(callsite(#loc1 at #loc45))
module {
  tt.func public @triton_red_fused_native_dropout_backward_sum_transpose_view_35(%in_ptr0: !tt.ptr<f32> {tt.divisibility = 16 : i32} loc("in_ptr0"(#loc)), %out_ptr0: !tt.ptr<f32> {tt.divisibility = 16 : i32} loc("out_ptr0"(#loc)), %xnumel: i32 {tt.divisibility = 16 : i32} loc("xnumel"(#loc)), %r0_numel: i32 {tt.divisibility = 16 : i32} loc("r0_numel"(#loc))) attributes {noinline = false} {
    %cst = arith.constant dense<256> : tensor<1x128xi32> loc(#loc1)
    %cst_0 = arith.constant dense<128> : tensor<1x128xi32> loc(#loc1)
    %cst_1 = arith.constant dense<0.000000e+00> : tensor<4x128xf32> loc(#loc1)
    %xmask = arith.constant dense<256> : tensor<4x1xi32> loc(#loc29)
    %c4_i32 = arith.constant 4 : i32 loc(#loc1)
    %xoffset = tt.get_program_id x : i32 loc(#loc30)
    %xoffset_2 = arith.muli %xoffset, %c4_i32 : i32 loc(#loc31)
    %xindex = tt.make_range {end = 4 : i32, start = 0 : i32} : tensor<4xi32> loc(#loc32)
    %xindex_3 = tt.expand_dims %xindex {axis = 1 : i32} : tensor<4xi32> -> tensor<4x1xi32> loc(#loc33)
    %xindex_4 = tt.splat %xoffset_2 : i32 -> tensor<4x1xi32> loc(#loc34)
    %xindex_5 = arith.addi %xindex_4, %xindex_3 : tensor<4x1xi32> loc(#loc34)
    %xmask_6 = arith.cmpi slt, %xindex_5, %xmask : tensor<4x1xi32> loc(#loc29)
    %r0_base = tt.make_range {end = 128 : i32, start = 0 : i32} : tensor<128xi32> loc(#loc35)
    %r0_base_7 = tt.expand_dims %r0_base {axis = 0 : i32} : tensor<128xi32> -> tensor<1x128xi32> loc(#loc36)
    %r0_mask = arith.cmpi slt, %r0_base_7, %cst_0 : tensor<1x128xi32> loc(#loc37)
    %tmp0 = arith.muli %r0_base_7, %cst : tensor<1x128xi32> loc(#loc38)
    %tmp0_8 = tt.broadcast %xindex_5 : tensor<4x1xi32> -> tensor<4x128xi32> loc(#loc39)
    %tmp0_9 = tt.broadcast %tmp0 : tensor<1x128xi32> -> tensor<4x128xi32> loc(#loc39)
    %tmp0_10 = arith.addi %tmp0_8, %tmp0_9 : tensor<4x128xi32> loc(#loc39)
    %tmp0_11 = tt.splat %in_ptr0 : !tt.ptr<f32> -> tensor<4x128x!tt.ptr<f32>> loc(#loc40)
    %tmp0_12 = tt.addptr %tmp0_11, %tmp0_10 : tensor<4x128x!tt.ptr<f32>>, tensor<4x128xi32> loc(#loc40)
    %tmp0_13 = tt.broadcast %r0_mask : tensor<1x128xi1> -> tensor<4x128xi1> loc(#loc41)
    %tmp0_14 = tt.broadcast %xmask_6 : tensor<4x1xi1> -> tensor<4x128xi1> loc(#loc41)
    %tmp0_15 = arith.andi %tmp0_13, %tmp0_14 : tensor<4x128xi1> loc(#loc41)
    %tmp0_16 = tt.load %tmp0_12, %tmp0_15, %cst_1 evictionPolicy = evict_first : tensor<4x128x!tt.ptr<f32>> loc(#loc42)
    %tmp3 = arith.addf %tmp0_16, %cst_1 : tensor<4x128xf32> loc(#loc43)
    %_tmp2 = arith.select %tmp0_15, %tmp3, %cst_1 : tensor<4x128xi1>, tensor<4x128xf32> loc(#loc44)
    %tmp2 = "tt.reduce"(%_tmp2) <{axis = 1 : i32}> ({
    ^bb0(%tmp2_18: f32 loc(callsite(#loc1 at #loc45)), %tmp2_19: f32 loc(callsite(#loc1 at #loc45))):
      %tmp2_20 = arith.addf %tmp2_18, %tmp2_19 : f32 loc(#loc49)
      tt.reduce.return %tmp2_20 : f32 loc(#loc47)
    }) : (tensor<4x128xf32>) -> tensor<4xf32> loc(#loc47)
    %tmp2_17 = tt.expand_dims %tmp2 {axis = 1 : i32} : tensor<4xf32> -> tensor<4x1xf32> loc(#loc46)
    %0 = tt.splat %out_ptr0 : !tt.ptr<f32> -> tensor<4x1x!tt.ptr<f32>> loc(#loc22)
    %1 = tt.addptr %0, %xindex_5 : tensor<4x1x!tt.ptr<f32>>, tensor<4x1xi32> loc(#loc22)
    tt.store %1, %tmp2_17, %xmask_6 : tensor<4x1x!tt.ptr<f32>> loc(#loc23)
    tt.return loc(#loc24)
  } loc(#loc)
} loc(#loc)
#loc2 = loc("/mnt/g/GitHub/VAE_ca_proj/Thermal/.compile_cache/o2/co2s7wsugajfddcx74jlrajzfnfcealanohygmreqe56v3vfng2e.py":25:21)
#loc3 = loc("/mnt/g/GitHub/VAE_ca_proj/Thermal/.compile_cache/o2/co2s7wsugajfddcx74jlrajzfnfcealanohygmreqe56v3vfng2e.py":23:28)
#loc4 = loc("/mnt/g/GitHub/VAE_ca_proj/Thermal/.compile_cache/o2/co2s7wsugajfddcx74jlrajzfnfcealanohygmreqe56v3vfng2e.py":23:33)
#loc5 = loc("/mnt/g/GitHub/VAE_ca_proj/Thermal/.compile_cache/o2/co2s7wsugajfddcx74jlrajzfnfcealanohygmreqe56v3vfng2e.py":24:36)
#loc6 = loc("/mnt/g/GitHub/VAE_ca_proj/Thermal/.compile_cache/o2/co2s7wsugajfddcx74jlrajzfnfcealanohygmreqe56v3vfng2e.py":24:44)
#loc7 = loc("/mnt/g/GitHub/VAE_ca_proj/Thermal/.compile_cache/o2/co2s7wsugajfddcx74jlrajzfnfcealanohygmreqe56v3vfng2e.py":24:23)
#loc8 = loc("/mnt/g/GitHub/VAE_ca_proj/Thermal/.compile_cache/o2/co2s7wsugajfddcx74jlrajzfnfcealanohygmreqe56v3vfng2e.py":26:27)
#loc9 = loc("/mnt/g/GitHub/VAE_ca_proj/Thermal/.compile_cache/o2/co2s7wsugajfddcx74jlrajzfnfcealanohygmreqe56v3vfng2e.py":26:37)
#loc10 = loc("/mnt/g/GitHub/VAE_ca_proj/Thermal/.compile_cache/o2/co2s7wsugajfddcx74jlrajzfnfcealanohygmreqe56v3vfng2e.py":32:29)
#loc11 = loc("/mnt/g/GitHub/VAE_ca_proj/Thermal/.compile_cache/o2/co2s7wsugajfddcx74jlrajzfnfcealanohygmreqe56v3vfng2e.py":36:43)
#loc12 = loc("/mnt/g/GitHub/VAE_ca_proj/Thermal/.compile_cache/o2/co2s7wsugajfddcx74jlrajzfnfcealanohygmreqe56v3vfng2e.py":36:39)
#loc13 = loc("/mnt/g/GitHub/VAE_ca_proj/Thermal/.compile_cache/o2/co2s7wsugajfddcx74jlrajzfnfcealanohygmreqe56v3vfng2e.py":36:34)
#loc14 = loc("/mnt/g/GitHub/VAE_ca_proj/Thermal/.compile_cache/o2/co2s7wsugajfddcx74jlrajzfnfcealanohygmreqe56v3vfng2e.py":36:60)
#loc15 = loc("/mnt/g/GitHub/VAE_ca_proj/Thermal/.compile_cache/o2/co2s7wsugajfddcx74jlrajzfnfcealanohygmreqe56v3vfng2e.py":36:50)
#loc16 = loc("/mnt/g/GitHub/VAE_ca_proj/Thermal/.compile_cache/o2/co2s7wsugajfddcx74jlrajzfnfcealanohygmreqe56v3vfng2e.py":38:23)
#loc17 = loc("/mnt/g/GitHub/VAE_ca_proj/Thermal/.compile_cache/o2/co2s7wsugajfddcx74jlrajzfnfcealanohygmreqe56v3vfng2e.py":39:48)
#loc18 = loc("/home/xy/miniconda3/envs/cu128/lib/python3.12/site-packages/triton/language/standard.py":291:36)
#loc20 = loc("/home/xy/miniconda3/envs/cu128/lib/python3.12/site-packages/triton/language/standard.py":261:15)
#loc21 = loc("/mnt/g/GitHub/VAE_ca_proj/Thermal/.compile_cache/o2/co2s7wsugajfddcx74jlrajzfnfcealanohygmreqe56v3vfng2e.py":40:28)
#loc22 = loc("/mnt/g/GitHub/VAE_ca_proj/Thermal/.compile_cache/o2/co2s7wsugajfddcx74jlrajzfnfcealanohygmreqe56v3vfng2e.py":41:25)
#loc23 = loc("/mnt/g/GitHub/VAE_ca_proj/Thermal/.compile_cache/o2/co2s7wsugajfddcx74jlrajzfnfcealanohygmreqe56v3vfng2e.py":41:36)
#loc24 = loc("/mnt/g/GitHub/VAE_ca_proj/Thermal/.compile_cache/o2/co2s7wsugajfddcx74jlrajzfnfcealanohygmreqe56v3vfng2e.py":41:4)
#loc29 = loc("xmask"(#loc2))
#loc30 = loc("xoffset"(#loc3))
#loc31 = loc("xoffset"(#loc4))
#loc32 = loc("xindex"(#loc5))
#loc33 = loc("xindex"(#loc6))
#loc34 = loc("xindex"(#loc7))
#loc35 = loc("r0_base"(#loc8))
#loc36 = loc("r0_base"(#loc9))
#loc37 = loc("r0_mask"(#loc10))
#loc38 = loc("tmp0"(#loc11))
#loc39 = loc("tmp0"(#loc12))
#loc40 = loc("tmp0"(#loc13))
#loc41 = loc("tmp0"(#loc14))
#loc42 = loc("tmp0"(#loc15))
#loc43 = loc("tmp3"(#loc16))
#loc44 = loc("_tmp2"(#loc17))
#loc46 = loc("tmp2"(#loc21))
#loc47 = loc(callsite(#loc18 at #loc45))
#loc49 = loc(callsite(#loc20 at #loc47))
