#loc = loc("/mnt/g/GitHub/VAE_ca_proj/Thermal/.compile_cache/25/c25ozctt55rlzeyqwavtyz5dqde3nvlr45irxfpm2wfbly46v2su.py":18:0)
#loc25 = loc("in_out_ptr0"(#loc))
#loc26 = loc("in_ptr0"(#loc))
#loc27 = loc("in_ptr1"(#loc))
#loc28 = loc("in_ptr2"(#loc))
#loc29 = loc("xnumel"(#loc))
module {
  tt.func public @triton_poi_fused_add_mul_transpose_view_40(%in_out_ptr0: !tt.ptr<bf16> {tt.divisibility = 16 : i32} loc("in_out_ptr0"(#loc)), %in_ptr0: !tt.ptr<bf16> {tt.divisibility = 16 : i32} loc("in_ptr0"(#loc)), %in_ptr1: !tt.ptr<bf16> {tt.divisibility = 16 : i32} loc("in_ptr1"(#loc)), %in_ptr2: !tt.ptr<bf16> {tt.divisibility = 16 : i32} loc("in_ptr2"(#loc)), %xnumel: i32 {tt.divisibility = 16 : i32} loc("xnumel"(#loc))) attributes {noinline = false} {
    %xnumel_0 = arith.constant 8388608 : i32 loc(#loc30)
    %xoffset = tt.get_program_id x : i32 loc(#loc31)
    %xoffset_1 = arith.constant 1024 : i32 loc(#loc32)
    %xoffset_2 = arith.constant 1024 : i32 loc(#loc32)
    %xoffset_3 = arith.muli %xoffset, %xoffset_2 : i32 loc(#loc32)
    %xindex = tt.make_range {end = 1024 : i32, start = 0 : i32} : tensor<1024xi32> loc(#loc33)
    %xindex_4 = tt.splat %xoffset_3 : i32 -> tensor<1024xi32> loc(#loc34)
    %xindex_5 = arith.addi %xindex_4, %xindex : tensor<1024xi32> loc(#loc34)
    %xmask = arith.constant true loc(#loc35)
    %xmask_6 = arith.constant dense<true> : tensor<1024xi1> loc(#loc35)
    %tmp0 = tt.splat %in_out_ptr0 : !tt.ptr<bf16> -> tensor<1024x!tt.ptr<bf16>> loc(#loc36)
    %tmp0_7 = tt.addptr %tmp0, %xindex_5 : tensor<1024x!tt.ptr<bf16>>, tensor<1024xi32> loc(#loc36)
    %tmp0_8 = tt.load %tmp0_7 : tensor<1024x!tt.ptr<bf16>> loc(#loc37)
    %tmp0_9 = arith.extf %tmp0_8 : tensor<1024xbf16> to tensor<1024xf32> loc(#loc38)
    %tmp1 = tt.splat %in_ptr0 : !tt.ptr<bf16> -> tensor<1024x!tt.ptr<bf16>> loc(#loc39)
    %tmp1_10 = tt.addptr %tmp1, %xindex_5 : tensor<1024x!tt.ptr<bf16>>, tensor<1024xi32> loc(#loc39)
    %tmp1_11 = tt.load %tmp1_10 : tensor<1024x!tt.ptr<bf16>> loc(#loc40)
    %tmp1_12 = arith.extf %tmp1_11 : tensor<1024xbf16> to tensor<1024xf32> loc(#loc41)
    %tmp3 = tt.splat %in_ptr1 : !tt.ptr<bf16> -> tensor<1024x!tt.ptr<bf16>> loc(#loc42)
    %tmp3_13 = tt.addptr %tmp3, %xindex_5 : tensor<1024x!tt.ptr<bf16>>, tensor<1024xi32> loc(#loc42)
    %tmp3_14 = tt.load %tmp3_13 : tensor<1024x!tt.ptr<bf16>> loc(#loc43)
    %tmp3_15 = arith.extf %tmp3_14 : tensor<1024xbf16> to tensor<1024xf32> loc(#loc44)
    %tmp5 = tt.splat %in_ptr2 : !tt.ptr<bf16> -> tensor<1024x!tt.ptr<bf16>> loc(#loc45)
    %tmp5_16 = tt.addptr %tmp5, %xindex_5 : tensor<1024x!tt.ptr<bf16>>, tensor<1024xi32> loc(#loc45)
    %tmp5_17 = tt.load %tmp5_16 : tensor<1024x!tt.ptr<bf16>> loc(#loc46)
    %tmp5_18 = arith.extf %tmp5_17 : tensor<1024xbf16> to tensor<1024xf32> loc(#loc47)
    %tmp2 = arith.addf %tmp0_9, %tmp1_12 : tensor<1024xf32> loc(#loc48)
    %tmp4 = arith.addf %tmp2, %tmp3_15 : tensor<1024xf32> loc(#loc49)
    %tmp6 = arith.mulf %tmp4, %tmp5_18 : tensor<1024xf32> loc(#loc50)
    %0 = tt.splat %in_out_ptr0 : !tt.ptr<bf16> -> tensor<1024x!tt.ptr<bf16>> loc(#loc22)
    %1 = tt.addptr %0, %xindex_5 : tensor<1024x!tt.ptr<bf16>>, tensor<1024xi32> loc(#loc22)
    %2 = arith.truncf %tmp6 : tensor<1024xf32> to tensor<1024xbf16> loc(#loc23)
    tt.store %1, %2 : tensor<1024x!tt.ptr<bf16>> loc(#loc23)
    tt.return loc(#loc24)
  } loc(#loc)
} loc(#loc)
#loc1 = loc("/mnt/g/GitHub/VAE_ca_proj/Thermal/.compile_cache/25/c25ozctt55rlzeyqwavtyz5dqde3nvlr45irxfpm2wfbly46v2su.py":19:13)
#loc2 = loc("/mnt/g/GitHub/VAE_ca_proj/Thermal/.compile_cache/25/c25ozctt55rlzeyqwavtyz5dqde3nvlr45irxfpm2wfbly46v2su.py":20:28)
#loc3 = loc("/mnt/g/GitHub/VAE_ca_proj/Thermal/.compile_cache/25/c25ozctt55rlzeyqwavtyz5dqde3nvlr45irxfpm2wfbly46v2su.py":20:33)
#loc4 = loc("/mnt/g/GitHub/VAE_ca_proj/Thermal/.compile_cache/25/c25ozctt55rlzeyqwavtyz5dqde3nvlr45irxfpm2wfbly46v2su.py":21:36)
#loc5 = loc("/mnt/g/GitHub/VAE_ca_proj/Thermal/.compile_cache/25/c25ozctt55rlzeyqwavtyz5dqde3nvlr45irxfpm2wfbly46v2su.py":21:23)
#loc6 = loc("/mnt/g/GitHub/VAE_ca_proj/Thermal/.compile_cache/25/c25ozctt55rlzeyqwavtyz5dqde3nvlr45irxfpm2wfbly46v2su.py":22:36)
#loc7 = loc("/mnt/g/GitHub/VAE_ca_proj/Thermal/.compile_cache/25/c25ozctt55rlzeyqwavtyz5dqde3nvlr45irxfpm2wfbly46v2su.py":24:34)
#loc8 = loc("/mnt/g/GitHub/VAE_ca_proj/Thermal/.compile_cache/25/c25ozctt55rlzeyqwavtyz5dqde3nvlr45irxfpm2wfbly46v2su.py":24:39)
#loc9 = loc("/mnt/g/GitHub/VAE_ca_proj/Thermal/.compile_cache/25/c25ozctt55rlzeyqwavtyz5dqde3nvlr45irxfpm2wfbly46v2su.py":24:48)
#loc10 = loc("/mnt/g/GitHub/VAE_ca_proj/Thermal/.compile_cache/25/c25ozctt55rlzeyqwavtyz5dqde3nvlr45irxfpm2wfbly46v2su.py":25:30)
#loc11 = loc("/mnt/g/GitHub/VAE_ca_proj/Thermal/.compile_cache/25/c25ozctt55rlzeyqwavtyz5dqde3nvlr45irxfpm2wfbly46v2su.py":25:35)
#loc12 = loc("/mnt/g/GitHub/VAE_ca_proj/Thermal/.compile_cache/25/c25ozctt55rlzeyqwavtyz5dqde3nvlr45irxfpm2wfbly46v2su.py":25:44)
#loc13 = loc("/mnt/g/GitHub/VAE_ca_proj/Thermal/.compile_cache/25/c25ozctt55rlzeyqwavtyz5dqde3nvlr45irxfpm2wfbly46v2su.py":26:30)
#loc14 = loc("/mnt/g/GitHub/VAE_ca_proj/Thermal/.compile_cache/25/c25ozctt55rlzeyqwavtyz5dqde3nvlr45irxfpm2wfbly46v2su.py":26:35)
#loc15 = loc("/mnt/g/GitHub/VAE_ca_proj/Thermal/.compile_cache/25/c25ozctt55rlzeyqwavtyz5dqde3nvlr45irxfpm2wfbly46v2su.py":26:44)
#loc16 = loc("/mnt/g/GitHub/VAE_ca_proj/Thermal/.compile_cache/25/c25ozctt55rlzeyqwavtyz5dqde3nvlr45irxfpm2wfbly46v2su.py":27:30)
#loc17 = loc("/mnt/g/GitHub/VAE_ca_proj/Thermal/.compile_cache/25/c25ozctt55rlzeyqwavtyz5dqde3nvlr45irxfpm2wfbly46v2su.py":27:35)
#loc18 = loc("/mnt/g/GitHub/VAE_ca_proj/Thermal/.compile_cache/25/c25ozctt55rlzeyqwavtyz5dqde3nvlr45irxfpm2wfbly46v2su.py":27:44)
#loc19 = loc("/mnt/g/GitHub/VAE_ca_proj/Thermal/.compile_cache/25/c25ozctt55rlzeyqwavtyz5dqde3nvlr45irxfpm2wfbly46v2su.py":28:18)
#loc20 = loc("/mnt/g/GitHub/VAE_ca_proj/Thermal/.compile_cache/25/c25ozctt55rlzeyqwavtyz5dqde3nvlr45irxfpm2wfbly46v2su.py":29:18)
#loc21 = loc("/mnt/g/GitHub/VAE_ca_proj/Thermal/.compile_cache/25/c25ozctt55rlzeyqwavtyz5dqde3nvlr45irxfpm2wfbly46v2su.py":30:18)
#loc22 = loc("/mnt/g/GitHub/VAE_ca_proj/Thermal/.compile_cache/25/c25ozctt55rlzeyqwavtyz5dqde3nvlr45irxfpm2wfbly46v2su.py":31:28)
#loc23 = loc("/mnt/g/GitHub/VAE_ca_proj/Thermal/.compile_cache/25/c25ozctt55rlzeyqwavtyz5dqde3nvlr45irxfpm2wfbly46v2su.py":31:39)
#loc24 = loc("/mnt/g/GitHub/VAE_ca_proj/Thermal/.compile_cache/25/c25ozctt55rlzeyqwavtyz5dqde3nvlr45irxfpm2wfbly46v2su.py":31:4)
#loc30 = loc("xnumel"(#loc1))
#loc31 = loc("xoffset"(#loc2))
#loc32 = loc("xoffset"(#loc3))
#loc33 = loc("xindex"(#loc4))
#loc34 = loc("xindex"(#loc5))
#loc35 = loc("xmask"(#loc6))
#loc36 = loc("tmp0"(#loc7))
#loc37 = loc("tmp0"(#loc8))
#loc38 = loc("tmp0"(#loc9))
#loc39 = loc("tmp1"(#loc10))
#loc40 = loc("tmp1"(#loc11))
#loc41 = loc("tmp1"(#loc12))
#loc42 = loc("tmp3"(#loc13))
#loc43 = loc("tmp3"(#loc14))
#loc44 = loc("tmp3"(#loc15))
#loc45 = loc("tmp5"(#loc16))
#loc46 = loc("tmp5"(#loc17))
#loc47 = loc("tmp5"(#loc18))
#loc48 = loc("tmp2"(#loc19))
#loc49 = loc("tmp4"(#loc20))
#loc50 = loc("tmp6"(#loc21))
