#loc = loc("/mnt/g/GitHub/VAE_ca_proj/Thermal/.compile_cache/y5/cy57ibifd4mer32jyro6rqh2s3ntc4p2l5uloofdeyj254mtxjev.py":18:0)
#loc18 = loc("/home/xy/miniconda3/envs/cu128/lib/python3.12/site-packages/triton/language/standard.py":47:0)
#loc25 = loc("in_out_ptr0"(#loc))
#loc26 = loc("in_ptr0"(#loc))
#loc27 = loc("xnumel"(#loc))
#loc42 = loc("x"(#loc18))
module {
  tt.func public @triton_poi_fused__to_copy_addmm_silu_11(%in_out_ptr0: !tt.ptr<bf16> {tt.divisibility = 16 : i32} loc("in_out_ptr0"(#loc)), %in_ptr0: !tt.ptr<f32> {tt.divisibility = 16 : i32} loc("in_ptr0"(#loc)), %xnumel: i32 {tt.divisibility = 16 : i32} loc("xnumel"(#loc))) attributes {noinline = false} {
    %xoffset = tt.get_program_id x : i32 loc(#loc28)
    %xoffset_0 = arith.constant 128 : i32 loc(#loc29)
    %xoffset_1 = arith.constant 128 : i32 loc(#loc29)
    %xoffset_2 = arith.muli %xoffset, %xoffset_1 : i32 loc(#loc29)
    %xindex = tt.make_range {end = 128 : i32, start = 0 : i32} : tensor<128xi32> loc(#loc30)
    %xindex_3 = tt.splat %xoffset_2 : i32 -> tensor<128xi32> loc(#loc31)
    %xindex_4 = arith.addi %xindex_3, %xindex : tensor<128xi32> loc(#loc31)
    %xmask = tt.splat %xnumel : i32 -> tensor<128xi32> loc(#loc32)
    %xmask_5 = arith.cmpi slt, %xindex_4, %xmask : tensor<128xi32> loc(#loc32)
    %x0 = arith.constant 512 : i32 loc(#loc33)
    %x0_6 = arith.constant 512 : i32 loc(#loc33)
    %x0_7 = arith.constant dense<512> : tensor<128xi32> loc(#loc33)
    %x0_8 = arith.remsi %xindex_4, %x0_7 : tensor<128xi32> loc(#loc33)
    %tmp0 = tt.splat %in_out_ptr0 : !tt.ptr<bf16> -> tensor<128x!tt.ptr<bf16>> loc(#loc34)
    %tmp0_9 = tt.addptr %tmp0, %xindex_4 : tensor<128x!tt.ptr<bf16>>, tensor<128xi32> loc(#loc34)
    %tmp0_10 = tt.load %tmp0_9, %xmask_5 : tensor<128x!tt.ptr<bf16>> loc(#loc35)
    %tmp0_11 = arith.extf %tmp0_10 : tensor<128xbf16> to tensor<128xf32> loc(#loc36)
    %tmp1 = tt.splat %in_ptr0 : !tt.ptr<f32> -> tensor<128x!tt.ptr<f32>> loc(#loc37)
    %tmp1_12 = tt.addptr %tmp1, %x0_8 : tensor<128x!tt.ptr<f32>>, tensor<128xi32> loc(#loc37)
    %tmp1_13 = tt.load %tmp1_12, %xmask_5 evictionPolicy = evict_last : tensor<128x!tt.ptr<f32>> loc(#loc38)
    %tmp3 = arith.addf %tmp0_11, %tmp1_13 : tensor<128xf32> loc(#loc39)
    %tmp5 = tt.call @triton.language.standard.sigmoid__fp32S128S__(%tmp3) : (tensor<128xf32>) -> tensor<128xf32> loc(#loc40)
    %tmp6 = arith.mulf %tmp3, %tmp5 : tensor<128xf32> loc(#loc41)
    %0 = tt.splat %in_out_ptr0 : !tt.ptr<bf16> -> tensor<128x!tt.ptr<bf16>> loc(#loc15)
    %1 = tt.addptr %0, %xindex_4 : tensor<128x!tt.ptr<bf16>>, tensor<128xi32> loc(#loc15)
    %2 = arith.truncf %tmp6 : tensor<128xf32> to tensor<128xbf16> loc(#loc16)
    tt.store %1, %2, %xmask_5 : tensor<128x!tt.ptr<bf16>> loc(#loc16)
    tt.return loc(#loc17)
  } loc(#loc)
  tt.func private @triton.language.standard.sigmoid__fp32S128S__(%x: tensor<128xf32> loc("x"(#loc18))) -> tensor<128xf32> attributes {noinline = false} {
    %cst = arith.constant 0.000000e+00 : f32 loc(#loc19)
    %cst_0 = arith.constant dense<0.000000e+00> : tensor<128xf32> loc(#loc19)
    %0 = arith.subf %cst_0, %x : tensor<128xf32> loc(#loc19)
    %1 = math.exp %0 : tensor<128xf32> loc(#loc20)
    %c1_i32 = arith.constant 1 : i32 loc(#loc21)
    %cst_1 = arith.constant 1.000000e+00 : f32 loc(#loc21)
    %cst_2 = arith.constant dense<1.000000e+00> : tensor<128xf32> loc(#loc21)
    %2 = arith.addf %cst_2, %1 : tensor<128xf32> loc(#loc21)
    %c1_i32_3 = arith.constant 1 : i32 loc(#loc22)
    %cst_4 = arith.constant 1.000000e+00 : f32 loc(#loc22)
    %cst_5 = arith.constant dense<1.000000e+00> : tensor<128xf32> loc(#loc22)
    %3 = arith.divf %cst_5, %2 : tensor<128xf32> loc(#loc22)
    tt.return %3 : tensor<128xf32> loc(#loc23)
  ^bb1:  // no predecessors
    %4 = ub.poison : tensor<128xf32> loc(#loc24)
    tt.return %4 : tensor<128xf32> loc(#loc24)
  } loc(#loc18)
} loc(#loc)
#loc1 = loc("/mnt/g/GitHub/VAE_ca_proj/Thermal/.compile_cache/y5/cy57ibifd4mer32jyro6rqh2s3ntc4p2l5uloofdeyj254mtxjev.py":19:28)
#loc2 = loc("/mnt/g/GitHub/VAE_ca_proj/Thermal/.compile_cache/y5/cy57ibifd4mer32jyro6rqh2s3ntc4p2l5uloofdeyj254mtxjev.py":19:33)
#loc3 = loc("/mnt/g/GitHub/VAE_ca_proj/Thermal/.compile_cache/y5/cy57ibifd4mer32jyro6rqh2s3ntc4p2l5uloofdeyj254mtxjev.py":20:36)
#loc4 = loc("/mnt/g/GitHub/VAE_ca_proj/Thermal/.compile_cache/y5/cy57ibifd4mer32jyro6rqh2s3ntc4p2l5uloofdeyj254mtxjev.py":20:23)
#loc5 = loc("/mnt/g/GitHub/VAE_ca_proj/Thermal/.compile_cache/y5/cy57ibifd4mer32jyro6rqh2s3ntc4p2l5uloofdeyj254mtxjev.py":21:21)
#loc6 = loc("/mnt/g/GitHub/VAE_ca_proj/Thermal/.compile_cache/y5/cy57ibifd4mer32jyro6rqh2s3ntc4p2l5uloofdeyj254mtxjev.py":23:19)
#loc7 = loc("/mnt/g/GitHub/VAE_ca_proj/Thermal/.compile_cache/y5/cy57ibifd4mer32jyro6rqh2s3ntc4p2l5uloofdeyj254mtxjev.py":24:34)
#loc8 = loc("/mnt/g/GitHub/VAE_ca_proj/Thermal/.compile_cache/y5/cy57ibifd4mer32jyro6rqh2s3ntc4p2l5uloofdeyj254mtxjev.py":24:39)
#loc9 = loc("/mnt/g/GitHub/VAE_ca_proj/Thermal/.compile_cache/y5/cy57ibifd4mer32jyro6rqh2s3ntc4p2l5uloofdeyj254mtxjev.py":24:49)
#loc10 = loc("/mnt/g/GitHub/VAE_ca_proj/Thermal/.compile_cache/y5/cy57ibifd4mer32jyro6rqh2s3ntc4p2l5uloofdeyj254mtxjev.py":25:30)
#loc11 = loc("/mnt/g/GitHub/VAE_ca_proj/Thermal/.compile_cache/y5/cy57ibifd4mer32jyro6rqh2s3ntc4p2l5uloofdeyj254mtxjev.py":25:35)
#loc12 = loc("/mnt/g/GitHub/VAE_ca_proj/Thermal/.compile_cache/y5/cy57ibifd4mer32jyro6rqh2s3ntc4p2l5uloofdeyj254mtxjev.py":27:18)
#loc13 = loc("/mnt/g/GitHub/VAE_ca_proj/Thermal/.compile_cache/y5/cy57ibifd4mer32jyro6rqh2s3ntc4p2l5uloofdeyj254mtxjev.py":29:22)
#loc14 = loc("/mnt/g/GitHub/VAE_ca_proj/Thermal/.compile_cache/y5/cy57ibifd4mer32jyro6rqh2s3ntc4p2l5uloofdeyj254mtxjev.py":30:18)
#loc15 = loc("/mnt/g/GitHub/VAE_ca_proj/Thermal/.compile_cache/y5/cy57ibifd4mer32jyro6rqh2s3ntc4p2l5uloofdeyj254mtxjev.py":32:28)
#loc16 = loc("/mnt/g/GitHub/VAE_ca_proj/Thermal/.compile_cache/y5/cy57ibifd4mer32jyro6rqh2s3ntc4p2l5uloofdeyj254mtxjev.py":32:39)
#loc17 = loc("/mnt/g/GitHub/VAE_ca_proj/Thermal/.compile_cache/y5/cy57ibifd4mer32jyro6rqh2s3ntc4p2l5uloofdeyj254mtxjev.py":32:4)
#loc19 = loc("/home/xy/miniconda3/envs/cu128/lib/python3.12/site-packages/triton/language/standard.py":48:30)
#loc20 = loc("/home/xy/miniconda3/envs/cu128/lib/python3.12/site-packages/triton/language/standard.py":48:29)
#loc21 = loc("/home/xy/miniconda3/envs/cu128/lib/python3.12/site-packages/triton/language/standard.py":48:20)
#loc22 = loc("/home/xy/miniconda3/envs/cu128/lib/python3.12/site-packages/triton/language/standard.py":48:16)
#loc23 = loc("/home/xy/miniconda3/envs/cu128/lib/python3.12/site-packages/triton/language/standard.py":48:11)
#loc24 = loc("/home/xy/miniconda3/envs/cu128/lib/python3.12/site-packages/triton/language/standard.py":48:4)
#loc28 = loc("xoffset"(#loc1))
#loc29 = loc("xoffset"(#loc2))
#loc30 = loc("xindex"(#loc3))
#loc31 = loc("xindex"(#loc4))
#loc32 = loc("xmask"(#loc5))
#loc33 = loc("x0"(#loc6))
#loc34 = loc("tmp0"(#loc7))
#loc35 = loc("tmp0"(#loc8))
#loc36 = loc("tmp0"(#loc9))
#loc37 = loc("tmp1"(#loc10))
#loc38 = loc("tmp1"(#loc11))
#loc39 = loc("tmp3"(#loc12))
#loc40 = loc("tmp5"(#loc13))
#loc41 = loc("tmp6"(#loc14))
