#loc = loc("/mnt/g/GitHub/VAE_ca_proj/Thermal/.compile_cache/q7/cq7hpm46cjjj67chkevbh73llyujuh54vtakep3tzhxljlnc2bez.py":18:0)
#loc16 = loc("in_out_ptr0"(#loc))
#loc17 = loc("xnumel"(#loc))
module {
  tt.func public @triton_poi_fused__softmax__to_copy_amax_mul_sub_view_41(%in_out_ptr0: !tt.ptr<bf16> {tt.divisibility = 16 : i32} loc("in_out_ptr0"(#loc)), %xnumel: i32 {tt.divisibility = 16 : i32} loc("xnumel"(#loc))) attributes {noinline = false} {
    %tmp6 = arith.constant dense<1.250000e-01> : tensor<128xf32> loc(#loc18)
    %c128_i32 = arith.constant 128 : i32 loc(#loc2)
    %xoffset = tt.get_program_id x : i32 loc(#loc19)
    %xoffset_0 = arith.muli %xoffset, %c128_i32 : i32 loc(#loc20)
    %xindex = tt.make_range {end = 128 : i32, start = 0 : i32} : tensor<128xi32> loc(#loc21)
    %xindex_1 = tt.splat %xoffset_0 : i32 -> tensor<128xi32> loc(#loc22)
    %xindex_2 = arith.addi %xindex_1, %xindex : tensor<128xi32> loc(#loc22)
    %xmask = tt.splat %xnumel : i32 -> tensor<128xi32> loc(#loc23)
    %xmask_3 = arith.cmpi slt, %xindex_2, %xmask : tensor<128xi32> loc(#loc23)
    %tmp0 = tt.splat %in_out_ptr0 : !tt.ptr<bf16> -> tensor<128x!tt.ptr<bf16>> loc(#loc24)
    %tmp0_4 = tt.addptr %tmp0, %xindex_2 : tensor<128x!tt.ptr<bf16>>, tensor<128xi32> loc(#loc24)
    %tmp0_5 = tt.load %tmp0_4, %xmask_3 : tensor<128x!tt.ptr<bf16>> loc(#loc25)
    %tmp0_6 = arith.extf %tmp0_5 : tensor<128xbf16> to tensor<128xf32> loc(#loc26)
    %tmp4 = arith.subf %tmp0_6, %tmp0_6 : tensor<128xf32> loc(#loc27)
    %tmp6_7 = arith.mulf %tmp4, %tmp6 : tensor<128xf32> loc(#loc18)
    %tmp7 = tt.extern_elementwise %tmp6_7 {libname = "", libpath = "", pure = true, symbol = "__nv_expf"} : (tensor<128xf32>) -> tensor<128xf32> loc(#loc28)
    %tmp8 = arith.divf %tmp7, %tmp7 : tensor<128xf32> loc(#loc29)
    %0 = arith.truncf %tmp8 : tensor<128xf32> to tensor<128xbf16> loc(#loc14)
    tt.store %tmp0_4, %0, %xmask_3 : tensor<128x!tt.ptr<bf16>> loc(#loc14)
    tt.return loc(#loc15)
  } loc(#loc)
} loc(#loc)
#loc1 = loc("/mnt/g/GitHub/VAE_ca_proj/Thermal/.compile_cache/q7/cq7hpm46cjjj67chkevbh73llyujuh54vtakep3tzhxljlnc2bez.py":29:18)
#loc2 = loc(unknown)
#loc3 = loc("/mnt/g/GitHub/VAE_ca_proj/Thermal/.compile_cache/q7/cq7hpm46cjjj67chkevbh73llyujuh54vtakep3tzhxljlnc2bez.py":19:28)
#loc4 = loc("/mnt/g/GitHub/VAE_ca_proj/Thermal/.compile_cache/q7/cq7hpm46cjjj67chkevbh73llyujuh54vtakep3tzhxljlnc2bez.py":19:33)
#loc5 = loc("/mnt/g/GitHub/VAE_ca_proj/Thermal/.compile_cache/q7/cq7hpm46cjjj67chkevbh73llyujuh54vtakep3tzhxljlnc2bez.py":20:36)
#loc6 = loc("/mnt/g/GitHub/VAE_ca_proj/Thermal/.compile_cache/q7/cq7hpm46cjjj67chkevbh73llyujuh54vtakep3tzhxljlnc2bez.py":20:23)
#loc7 = loc("/mnt/g/GitHub/VAE_ca_proj/Thermal/.compile_cache/q7/cq7hpm46cjjj67chkevbh73llyujuh54vtakep3tzhxljlnc2bez.py":21:21)
#loc8 = loc("/mnt/g/GitHub/VAE_ca_proj/Thermal/.compile_cache/q7/cq7hpm46cjjj67chkevbh73llyujuh54vtakep3tzhxljlnc2bez.py":23:34)
#loc9 = loc("/mnt/g/GitHub/VAE_ca_proj/Thermal/.compile_cache/q7/cq7hpm46cjjj67chkevbh73llyujuh54vtakep3tzhxljlnc2bez.py":23:39)
#loc10 = loc("/mnt/g/GitHub/VAE_ca_proj/Thermal/.compile_cache/q7/cq7hpm46cjjj67chkevbh73llyujuh54vtakep3tzhxljlnc2bez.py":23:49)
#loc11 = loc("/mnt/g/GitHub/VAE_ca_proj/Thermal/.compile_cache/q7/cq7hpm46cjjj67chkevbh73llyujuh54vtakep3tzhxljlnc2bez.py":27:18)
#loc12 = loc("/mnt/g/GitHub/VAE_ca_proj/Thermal/.compile_cache/q7/cq7hpm46cjjj67chkevbh73llyujuh54vtakep3tzhxljlnc2bez.py":30:25)
#loc13 = loc("/mnt/g/GitHub/VAE_ca_proj/Thermal/.compile_cache/q7/cq7hpm46cjjj67chkevbh73llyujuh54vtakep3tzhxljlnc2bez.py":31:19)
#loc14 = loc("/mnt/g/GitHub/VAE_ca_proj/Thermal/.compile_cache/q7/cq7hpm46cjjj67chkevbh73llyujuh54vtakep3tzhxljlnc2bez.py":33:39)
#loc15 = loc("/mnt/g/GitHub/VAE_ca_proj/Thermal/.compile_cache/q7/cq7hpm46cjjj67chkevbh73llyujuh54vtakep3tzhxljlnc2bez.py":33:4)
#loc18 = loc("tmp6"(#loc1))
#loc19 = loc("xoffset"(#loc3))
#loc20 = loc("xoffset"(#loc4))
#loc21 = loc("xindex"(#loc5))
#loc22 = loc("xindex"(#loc6))
#loc23 = loc("xmask"(#loc7))
#loc24 = loc("tmp0"(#loc8))
#loc25 = loc("tmp0"(#loc9))
#loc26 = loc("tmp0"(#loc10))
#loc27 = loc("tmp4"(#loc11))
#loc28 = loc("tmp7"(#loc12))
#loc29 = loc("tmp8"(#loc13))
