#loc = loc("/mnt/g/GitHub/VAE_ca_proj/Thermal/.compile_cache/jg/cjg5bailurbhugtukckbu47iwkrbyekihetsh2ir26bdp2o7nbqa.py":18:0)
#loc25 = loc("in_out_ptr0"(#loc))
#loc26 = loc("in_ptr0"(#loc))
#loc27 = loc("in_ptr1"(#loc))
#loc28 = loc("xnumel"(#loc))
module {
  tt.func public @triton_poi_fused__to_copy_add_convolution_silu_39(%in_out_ptr0: !tt.ptr<bf16> {tt.divisibility = 16 : i32} loc("in_out_ptr0"(#loc)), %in_ptr0: !tt.ptr<f32> {tt.divisibility = 16 : i32} loc("in_ptr0"(#loc)), %in_ptr1: !tt.ptr<bf16> {tt.divisibility = 16 : i32} loc("in_ptr1"(#loc)), %xnumel: i32 {tt.divisibility = 16 : i32} loc("xnumel"(#loc))) attributes {noinline = false} {
    %tmp7 = arith.constant dense<0.000000e+00> : tensor<256xf32> loc(#loc46)
    %tmp7_0 = arith.constant dense<1.000000e+00> : tensor<256xf32> loc(#loc47)
    %x0 = arith.constant dense<512> : tensor<256xi32> loc(#loc30)
    %c256_i32 = arith.constant 256 : i32 loc(#loc3)
    %xoffset = tt.get_program_id x : i32 loc(#loc31)
    %xoffset_1 = arith.muli %xoffset, %c256_i32 : i32 loc(#loc32)
    %xindex = tt.make_range {end = 256 : i32, start = 0 : i32} : tensor<256xi32> loc(#loc33)
    %xindex_2 = tt.splat %xoffset_1 : i32 -> tensor<256xi32> loc(#loc34)
    %xindex_3 = arith.addi %xindex_2, %xindex : tensor<256xi32> loc(#loc34)
    %x0_4 = arith.remsi %xindex_3, %x0 : tensor<256xi32> loc(#loc30)
    %tmp0 = tt.splat %in_out_ptr0 : !tt.ptr<bf16> -> tensor<256x!tt.ptr<bf16>> loc(#loc35)
    %tmp0_5 = tt.addptr %tmp0, %xindex_3 : tensor<256x!tt.ptr<bf16>>, tensor<256xi32> loc(#loc35)
    %tmp0_6 = tt.load %tmp0_5 : tensor<256x!tt.ptr<bf16>> loc(#loc36)
    %tmp0_7 = arith.extf %tmp0_6 : tensor<256xbf16> to tensor<256xf32> loc(#loc37)
    %tmp1 = tt.splat %in_ptr0 : !tt.ptr<f32> -> tensor<256x!tt.ptr<f32>> loc(#loc38)
    %tmp1_8 = tt.addptr %tmp1, %x0_4 : tensor<256x!tt.ptr<f32>>, tensor<256xi32> loc(#loc38)
    %tmp1_9 = tt.load %tmp1_8 evictionPolicy = evict_last : tensor<256x!tt.ptr<f32>> loc(#loc39)
    %tmp4 = tt.splat %in_ptr1 : !tt.ptr<bf16> -> tensor<256x!tt.ptr<bf16>> loc(#loc40)
    %tmp4_10 = tt.addptr %tmp4, %xindex_3 : tensor<256x!tt.ptr<bf16>>, tensor<256xi32> loc(#loc40)
    %tmp4_11 = tt.load %tmp4_10 : tensor<256x!tt.ptr<bf16>> loc(#loc41)
    %tmp4_12 = arith.extf %tmp4_11 : tensor<256xbf16> to tensor<256xf32> loc(#loc42)
    %tmp3 = arith.addf %tmp0_7, %tmp1_9 : tensor<256xf32> loc(#loc43)
    %tmp5 = arith.addf %tmp3, %tmp4_12 : tensor<256xf32> loc(#loc44)
    %tmp7_13 = arith.subf %tmp7, %tmp5 : tensor<256xf32> loc(#loc46)
    %tmp7_14 = math.exp %tmp7_13 : tensor<256xf32> loc(#loc48)
    %tmp7_15 = arith.addf %tmp7_14, %tmp7_0 : tensor<256xf32> loc(#loc49)
    %tmp7_16 = arith.divf %tmp7_0, %tmp7_15 : tensor<256xf32> loc(#loc50)
    %tmp8 = arith.mulf %tmp5, %tmp7_16 : tensor<256xf32> loc(#loc45)
    %0 = arith.truncf %tmp8 : tensor<256xf32> to tensor<256xbf16> loc(#loc23)
    tt.store %tmp0_5, %0 : tensor<256x!tt.ptr<bf16>> loc(#loc23)
    tt.return loc(#loc24)
  } loc(#loc)
} loc(#loc)
#loc1 = loc("/home/xy/miniconda3/envs/cu128/lib/python3.12/site-packages/triton/language/standard.py":48:30)
#loc2 = loc("/mnt/g/GitHub/VAE_ca_proj/Thermal/.compile_cache/jg/cjg5bailurbhugtukckbu47iwkrbyekihetsh2ir26bdp2o7nbqa.py":32:22)
#loc3 = loc(unknown)
#loc4 = loc("/mnt/g/GitHub/VAE_ca_proj/Thermal/.compile_cache/jg/cjg5bailurbhugtukckbu47iwkrbyekihetsh2ir26bdp2o7nbqa.py":24:19)
#loc5 = loc("/mnt/g/GitHub/VAE_ca_proj/Thermal/.compile_cache/jg/cjg5bailurbhugtukckbu47iwkrbyekihetsh2ir26bdp2o7nbqa.py":20:28)
#loc6 = loc("/mnt/g/GitHub/VAE_ca_proj/Thermal/.compile_cache/jg/cjg5bailurbhugtukckbu47iwkrbyekihetsh2ir26bdp2o7nbqa.py":20:33)
#loc7 = loc("/mnt/g/GitHub/VAE_ca_proj/Thermal/.compile_cache/jg/cjg5bailurbhugtukckbu47iwkrbyekihetsh2ir26bdp2o7nbqa.py":21:36)
#loc8 = loc("/mnt/g/GitHub/VAE_ca_proj/Thermal/.compile_cache/jg/cjg5bailurbhugtukckbu47iwkrbyekihetsh2ir26bdp2o7nbqa.py":21:23)
#loc9 = loc("/mnt/g/GitHub/VAE_ca_proj/Thermal/.compile_cache/jg/cjg5bailurbhugtukckbu47iwkrbyekihetsh2ir26bdp2o7nbqa.py":25:34)
#loc10 = loc("/mnt/g/GitHub/VAE_ca_proj/Thermal/.compile_cache/jg/cjg5bailurbhugtukckbu47iwkrbyekihetsh2ir26bdp2o7nbqa.py":25:39)
#loc11 = loc("/mnt/g/GitHub/VAE_ca_proj/Thermal/.compile_cache/jg/cjg5bailurbhugtukckbu47iwkrbyekihetsh2ir26bdp2o7nbqa.py":25:48)
#loc12 = loc("/mnt/g/GitHub/VAE_ca_proj/Thermal/.compile_cache/jg/cjg5bailurbhugtukckbu47iwkrbyekihetsh2ir26bdp2o7nbqa.py":26:30)
#loc13 = loc("/mnt/g/GitHub/VAE_ca_proj/Thermal/.compile_cache/jg/cjg5bailurbhugtukckbu47iwkrbyekihetsh2ir26bdp2o7nbqa.py":26:35)
#loc14 = loc("/mnt/g/GitHub/VAE_ca_proj/Thermal/.compile_cache/jg/cjg5bailurbhugtukckbu47iwkrbyekihetsh2ir26bdp2o7nbqa.py":27:30)
#loc15 = loc("/mnt/g/GitHub/VAE_ca_proj/Thermal/.compile_cache/jg/cjg5bailurbhugtukckbu47iwkrbyekihetsh2ir26bdp2o7nbqa.py":27:35)
#loc16 = loc("/mnt/g/GitHub/VAE_ca_proj/Thermal/.compile_cache/jg/cjg5bailurbhugtukckbu47iwkrbyekihetsh2ir26bdp2o7nbqa.py":27:44)
#loc17 = loc("/mnt/g/GitHub/VAE_ca_proj/Thermal/.compile_cache/jg/cjg5bailurbhugtukckbu47iwkrbyekihetsh2ir26bdp2o7nbqa.py":29:18)
#loc18 = loc("/mnt/g/GitHub/VAE_ca_proj/Thermal/.compile_cache/jg/cjg5bailurbhugtukckbu47iwkrbyekihetsh2ir26bdp2o7nbqa.py":30:18)
#loc19 = loc("/home/xy/miniconda3/envs/cu128/lib/python3.12/site-packages/triton/language/standard.py":48:29)
#loc20 = loc("/home/xy/miniconda3/envs/cu128/lib/python3.12/site-packages/triton/language/standard.py":48:20)
#loc21 = loc("/home/xy/miniconda3/envs/cu128/lib/python3.12/site-packages/triton/language/standard.py":48:16)
#loc22 = loc("/mnt/g/GitHub/VAE_ca_proj/Thermal/.compile_cache/jg/cjg5bailurbhugtukckbu47iwkrbyekihetsh2ir26bdp2o7nbqa.py":33:18)
#loc23 = loc("/mnt/g/GitHub/VAE_ca_proj/Thermal/.compile_cache/jg/cjg5bailurbhugtukckbu47iwkrbyekihetsh2ir26bdp2o7nbqa.py":35:39)
#loc24 = loc("/mnt/g/GitHub/VAE_ca_proj/Thermal/.compile_cache/jg/cjg5bailurbhugtukckbu47iwkrbyekihetsh2ir26bdp2o7nbqa.py":35:4)
#loc29 = loc("tmp7"(#loc2))
#loc30 = loc("x0"(#loc4))
#loc31 = loc("xoffset"(#loc5))
#loc32 = loc("xoffset"(#loc6))
#loc33 = loc("xindex"(#loc7))
#loc34 = loc("xindex"(#loc8))
#loc35 = loc("tmp0"(#loc9))
#loc36 = loc("tmp0"(#loc10))
#loc37 = loc("tmp0"(#loc11))
#loc38 = loc("tmp1"(#loc12))
#loc39 = loc("tmp1"(#loc13))
#loc40 = loc("tmp4"(#loc14))
#loc41 = loc("tmp4"(#loc15))
#loc42 = loc("tmp4"(#loc16))
#loc43 = loc("tmp3"(#loc17))
#loc44 = loc("tmp5"(#loc18))
#loc45 = loc("tmp8"(#loc22))
#loc46 = loc(callsite(#loc1 at #loc29))
#loc47 = loc(callsite(#loc3 at #loc29))
#loc48 = loc(callsite(#loc19 at #loc29))
#loc49 = loc(callsite(#loc20 at #loc29))
#loc50 = loc(callsite(#loc21 at #loc29))
