#loc = loc("/mnt/g/GitHub/VAE_ca_proj/Thermal/.compile_cache/oj/cojenija6sykhbfk7goypzisajpklcn53jjegj63gigcdmhskelc.py":18:0)
#loc22 = loc("in_out_ptr0"(#loc))
#loc23 = loc("in_ptr0"(#loc))
#loc24 = loc("xnumel"(#loc))
module {
  tt.func public @triton_poi_fused__to_copy_addmm_silu_8(%in_out_ptr0: !tt.ptr<bf16> {tt.divisibility = 16 : i32} loc("in_out_ptr0"(#loc)), %in_ptr0: !tt.ptr<f32> {tt.divisibility = 16 : i32} loc("in_ptr0"(#loc)), %xnumel: i32 {tt.divisibility = 16 : i32} loc("xnumel"(#loc))) attributes {noinline = false} {
    %tmp5 = arith.constant dense<0.000000e+00> : tensor<128xf32> loc(#loc39)
    %tmp5_0 = arith.constant dense<1.000000e+00> : tensor<128xf32> loc(#loc40)
    %x0 = arith.constant dense<1024> : tensor<128xi32> loc(#loc26)
    %c128_i32 = arith.constant 128 : i32 loc(#loc3)
    %xoffset = tt.get_program_id x : i32 loc(#loc27)
    %xoffset_1 = arith.muli %xoffset, %c128_i32 : i32 loc(#loc28)
    %xindex = tt.make_range {end = 128 : i32, start = 0 : i32} : tensor<128xi32> loc(#loc29)
    %xindex_2 = tt.splat %xoffset_1 : i32 -> tensor<128xi32> loc(#loc30)
    %xindex_3 = arith.addi %xindex_2, %xindex : tensor<128xi32> loc(#loc30)
    %xmask = tt.splat %xnumel : i32 -> tensor<128xi32> loc(#loc31)
    %xmask_4 = arith.cmpi slt, %xindex_3, %xmask : tensor<128xi32> loc(#loc31)
    %x0_5 = arith.remsi %xindex_3, %x0 : tensor<128xi32> loc(#loc26)
    %tmp0 = tt.splat %in_out_ptr0 : !tt.ptr<bf16> -> tensor<128x!tt.ptr<bf16>> loc(#loc32)
    %tmp0_6 = tt.addptr %tmp0, %xindex_3 : tensor<128x!tt.ptr<bf16>>, tensor<128xi32> loc(#loc32)
    %tmp0_7 = tt.load %tmp0_6, %xmask_4 : tensor<128x!tt.ptr<bf16>> loc(#loc33)
    %tmp0_8 = arith.extf %tmp0_7 : tensor<128xbf16> to tensor<128xf32> loc(#loc34)
    %tmp1 = tt.splat %in_ptr0 : !tt.ptr<f32> -> tensor<128x!tt.ptr<f32>> loc(#loc35)
    %tmp1_9 = tt.addptr %tmp1, %x0_5 : tensor<128x!tt.ptr<f32>>, tensor<128xi32> loc(#loc35)
    %tmp1_10 = tt.load %tmp1_9, %xmask_4 evictionPolicy = evict_last : tensor<128x!tt.ptr<f32>> loc(#loc36)
    %tmp3 = arith.addf %tmp0_8, %tmp1_10 : tensor<128xf32> loc(#loc37)
    %tmp5_11 = arith.subf %tmp5, %tmp3 : tensor<128xf32> loc(#loc39)
    %tmp5_12 = math.exp %tmp5_11 : tensor<128xf32> loc(#loc41)
    %tmp5_13 = arith.addf %tmp5_12, %tmp5_0 : tensor<128xf32> loc(#loc42)
    %tmp5_14 = arith.divf %tmp5_0, %tmp5_13 : tensor<128xf32> loc(#loc43)
    %tmp6 = arith.mulf %tmp3, %tmp5_14 : tensor<128xf32> loc(#loc38)
    %0 = arith.truncf %tmp6 : tensor<128xf32> to tensor<128xbf16> loc(#loc20)
    tt.store %tmp0_6, %0, %xmask_4 : tensor<128x!tt.ptr<bf16>> loc(#loc20)
    tt.return loc(#loc21)
  } loc(#loc)
} loc(#loc)
#loc1 = loc("/home/xy/miniconda3/envs/cu128/lib/python3.12/site-packages/triton/language/standard.py":48:30)
#loc2 = loc("/mnt/g/GitHub/VAE_ca_proj/Thermal/.compile_cache/oj/cojenija6sykhbfk7goypzisajpklcn53jjegj63gigcdmhskelc.py":29:22)
#loc3 = loc(unknown)
#loc4 = loc("/mnt/g/GitHub/VAE_ca_proj/Thermal/.compile_cache/oj/cojenija6sykhbfk7goypzisajpklcn53jjegj63gigcdmhskelc.py":23:19)
#loc5 = loc("/mnt/g/GitHub/VAE_ca_proj/Thermal/.compile_cache/oj/cojenija6sykhbfk7goypzisajpklcn53jjegj63gigcdmhskelc.py":19:28)
#loc6 = loc("/mnt/g/GitHub/VAE_ca_proj/Thermal/.compile_cache/oj/cojenija6sykhbfk7goypzisajpklcn53jjegj63gigcdmhskelc.py":19:33)
#loc7 = loc("/mnt/g/GitHub/VAE_ca_proj/Thermal/.compile_cache/oj/cojenija6sykhbfk7goypzisajpklcn53jjegj63gigcdmhskelc.py":20:36)
#loc8 = loc("/mnt/g/GitHub/VAE_ca_proj/Thermal/.compile_cache/oj/cojenija6sykhbfk7goypzisajpklcn53jjegj63gigcdmhskelc.py":20:23)
#loc9 = loc("/mnt/g/GitHub/VAE_ca_proj/Thermal/.compile_cache/oj/cojenija6sykhbfk7goypzisajpklcn53jjegj63gigcdmhskelc.py":21:21)
#loc10 = loc("/mnt/g/GitHub/VAE_ca_proj/Thermal/.compile_cache/oj/cojenija6sykhbfk7goypzisajpklcn53jjegj63gigcdmhskelc.py":24:34)
#loc11 = loc("/mnt/g/GitHub/VAE_ca_proj/Thermal/.compile_cache/oj/cojenija6sykhbfk7goypzisajpklcn53jjegj63gigcdmhskelc.py":24:39)
#loc12 = loc("/mnt/g/GitHub/VAE_ca_proj/Thermal/.compile_cache/oj/cojenija6sykhbfk7goypzisajpklcn53jjegj63gigcdmhskelc.py":24:49)
#loc13 = loc("/mnt/g/GitHub/VAE_ca_proj/Thermal/.compile_cache/oj/cojenija6sykhbfk7goypzisajpklcn53jjegj63gigcdmhskelc.py":25:30)
#loc14 = loc("/mnt/g/GitHub/VAE_ca_proj/Thermal/.compile_cache/oj/cojenija6sykhbfk7goypzisajpklcn53jjegj63gigcdmhskelc.py":25:35)
#loc15 = loc("/mnt/g/GitHub/VAE_ca_proj/Thermal/.compile_cache/oj/cojenija6sykhbfk7goypzisajpklcn53jjegj63gigcdmhskelc.py":27:18)
#loc16 = loc("/home/xy/miniconda3/envs/cu128/lib/python3.12/site-packages/triton/language/standard.py":48:29)
#loc17 = loc("/home/xy/miniconda3/envs/cu128/lib/python3.12/site-packages/triton/language/standard.py":48:20)
#loc18 = loc("/home/xy/miniconda3/envs/cu128/lib/python3.12/site-packages/triton/language/standard.py":48:16)
#loc19 = loc("/mnt/g/GitHub/VAE_ca_proj/Thermal/.compile_cache/oj/cojenija6sykhbfk7goypzisajpklcn53jjegj63gigcdmhskelc.py":30:18)
#loc20 = loc("/mnt/g/GitHub/VAE_ca_proj/Thermal/.compile_cache/oj/cojenija6sykhbfk7goypzisajpklcn53jjegj63gigcdmhskelc.py":32:39)
#loc21 = loc("/mnt/g/GitHub/VAE_ca_proj/Thermal/.compile_cache/oj/cojenija6sykhbfk7goypzisajpklcn53jjegj63gigcdmhskelc.py":32:4)
#loc25 = loc("tmp5"(#loc2))
#loc26 = loc("x0"(#loc4))
#loc27 = loc("xoffset"(#loc5))
#loc28 = loc("xoffset"(#loc6))
#loc29 = loc("xindex"(#loc7))
#loc30 = loc("xindex"(#loc8))
#loc31 = loc("xmask"(#loc9))
#loc32 = loc("tmp0"(#loc10))
#loc33 = loc("tmp0"(#loc11))
#loc34 = loc("tmp0"(#loc12))
#loc35 = loc("tmp1"(#loc13))
#loc36 = loc("tmp1"(#loc14))
#loc37 = loc("tmp3"(#loc15))
#loc38 = loc("tmp6"(#loc19))
#loc39 = loc(callsite(#loc1 at #loc25))
#loc40 = loc(callsite(#loc3 at #loc25))
#loc41 = loc(callsite(#loc16 at #loc25))
#loc42 = loc(callsite(#loc17 at #loc25))
#loc43 = loc(callsite(#loc18 at #loc25))
