#loc = loc("/mnt/g/GitHub/VAE_ca_proj/Thermal/.compile_cache/m6/cm6wh2utu2lsmutgllfizc6vpefk45gyyxnmet2f72psmo6fveap.py":18:0)
#loc15 = loc("/home/xy/miniconda3/envs/cu128/lib/python3.12/site-packages/triton/language/standard.py":47:0)
#loc22 = loc("in_ptr0"(#loc))
#loc23 = loc("out_ptr0"(#loc))
#loc24 = loc("xnumel"(#loc))
#loc36 = loc("x"(#loc15))
module {
  tt.func public @triton_poi_fused_silu_3(%in_ptr0: !tt.ptr<bf16> {tt.divisibility = 16 : i32} loc("in_ptr0"(#loc)), %out_ptr0: !tt.ptr<bf16> {tt.divisibility = 16 : i32} loc("out_ptr0"(#loc)), %xnumel: i32 {tt.divisibility = 16 : i32} loc("xnumel"(#loc))) attributes {noinline = false} {
    %xnumel_0 = arith.constant 131072 : i32 loc(#loc25)
    %xoffset = tt.get_program_id x : i32 loc(#loc26)
    %xoffset_1 = arith.constant 1024 : i32 loc(#loc27)
    %xoffset_2 = arith.constant 1024 : i32 loc(#loc27)
    %xoffset_3 = arith.muli %xoffset, %xoffset_2 : i32 loc(#loc27)
    %xindex = tt.make_range {end = 1024 : i32, start = 0 : i32} : tensor<1024xi32> loc(#loc28)
    %xindex_4 = tt.splat %xoffset_3 : i32 -> tensor<1024xi32> loc(#loc29)
    %xindex_5 = arith.addi %xindex_4, %xindex : tensor<1024xi32> loc(#loc29)
    %xmask = arith.constant true loc(#loc30)
    %xmask_6 = arith.constant dense<true> : tensor<1024xi1> loc(#loc30)
    %tmp0 = tt.splat %in_ptr0 : !tt.ptr<bf16> -> tensor<1024x!tt.ptr<bf16>> loc(#loc31)
    %tmp0_7 = tt.addptr %tmp0, %xindex_5 : tensor<1024x!tt.ptr<bf16>>, tensor<1024xi32> loc(#loc31)
    %tmp0_8 = tt.load %tmp0_7 : tensor<1024x!tt.ptr<bf16>> loc(#loc32)
    %tmp0_9 = arith.extf %tmp0_8 : tensor<1024xbf16> to tensor<1024xf32> loc(#loc33)
    %tmp2 = tt.call @triton.language.standard.sigmoid__fp32S1024S__(%tmp0_9) : (tensor<1024xf32>) -> tensor<1024xf32> loc(#loc34)
    %tmp3 = arith.mulf %tmp0_9, %tmp2 : tensor<1024xf32> loc(#loc35)
    %0 = tt.splat %out_ptr0 : !tt.ptr<bf16> -> tensor<1024x!tt.ptr<bf16>> loc(#loc12)
    %1 = tt.addptr %0, %xindex_5 : tensor<1024x!tt.ptr<bf16>>, tensor<1024xi32> loc(#loc12)
    %2 = arith.truncf %tmp3 : tensor<1024xf32> to tensor<1024xbf16> loc(#loc13)
    tt.store %1, %2 : tensor<1024x!tt.ptr<bf16>> loc(#loc13)
    tt.return loc(#loc14)
  } loc(#loc)
  tt.func private @triton.language.standard.sigmoid__fp32S1024S__(%x: tensor<1024xf32> loc("x"(#loc15))) -> tensor<1024xf32> attributes {noinline = false} {
    %cst = arith.constant 0.000000e+00 : f32 loc(#loc16)
    %cst_0 = arith.constant dense<0.000000e+00> : tensor<1024xf32> loc(#loc16)
    %0 = arith.subf %cst_0, %x : tensor<1024xf32> loc(#loc16)
    %1 = math.exp %0 : tensor<1024xf32> loc(#loc17)
    %c1_i32 = arith.constant 1 : i32 loc(#loc18)
    %cst_1 = arith.constant 1.000000e+00 : f32 loc(#loc18)
    %cst_2 = arith.constant dense<1.000000e+00> : tensor<1024xf32> loc(#loc18)
    %2 = arith.addf %cst_2, %1 : tensor<1024xf32> loc(#loc18)
    %c1_i32_3 = arith.constant 1 : i32 loc(#loc19)
    %cst_4 = arith.constant 1.000000e+00 : f32 loc(#loc19)
    %cst_5 = arith.constant dense<1.000000e+00> : tensor<1024xf32> loc(#loc19)
    %3 = arith.divf %cst_5, %2 : tensor<1024xf32> loc(#loc19)
    tt.return %3 : tensor<1024xf32> loc(#loc20)
  ^bb1:  // no predecessors
    %4 = ub.poison : tensor<1024xf32> loc(#loc21)
    tt.return %4 : tensor<1024xf32> loc(#loc21)
  } loc(#loc15)
} loc(#loc)
#loc1 = loc("/mnt/g/GitHub/VAE_ca_proj/Thermal/.compile_cache/m6/cm6wh2utu2lsmutgllfizc6vpefk45gyyxnmet2f72psmo6fveap.py":19:13)
#loc2 = loc("/mnt/g/GitHub/VAE_ca_proj/Thermal/.compile_cache/m6/cm6wh2utu2lsmutgllfizc6vpefk45gyyxnmet2f72psmo6fveap.py":20:28)
#loc3 = loc("/mnt/g/GitHub/VAE_ca_proj/Thermal/.compile_cache/m6/cm6wh2utu2lsmutgllfizc6vpefk45gyyxnmet2f72psmo6fveap.py":20:33)
#loc4 = loc("/mnt/g/GitHub/VAE_ca_proj/Thermal/.compile_cache/m6/cm6wh2utu2lsmutgllfizc6vpefk45gyyxnmet2f72psmo6fveap.py":21:36)
#loc5 = loc("/mnt/g/GitHub/VAE_ca_proj/Thermal/.compile_cache/m6/cm6wh2utu2lsmutgllfizc6vpefk45gyyxnmet2f72psmo6fveap.py":21:23)
#loc6 = loc("/mnt/g/GitHub/VAE_ca_proj/Thermal/.compile_cache/m6/cm6wh2utu2lsmutgllfizc6vpefk45gyyxnmet2f72psmo6fveap.py":22:36)
#loc7 = loc("/mnt/g/GitHub/VAE_ca_proj/Thermal/.compile_cache/m6/cm6wh2utu2lsmutgllfizc6vpefk45gyyxnmet2f72psmo6fveap.py":24:30)
#loc8 = loc("/mnt/g/GitHub/VAE_ca_proj/Thermal/.compile_cache/m6/cm6wh2utu2lsmutgllfizc6vpefk45gyyxnmet2f72psmo6fveap.py":24:35)
#loc9 = loc("/mnt/g/GitHub/VAE_ca_proj/Thermal/.compile_cache/m6/cm6wh2utu2lsmutgllfizc6vpefk45gyyxnmet2f72psmo6fveap.py":24:44)
#loc10 = loc("/mnt/g/GitHub/VAE_ca_proj/Thermal/.compile_cache/m6/cm6wh2utu2lsmutgllfizc6vpefk45gyyxnmet2f72psmo6fveap.py":26:22)
#loc11 = loc("/mnt/g/GitHub/VAE_ca_proj/Thermal/.compile_cache/m6/cm6wh2utu2lsmutgllfizc6vpefk45gyyxnmet2f72psmo6fveap.py":27:18)
#loc12 = loc("/mnt/g/GitHub/VAE_ca_proj/Thermal/.compile_cache/m6/cm6wh2utu2lsmutgllfizc6vpefk45gyyxnmet2f72psmo6fveap.py":29:25)
#loc13 = loc("/mnt/g/GitHub/VAE_ca_proj/Thermal/.compile_cache/m6/cm6wh2utu2lsmutgllfizc6vpefk45gyyxnmet2f72psmo6fveap.py":29:36)
#loc14 = loc("/mnt/g/GitHub/VAE_ca_proj/Thermal/.compile_cache/m6/cm6wh2utu2lsmutgllfizc6vpefk45gyyxnmet2f72psmo6fveap.py":29:4)
#loc16 = loc("/home/xy/miniconda3/envs/cu128/lib/python3.12/site-packages/triton/language/standard.py":48:30)
#loc17 = loc("/home/xy/miniconda3/envs/cu128/lib/python3.12/site-packages/triton/language/standard.py":48:29)
#loc18 = loc("/home/xy/miniconda3/envs/cu128/lib/python3.12/site-packages/triton/language/standard.py":48:20)
#loc19 = loc("/home/xy/miniconda3/envs/cu128/lib/python3.12/site-packages/triton/language/standard.py":48:16)
#loc20 = loc("/home/xy/miniconda3/envs/cu128/lib/python3.12/site-packages/triton/language/standard.py":48:11)
#loc21 = loc("/home/xy/miniconda3/envs/cu128/lib/python3.12/site-packages/triton/language/standard.py":48:4)
#loc25 = loc("xnumel"(#loc1))
#loc26 = loc("xoffset"(#loc2))
#loc27 = loc("xoffset"(#loc3))
#loc28 = loc("xindex"(#loc4))
#loc29 = loc("xindex"(#loc5))
#loc30 = loc("xmask"(#loc6))
#loc31 = loc("tmp0"(#loc7))
#loc32 = loc("tmp0"(#loc8))
#loc33 = loc("tmp0"(#loc9))
#loc34 = loc("tmp2"(#loc10))
#loc35 = loc("tmp3"(#loc11))
