#loc = loc("./.compile_cache/mt/cmt5kq7iw3v2xkos34w5pahoukqv6iisv6ubhms4qw7txris3ykn.py":18:0)
#loc19 = loc("in_out_ptr0"(#loc))
#loc20 = loc("xnumel"(#loc))
module {
  tt.func public @triton_poi_fused__softmax_amax_mul_sub_view_32(%in_out_ptr0: !tt.ptr<f32> {tt.divisibility = 16 : i32} loc("in_out_ptr0"(#loc)), %xnumel: i32 {tt.divisibility = 16 : i32} loc("xnumel"(#loc))) attributes {noinline = false} {
    %xnumel_0 = arith.constant 20480 : i32 loc(#loc21)
    %xoffset = tt.get_program_id x : i32 loc(#loc22)
    %xoffset_1 = arith.constant 128 : i32 loc(#loc23)
    %xoffset_2 = arith.constant 128 : i32 loc(#loc23)
    %xoffset_3 = arith.muli %xoffset, %xoffset_2 : i32 loc(#loc23)
    %xindex = tt.make_range {end = 128 : i32, start = 0 : i32} : tensor<128xi32> loc(#loc24)
    %xindex_4 = tt.splat %xoffset_3 : i32 -> tensor<128xi32> loc(#loc25)
    %xindex_5 = arith.addi %xindex_4, %xindex : tensor<128xi32> loc(#loc25)
    %xmask = arith.constant true loc(#loc26)
    %xmask_6 = arith.constant dense<true> : tensor<128xi1> loc(#loc26)
    %tmp0 = tt.splat %in_out_ptr0 : !tt.ptr<f32> -> tensor<128x!tt.ptr<f32>> loc(#loc27)
    %tmp0_7 = tt.addptr %tmp0, %xindex_5 : tensor<128x!tt.ptr<f32>>, tensor<128xi32> loc(#loc27)
    %tmp0_8 = tt.load %tmp0_7 : tensor<128x!tt.ptr<f32>> loc(#loc28)
    %tmp1 = arith.constant 1.000000e+00 : f32 loc(#loc29)
    %tmp2 = arith.constant dense<1.000000e+00> : tensor<128xf32> loc(#loc30)
    %tmp2_9 = arith.mulf %tmp0_8, %tmp2 : tensor<128xf32> loc(#loc30)
    %tmp3 = arith.subf %tmp2_9, %tmp2_9 : tensor<128xf32> loc(#loc31)
    %tmp4 = arith.constant 1.250000e-01 : f32 loc(#loc32)
    %tmp5 = arith.constant dense<1.250000e-01> : tensor<128xf32> loc(#loc33)
    %tmp5_10 = arith.mulf %tmp3, %tmp5 : tensor<128xf32> loc(#loc33)
    %tmp6 = tt.extern_elementwise %tmp5_10 {libname = "", libpath = "", pure = true, symbol = "__nv_expf"} : (tensor<128xf32>) -> tensor<128xf32> loc(#loc34)
    %tmp7 = arith.divf %tmp6, %tmp6 : tensor<128xf32> loc(#loc35)
    %0 = tt.splat %in_out_ptr0 : !tt.ptr<f32> -> tensor<128x!tt.ptr<f32>> loc(#loc16)
    %1 = tt.addptr %0, %xindex_5 : tensor<128x!tt.ptr<f32>>, tensor<128xi32> loc(#loc16)
    tt.store %1, %tmp7 : tensor<128x!tt.ptr<f32>> loc(#loc17)
    tt.return loc(#loc18)
  } loc(#loc)
} loc(#loc)
#loc1 = loc("./.compile_cache/mt/cmt5kq7iw3v2xkos34w5pahoukqv6iisv6ubhms4qw7txris3ykn.py":19:13)
#loc2 = loc("./.compile_cache/mt/cmt5kq7iw3v2xkos34w5pahoukqv6iisv6ubhms4qw7txris3ykn.py":20:28)
#loc3 = loc("./.compile_cache/mt/cmt5kq7iw3v2xkos34w5pahoukqv6iisv6ubhms4qw7txris3ykn.py":20:33)
#loc4 = loc("./.compile_cache/mt/cmt5kq7iw3v2xkos34w5pahoukqv6iisv6ubhms4qw7txris3ykn.py":21:36)
#loc5 = loc("./.compile_cache/mt/cmt5kq7iw3v2xkos34w5pahoukqv6iisv6ubhms4qw7txris3ykn.py":21:23)
#loc6 = loc("./.compile_cache/mt/cmt5kq7iw3v2xkos34w5pahoukqv6iisv6ubhms4qw7txris3ykn.py":22:36)
#loc7 = loc("./.compile_cache/mt/cmt5kq7iw3v2xkos34w5pahoukqv6iisv6ubhms4qw7txris3ykn.py":24:34)
#loc8 = loc("./.compile_cache/mt/cmt5kq7iw3v2xkos34w5pahoukqv6iisv6ubhms4qw7txris3ykn.py":24:39)
#loc9 = loc("./.compile_cache/mt/cmt5kq7iw3v2xkos34w5pahoukqv6iisv6ubhms4qw7txris3ykn.py":25:11)
#loc10 = loc("./.compile_cache/mt/cmt5kq7iw3v2xkos34w5pahoukqv6iisv6ubhms4qw7txris3ykn.py":26:18)
#loc11 = loc("./.compile_cache/mt/cmt5kq7iw3v2xkos34w5pahoukqv6iisv6ubhms4qw7txris3ykn.py":27:18)
#loc12 = loc("./.compile_cache/mt/cmt5kq7iw3v2xkos34w5pahoukqv6iisv6ubhms4qw7txris3ykn.py":28:11)
#loc13 = loc("./.compile_cache/mt/cmt5kq7iw3v2xkos34w5pahoukqv6iisv6ubhms4qw7txris3ykn.py":29:18)
#loc14 = loc("./.compile_cache/mt/cmt5kq7iw3v2xkos34w5pahoukqv6iisv6ubhms4qw7txris3ykn.py":30:25)
#loc15 = loc("./.compile_cache/mt/cmt5kq7iw3v2xkos34w5pahoukqv6iisv6ubhms4qw7txris3ykn.py":31:19)
#loc16 = loc("./.compile_cache/mt/cmt5kq7iw3v2xkos34w5pahoukqv6iisv6ubhms4qw7txris3ykn.py":32:28)
#loc17 = loc("./.compile_cache/mt/cmt5kq7iw3v2xkos34w5pahoukqv6iisv6ubhms4qw7txris3ykn.py":32:39)
#loc18 = loc("./.compile_cache/mt/cmt5kq7iw3v2xkos34w5pahoukqv6iisv6ubhms4qw7txris3ykn.py":32:4)
#loc21 = loc("xnumel"(#loc1))
#loc22 = loc("xoffset"(#loc2))
#loc23 = loc("xoffset"(#loc3))
#loc24 = loc("xindex"(#loc4))
#loc25 = loc("xindex"(#loc5))
#loc26 = loc("xmask"(#loc6))
#loc27 = loc("tmp0"(#loc7))
#loc28 = loc("tmp0"(#loc8))
#loc29 = loc("tmp1"(#loc9))
#loc30 = loc("tmp2"(#loc10))
#loc31 = loc("tmp3"(#loc11))
#loc32 = loc("tmp4"(#loc12))
#loc33 = loc("tmp5"(#loc13))
#loc34 = loc("tmp6"(#loc14))
#loc35 = loc("tmp7"(#loc15))
