#loc = loc("./.compile_cache/ak/cakkdxooobn3ogruckfajfwc24zcy7vzvf7ov7hpiebnj7zyrpuu.py":18:0)
#loc27 = loc("in_ptr0"(#loc))
#loc28 = loc("in_ptr1"(#loc))
#loc29 = loc("out_ptr0"(#loc))
#loc30 = loc("xnumel"(#loc))
module {
  tt.func public @triton_poi_fused_addmm_clone_permute_select_view_46(%in_ptr0: !tt.ptr<f32> {tt.divisibility = 16 : i32} loc("in_ptr0"(#loc)), %in_ptr1: !tt.ptr<f32> {tt.divisibility = 16 : i32} loc("in_ptr1"(#loc)), %out_ptr0: !tt.ptr<f32> {tt.divisibility = 16 : i32} loc("out_ptr0"(#loc)), %xnumel: i32 {tt.divisibility = 16 : i32} loc("xnumel"(#loc))) attributes {noinline = false} {
    %tmp0 = arith.constant dense<98304> : tensor<1024xi32> loc(#loc31)
    %tmp0_0 = arith.constant dense<1536> : tensor<1024xi32> loc(#loc32)
    %cst = arith.constant dense<1024> : tensor<1024xi32> loc(#loc3)
    %x3 = arith.constant dense<32768> : tensor<1024xi32> loc(#loc33)
    %x2 = arith.constant dense<8> : tensor<1024xi32> loc(#loc34)
    %x2_1 = arith.constant dense<4096> : tensor<1024xi32> loc(#loc35)
    %cst_2 = arith.constant dense<64> : tensor<1024xi32> loc(#loc3)
    %c1024_i32 = arith.constant 1024 : i32 loc(#loc3)
    %xoffset = tt.get_program_id x : i32 loc(#loc36)
    %xoffset_3 = arith.muli %xoffset, %c1024_i32 : i32 loc(#loc37)
    %xindex = tt.make_range {end = 1024 : i32, start = 0 : i32} : tensor<1024xi32> loc(#loc38)
    %xindex_4 = tt.splat %xoffset_3 : i32 -> tensor<1024xi32> loc(#loc39)
    %xindex_5 = arith.addi %xindex_4, %xindex : tensor<1024xi32> loc(#loc39)
    %x0 = arith.remsi %xindex_5, %cst_2 : tensor<1024xi32> loc(#loc40)
    %x1 = arith.divsi %xindex_5, %cst_2 : tensor<1024xi32> loc(#loc41)
    %x1_6 = arith.remsi %x1, %cst_2 : tensor<1024xi32> loc(#loc42)
    %x2_7 = arith.divsi %xindex_5, %x2_1 : tensor<1024xi32> loc(#loc35)
    %x2_8 = arith.remsi %x2_7, %x2 : tensor<1024xi32> loc(#loc34)
    %x3_9 = arith.divsi %xindex_5, %x3 : tensor<1024xi32> loc(#loc33)
    %tmp0_10 = arith.addi %x0, %cst : tensor<1024xi32> loc(#loc43)
    %tmp0_11 = arith.muli %x2_8, %cst_2 : tensor<1024xi32> loc(#loc44)
    %tmp0_12 = arith.addi %tmp0_10, %tmp0_11 : tensor<1024xi32> loc(#loc45)
    %tmp0_13 = arith.muli %x1_6, %tmp0_0 : tensor<1024xi32> loc(#loc32)
    %tmp0_14 = arith.addi %tmp0_12, %tmp0_13 : tensor<1024xi32> loc(#loc46)
    %tmp0_15 = arith.muli %x3_9, %tmp0 : tensor<1024xi32> loc(#loc31)
    %tmp0_16 = arith.addi %tmp0_14, %tmp0_15 : tensor<1024xi32> loc(#loc47)
    %tmp0_17 = tt.splat %in_ptr0 : !tt.ptr<f32> -> tensor<1024x!tt.ptr<f32>> loc(#loc48)
    %tmp0_18 = tt.addptr %tmp0_17, %tmp0_16 : tensor<1024x!tt.ptr<f32>>, tensor<1024xi32> loc(#loc48)
    %tmp0_19 = tt.load %tmp0_18 : tensor<1024x!tt.ptr<f32>> loc(#loc49)
    %tmp1 = tt.splat %in_ptr1 : !tt.ptr<f32> -> tensor<1024x!tt.ptr<f32>> loc(#loc50)
    %tmp1_20 = tt.addptr %tmp1, %tmp0_12 : tensor<1024x!tt.ptr<f32>>, tensor<1024xi32> loc(#loc50)
    %tmp1_21 = tt.load %tmp1_20 evictionPolicy = evict_last : tensor<1024x!tt.ptr<f32>> loc(#loc51)
    %tmp2 = arith.addf %tmp0_19, %tmp1_21 : tensor<1024xf32> loc(#loc52)
    %0 = tt.splat %out_ptr0 : !tt.ptr<f32> -> tensor<1024x!tt.ptr<f32>> loc(#loc24)
    %1 = tt.addptr %0, %xindex_5 : tensor<1024x!tt.ptr<f32>>, tensor<1024xi32> loc(#loc24)
    tt.store %1, %tmp2 : tensor<1024x!tt.ptr<f32>> loc(#loc25)
    tt.return loc(#loc26)
  } loc(#loc)
} loc(#loc)
#loc1 = loc("./.compile_cache/ak/cakkdxooobn3ogruckfajfwc24zcy7vzvf7ov7hpiebnj7zyrpuu.py":28:66)
#loc2 = loc("./.compile_cache/ak/cakkdxooobn3ogruckfajfwc24zcy7vzvf7ov7hpiebnj7zyrpuu.py":28:55)
#loc3 = loc(unknown)
#loc4 = loc("./.compile_cache/ak/cakkdxooobn3ogruckfajfwc24zcy7vzvf7ov7hpiebnj7zyrpuu.py":26:19)
#loc5 = loc("./.compile_cache/ak/cakkdxooobn3ogruckfajfwc24zcy7vzvf7ov7hpiebnj7zyrpuu.py":25:29)
#loc6 = loc("./.compile_cache/ak/cakkdxooobn3ogruckfajfwc24zcy7vzvf7ov7hpiebnj7zyrpuu.py":25:21)
#loc7 = loc("./.compile_cache/ak/cakkdxooobn3ogruckfajfwc24zcy7vzvf7ov7hpiebnj7zyrpuu.py":20:28)
#loc8 = loc("./.compile_cache/ak/cakkdxooobn3ogruckfajfwc24zcy7vzvf7ov7hpiebnj7zyrpuu.py":20:33)
#loc9 = loc("./.compile_cache/ak/cakkdxooobn3ogruckfajfwc24zcy7vzvf7ov7hpiebnj7zyrpuu.py":21:36)
#loc10 = loc("./.compile_cache/ak/cakkdxooobn3ogruckfajfwc24zcy7vzvf7ov7hpiebnj7zyrpuu.py":21:23)
#loc11 = loc("./.compile_cache/ak/cakkdxooobn3ogruckfajfwc24zcy7vzvf7ov7hpiebnj7zyrpuu.py":23:19)
#loc12 = loc("./.compile_cache/ak/cakkdxooobn3ogruckfajfwc24zcy7vzvf7ov7hpiebnj7zyrpuu.py":24:21)
#loc13 = loc("./.compile_cache/ak/cakkdxooobn3ogruckfajfwc24zcy7vzvf7ov7hpiebnj7zyrpuu.py":24:27)
#loc14 = loc("./.compile_cache/ak/cakkdxooobn3ogruckfajfwc24zcy7vzvf7ov7hpiebnj7zyrpuu.py":28:37)
#loc15 = loc("./.compile_cache/ak/cakkdxooobn3ogruckfajfwc24zcy7vzvf7ov7hpiebnj7zyrpuu.py":28:45)
#loc16 = loc("./.compile_cache/ak/cakkdxooobn3ogruckfajfwc24zcy7vzvf7ov7hpiebnj7zyrpuu.py":28:42)
#loc17 = loc("./.compile_cache/ak/cakkdxooobn3ogruckfajfwc24zcy7vzvf7ov7hpiebnj7zyrpuu.py":28:50)
#loc18 = loc("./.compile_cache/ak/cakkdxooobn3ogruckfajfwc24zcy7vzvf7ov7hpiebnj7zyrpuu.py":28:60)
#loc19 = loc("./.compile_cache/ak/cakkdxooobn3ogruckfajfwc24zcy7vzvf7ov7hpiebnj7zyrpuu.py":28:30)
#loc20 = loc("./.compile_cache/ak/cakkdxooobn3ogruckfajfwc24zcy7vzvf7ov7hpiebnj7zyrpuu.py":28:71)
#loc21 = loc("./.compile_cache/ak/cakkdxooobn3ogruckfajfwc24zcy7vzvf7ov7hpiebnj7zyrpuu.py":29:30)
#loc22 = loc("./.compile_cache/ak/cakkdxooobn3ogruckfajfwc24zcy7vzvf7ov7hpiebnj7zyrpuu.py":29:50)
#loc23 = loc("./.compile_cache/ak/cakkdxooobn3ogruckfajfwc24zcy7vzvf7ov7hpiebnj7zyrpuu.py":30:18)
#loc24 = loc("./.compile_cache/ak/cakkdxooobn3ogruckfajfwc24zcy7vzvf7ov7hpiebnj7zyrpuu.py":31:25)
#loc25 = loc("./.compile_cache/ak/cakkdxooobn3ogruckfajfwc24zcy7vzvf7ov7hpiebnj7zyrpuu.py":31:36)
#loc26 = loc("./.compile_cache/ak/cakkdxooobn3ogruckfajfwc24zcy7vzvf7ov7hpiebnj7zyrpuu.py":31:4)
#loc31 = loc("tmp0"(#loc1))
#loc32 = loc("tmp0"(#loc2))
#loc33 = loc("x3"(#loc4))
#loc34 = loc("x2"(#loc5))
#loc35 = loc("x2"(#loc6))
#loc36 = loc("xoffset"(#loc7))
#loc37 = loc("xoffset"(#loc8))
#loc38 = loc("xindex"(#loc9))
#loc39 = loc("xindex"(#loc10))
#loc40 = loc("x0"(#loc11))
#loc41 = loc("x1"(#loc12))
#loc42 = loc("x1"(#loc13))
#loc43 = loc("tmp0"(#loc14))
#loc44 = loc("tmp0"(#loc15))
#loc45 = loc("tmp0"(#loc16))
#loc46 = loc("tmp0"(#loc17))
#loc47 = loc("tmp0"(#loc18))
#loc48 = loc("tmp0"(#loc19))
#loc49 = loc("tmp0"(#loc20))
#loc50 = loc("tmp1"(#loc21))
#loc51 = loc("tmp1"(#loc22))
#loc52 = loc("tmp2"(#loc23))
