#loc = loc("/mnt/g/GitHub/VAE_ca_proj/Thermal/.compile_cache/ck/cck2iw7jidu2mgtpwl3paxyaook3iig2ye7ogt4prelffp4lij7u.py":18:0)
#loc20 = loc("in_ptr0"(#loc))
#loc21 = loc("out_ptr0"(#loc))
#loc22 = loc("xnumel"(#loc))
module {
  tt.func public @triton_poi_fused__softmax__to_copy_amax_mul_sub_view_32(%in_ptr0: !tt.ptr<bf16> {tt.divisibility = 16 : i32} loc("in_ptr0"(#loc)), %out_ptr0: !tt.ptr<bf16> {tt.divisibility = 16 : i32} loc("out_ptr0"(#loc)), %xnumel: i32 {tt.divisibility = 16 : i32} loc("xnumel"(#loc))) attributes {noinline = false} {
    %xnumel_0 = arith.constant 131072 : i32 loc(#loc23)
    %xoffset = tt.get_program_id x : i32 loc(#loc24)
    %xoffset_1 = arith.constant 1024 : i32 loc(#loc25)
    %xoffset_2 = arith.constant 1024 : i32 loc(#loc25)
    %xoffset_3 = arith.muli %xoffset, %xoffset_2 : i32 loc(#loc25)
    %xindex = tt.make_range {end = 1024 : i32, start = 0 : i32} : tensor<1024xi32> loc(#loc26)
    %xindex_4 = tt.splat %xoffset_3 : i32 -> tensor<1024xi32> loc(#loc27)
    %xindex_5 = arith.addi %xindex_4, %xindex : tensor<1024xi32> loc(#loc27)
    %xmask = arith.constant true loc(#loc28)
    %xmask_6 = arith.constant dense<true> : tensor<1024xi1> loc(#loc28)
    %tmp0 = tt.splat %in_ptr0 : !tt.ptr<bf16> -> tensor<1024x!tt.ptr<bf16>> loc(#loc29)
    %tmp0_7 = tt.addptr %tmp0, %xindex_5 : tensor<1024x!tt.ptr<bf16>>, tensor<1024xi32> loc(#loc29)
    %tmp0_8 = tt.load %tmp0_7 : tensor<1024x!tt.ptr<bf16>> loc(#loc30)
    %tmp0_9 = arith.extf %tmp0_8 : tensor<1024xbf16> to tensor<1024xf32> loc(#loc31)
    %tmp2 = arith.constant 1.000000e+00 : f32 loc(#loc32)
    %tmp3 = arith.constant dense<1.000000e+00> : tensor<1024xf32> loc(#loc33)
    %tmp3_10 = arith.mulf %tmp0_9, %tmp3 : tensor<1024xf32> loc(#loc33)
    %tmp4 = arith.subf %tmp3_10, %tmp3_10 : tensor<1024xf32> loc(#loc34)
    %tmp5 = arith.constant 1.250000e-01 : f32 loc(#loc35)
    %tmp6 = arith.constant dense<1.250000e-01> : tensor<1024xf32> loc(#loc36)
    %tmp6_11 = arith.mulf %tmp4, %tmp6 : tensor<1024xf32> loc(#loc36)
    %tmp7 = tt.extern_elementwise %tmp6_11 {libname = "", libpath = "", pure = true, symbol = "__nv_expf"} : (tensor<1024xf32>) -> tensor<1024xf32> loc(#loc37)
    %tmp8 = arith.divf %tmp7, %tmp7 : tensor<1024xf32> loc(#loc38)
    %0 = tt.splat %out_ptr0 : !tt.ptr<bf16> -> tensor<1024x!tt.ptr<bf16>> loc(#loc17)
    %1 = tt.addptr %0, %xindex_5 : tensor<1024x!tt.ptr<bf16>>, tensor<1024xi32> loc(#loc17)
    %2 = arith.truncf %tmp8 : tensor<1024xf32> to tensor<1024xbf16> loc(#loc18)
    tt.store %1, %2 : tensor<1024x!tt.ptr<bf16>> loc(#loc18)
    tt.return loc(#loc19)
  } loc(#loc)
} loc(#loc)
#loc1 = loc("/mnt/g/GitHub/VAE_ca_proj/Thermal/.compile_cache/ck/cck2iw7jidu2mgtpwl3paxyaook3iig2ye7ogt4prelffp4lij7u.py":19:13)
#loc2 = loc("/mnt/g/GitHub/VAE_ca_proj/Thermal/.compile_cache/ck/cck2iw7jidu2mgtpwl3paxyaook3iig2ye7ogt4prelffp4lij7u.py":20:28)
#loc3 = loc("/mnt/g/GitHub/VAE_ca_proj/Thermal/.compile_cache/ck/cck2iw7jidu2mgtpwl3paxyaook3iig2ye7ogt4prelffp4lij7u.py":20:33)
#loc4 = loc("/mnt/g/GitHub/VAE_ca_proj/Thermal/.compile_cache/ck/cck2iw7jidu2mgtpwl3paxyaook3iig2ye7ogt4prelffp4lij7u.py":21:36)
#loc5 = loc("/mnt/g/GitHub/VAE_ca_proj/Thermal/.compile_cache/ck/cck2iw7jidu2mgtpwl3paxyaook3iig2ye7ogt4prelffp4lij7u.py":21:23)
#loc6 = loc("/mnt/g/GitHub/VAE_ca_proj/Thermal/.compile_cache/ck/cck2iw7jidu2mgtpwl3paxyaook3iig2ye7ogt4prelffp4lij7u.py":22:36)
#loc7 = loc("/mnt/g/GitHub/VAE_ca_proj/Thermal/.compile_cache/ck/cck2iw7jidu2mgtpwl3paxyaook3iig2ye7ogt4prelffp4lij7u.py":24:30)
#loc8 = loc("/mnt/g/GitHub/VAE_ca_proj/Thermal/.compile_cache/ck/cck2iw7jidu2mgtpwl3paxyaook3iig2ye7ogt4prelffp4lij7u.py":24:35)
#loc9 = loc("/mnt/g/GitHub/VAE_ca_proj/Thermal/.compile_cache/ck/cck2iw7jidu2mgtpwl3paxyaook3iig2ye7ogt4prelffp4lij7u.py":24:44)
#loc10 = loc("/mnt/g/GitHub/VAE_ca_proj/Thermal/.compile_cache/ck/cck2iw7jidu2mgtpwl3paxyaook3iig2ye7ogt4prelffp4lij7u.py":26:11)
#loc11 = loc("/mnt/g/GitHub/VAE_ca_proj/Thermal/.compile_cache/ck/cck2iw7jidu2mgtpwl3paxyaook3iig2ye7ogt4prelffp4lij7u.py":27:18)
#loc12 = loc("/mnt/g/GitHub/VAE_ca_proj/Thermal/.compile_cache/ck/cck2iw7jidu2mgtpwl3paxyaook3iig2ye7ogt4prelffp4lij7u.py":28:18)
#loc13 = loc("/mnt/g/GitHub/VAE_ca_proj/Thermal/.compile_cache/ck/cck2iw7jidu2mgtpwl3paxyaook3iig2ye7ogt4prelffp4lij7u.py":29:11)
#loc14 = loc("/mnt/g/GitHub/VAE_ca_proj/Thermal/.compile_cache/ck/cck2iw7jidu2mgtpwl3paxyaook3iig2ye7ogt4prelffp4lij7u.py":30:18)
#loc15 = loc("/mnt/g/GitHub/VAE_ca_proj/Thermal/.compile_cache/ck/cck2iw7jidu2mgtpwl3paxyaook3iig2ye7ogt4prelffp4lij7u.py":31:25)
#loc16 = loc("/mnt/g/GitHub/VAE_ca_proj/Thermal/.compile_cache/ck/cck2iw7jidu2mgtpwl3paxyaook3iig2ye7ogt4prelffp4lij7u.py":32:19)
#loc17 = loc("/mnt/g/GitHub/VAE_ca_proj/Thermal/.compile_cache/ck/cck2iw7jidu2mgtpwl3paxyaook3iig2ye7ogt4prelffp4lij7u.py":34:25)
#loc18 = loc("/mnt/g/GitHub/VAE_ca_proj/Thermal/.compile_cache/ck/cck2iw7jidu2mgtpwl3paxyaook3iig2ye7ogt4prelffp4lij7u.py":34:36)
#loc19 = loc("/mnt/g/GitHub/VAE_ca_proj/Thermal/.compile_cache/ck/cck2iw7jidu2mgtpwl3paxyaook3iig2ye7ogt4prelffp4lij7u.py":34:4)
#loc23 = loc("xnumel"(#loc1))
#loc24 = loc("xoffset"(#loc2))
#loc25 = loc("xoffset"(#loc3))
#loc26 = loc("xindex"(#loc4))
#loc27 = loc("xindex"(#loc5))
#loc28 = loc("xmask"(#loc6))
#loc29 = loc("tmp0"(#loc7))
#loc30 = loc("tmp0"(#loc8))
#loc31 = loc("tmp0"(#loc9))
#loc32 = loc("tmp2"(#loc10))
#loc33 = loc("tmp3"(#loc11))
#loc34 = loc("tmp4"(#loc12))
#loc35 = loc("tmp5"(#loc13))
#loc36 = loc("tmp6"(#loc14))
#loc37 = loc("tmp7"(#loc15))
#loc38 = loc("tmp8"(#loc16))
