#loc = loc("/mnt/g/GitHub/VAE_ca_proj/Thermal/.compile_cache/nw/cnw2bzl7jv3kkq25dhvjsiln7v7ty4jzk6pp6axj6gufusv45grk.py":18:0)
#loc28 = loc("in_out_ptr0"(#loc))
#loc29 = loc("in_ptr0"(#loc))
#loc30 = loc("in_ptr1"(#loc))
#loc31 = loc("out_ptr0"(#loc))
#loc32 = loc("xnumel"(#loc))
module {
  tt.func public @triton_poi_fused__to_copy_add_convolution_silu_26(%in_out_ptr0: !tt.ptr<bf16> {tt.divisibility = 16 : i32} loc("in_out_ptr0"(#loc)), %in_ptr0: !tt.ptr<bf16> {tt.divisibility = 16 : i32} loc("in_ptr0"(#loc)), %in_ptr1: !tt.ptr<bf16> {tt.divisibility = 16 : i32} loc("in_ptr1"(#loc)), %out_ptr0: !tt.ptr<bf16> {tt.divisibility = 16 : i32} loc("out_ptr0"(#loc)), %xnumel: i32 {tt.divisibility = 16 : i32} loc("xnumel"(#loc))) attributes {noinline = false} {
    %tmp6 = arith.constant dense<0.000000e+00> : tensor<512xf32> loc(#loc51)
    %tmp6_0 = arith.constant dense<1.000000e+00> : tensor<512xf32> loc(#loc52)
    %x0 = arith.constant dense<128> : tensor<512xi32> loc(#loc34)
    %c512_i32 = arith.constant 512 : i32 loc(#loc3)
    %xoffset = tt.get_program_id x : i32 loc(#loc35)
    %xoffset_1 = arith.muli %xoffset, %c512_i32 : i32 loc(#loc36)
    %xindex = tt.make_range {end = 512 : i32, start = 0 : i32} : tensor<512xi32> loc(#loc37)
    %xindex_2 = tt.splat %xoffset_1 : i32 -> tensor<512xi32> loc(#loc38)
    %xindex_3 = arith.addi %xindex_2, %xindex : tensor<512xi32> loc(#loc38)
    %x0_4 = arith.remsi %xindex_3, %x0 : tensor<512xi32> loc(#loc34)
    %tmp0 = tt.splat %in_out_ptr0 : !tt.ptr<bf16> -> tensor<512x!tt.ptr<bf16>> loc(#loc39)
    %tmp0_5 = tt.addptr %tmp0, %xindex_3 : tensor<512x!tt.ptr<bf16>>, tensor<512xi32> loc(#loc39)
    %tmp0_6 = tt.load %tmp0_5 : tensor<512x!tt.ptr<bf16>> loc(#loc40)
    %tmp0_7 = arith.extf %tmp0_6 : tensor<512xbf16> to tensor<512xf32> loc(#loc41)
    %tmp1 = tt.splat %in_ptr0 : !tt.ptr<bf16> -> tensor<512x!tt.ptr<bf16>> loc(#loc42)
    %tmp1_8 = tt.addptr %tmp1, %x0_4 : tensor<512x!tt.ptr<bf16>>, tensor<512xi32> loc(#loc42)
    %tmp1_9 = tt.load %tmp1_8 evictionPolicy = evict_last : tensor<512x!tt.ptr<bf16>> loc(#loc43)
    %tmp1_10 = arith.extf %tmp1_9 : tensor<512xbf16> to tensor<512xf32> loc(#loc44)
    %tmp3 = tt.splat %in_ptr1 : !tt.ptr<bf16> -> tensor<512x!tt.ptr<bf16>> loc(#loc45)
    %tmp3_11 = tt.addptr %tmp3, %xindex_3 : tensor<512x!tt.ptr<bf16>>, tensor<512xi32> loc(#loc45)
    %tmp3_12 = tt.load %tmp3_11 : tensor<512x!tt.ptr<bf16>> loc(#loc46)
    %tmp3_13 = arith.extf %tmp3_12 : tensor<512xbf16> to tensor<512xf32> loc(#loc47)
    %tmp2 = arith.addf %tmp0_7, %tmp1_10 : tensor<512xf32> loc(#loc48)
    %tmp4 = arith.addf %tmp2, %tmp3_13 : tensor<512xf32> loc(#loc49)
    %tmp6_14 = arith.subf %tmp6, %tmp4 : tensor<512xf32> loc(#loc51)
    %tmp6_15 = math.exp %tmp6_14 : tensor<512xf32> loc(#loc53)
    %tmp6_16 = arith.addf %tmp6_15, %tmp6_0 : tensor<512xf32> loc(#loc54)
    %tmp6_17 = arith.divf %tmp6_0, %tmp6_16 : tensor<512xf32> loc(#loc55)
    %tmp7 = arith.mulf %tmp4, %tmp6_17 : tensor<512xf32> loc(#loc50)
    %0 = arith.truncf %tmp2 : tensor<512xf32> to tensor<512xbf16> loc(#loc24)
    tt.store %tmp0_5, %0 : tensor<512x!tt.ptr<bf16>> loc(#loc24)
    %1 = tt.splat %out_ptr0 : !tt.ptr<bf16> -> tensor<512x!tt.ptr<bf16>> loc(#loc25)
    %2 = tt.addptr %1, %xindex_3 : tensor<512x!tt.ptr<bf16>>, tensor<512xi32> loc(#loc25)
    %3 = arith.truncf %tmp7 : tensor<512xf32> to tensor<512xbf16> loc(#loc26)
    tt.store %2, %3 : tensor<512x!tt.ptr<bf16>> loc(#loc26)
    tt.return loc(#loc27)
  } loc(#loc)
} loc(#loc)
#loc1 = loc("/home/xy/miniconda3/envs/cu128/lib/python3.12/site-packages/triton/language/standard.py":48:30)
#loc2 = loc("/mnt/g/GitHub/VAE_ca_proj/Thermal/.compile_cache/nw/cnw2bzl7jv3kkq25dhvjsiln7v7ty4jzk6pp6axj6gufusv45grk.py":31:22)
#loc3 = loc(unknown)
#loc4 = loc("/mnt/g/GitHub/VAE_ca_proj/Thermal/.compile_cache/nw/cnw2bzl7jv3kkq25dhvjsiln7v7ty4jzk6pp6axj6gufusv45grk.py":24:19)
#loc5 = loc("/mnt/g/GitHub/VAE_ca_proj/Thermal/.compile_cache/nw/cnw2bzl7jv3kkq25dhvjsiln7v7ty4jzk6pp6axj6gufusv45grk.py":20:28)
#loc6 = loc("/mnt/g/GitHub/VAE_ca_proj/Thermal/.compile_cache/nw/cnw2bzl7jv3kkq25dhvjsiln7v7ty4jzk6pp6axj6gufusv45grk.py":20:33)
#loc7 = loc("/mnt/g/GitHub/VAE_ca_proj/Thermal/.compile_cache/nw/cnw2bzl7jv3kkq25dhvjsiln7v7ty4jzk6pp6axj6gufusv45grk.py":21:36)
#loc8 = loc("/mnt/g/GitHub/VAE_ca_proj/Thermal/.compile_cache/nw/cnw2bzl7jv3kkq25dhvjsiln7v7ty4jzk6pp6axj6gufusv45grk.py":21:23)
#loc9 = loc("/mnt/g/GitHub/VAE_ca_proj/Thermal/.compile_cache/nw/cnw2bzl7jv3kkq25dhvjsiln7v7ty4jzk6pp6axj6gufusv45grk.py":25:34)
#loc10 = loc("/mnt/g/GitHub/VAE_ca_proj/Thermal/.compile_cache/nw/cnw2bzl7jv3kkq25dhvjsiln7v7ty4jzk6pp6axj6gufusv45grk.py":25:39)
#loc11 = loc("/mnt/g/GitHub/VAE_ca_proj/Thermal/.compile_cache/nw/cnw2bzl7jv3kkq25dhvjsiln7v7ty4jzk6pp6axj6gufusv45grk.py":25:48)
#loc12 = loc("/mnt/g/GitHub/VAE_ca_proj/Thermal/.compile_cache/nw/cnw2bzl7jv3kkq25dhvjsiln7v7ty4jzk6pp6axj6gufusv45grk.py":26:30)
#loc13 = loc("/mnt/g/GitHub/VAE_ca_proj/Thermal/.compile_cache/nw/cnw2bzl7jv3kkq25dhvjsiln7v7ty4jzk6pp6axj6gufusv45grk.py":26:35)
#loc14 = loc("/mnt/g/GitHub/VAE_ca_proj/Thermal/.compile_cache/nw/cnw2bzl7jv3kkq25dhvjsiln7v7ty4jzk6pp6axj6gufusv45grk.py":26:74)
#loc15 = loc("/mnt/g/GitHub/VAE_ca_proj/Thermal/.compile_cache/nw/cnw2bzl7jv3kkq25dhvjsiln7v7ty4jzk6pp6axj6gufusv45grk.py":27:30)
#loc16 = loc("/mnt/g/GitHub/VAE_ca_proj/Thermal/.compile_cache/nw/cnw2bzl7jv3kkq25dhvjsiln7v7ty4jzk6pp6axj6gufusv45grk.py":27:35)
#loc17 = loc("/mnt/g/GitHub/VAE_ca_proj/Thermal/.compile_cache/nw/cnw2bzl7jv3kkq25dhvjsiln7v7ty4jzk6pp6axj6gufusv45grk.py":27:44)
#loc18 = loc("/mnt/g/GitHub/VAE_ca_proj/Thermal/.compile_cache/nw/cnw2bzl7jv3kkq25dhvjsiln7v7ty4jzk6pp6axj6gufusv45grk.py":28:18)
#loc19 = loc("/mnt/g/GitHub/VAE_ca_proj/Thermal/.compile_cache/nw/cnw2bzl7jv3kkq25dhvjsiln7v7ty4jzk6pp6axj6gufusv45grk.py":29:18)
#loc20 = loc("/home/xy/miniconda3/envs/cu128/lib/python3.12/site-packages/triton/language/standard.py":48:29)
#loc21 = loc("/home/xy/miniconda3/envs/cu128/lib/python3.12/site-packages/triton/language/standard.py":48:20)
#loc22 = loc("/home/xy/miniconda3/envs/cu128/lib/python3.12/site-packages/triton/language/standard.py":48:16)
#loc23 = loc("/mnt/g/GitHub/VAE_ca_proj/Thermal/.compile_cache/nw/cnw2bzl7jv3kkq25dhvjsiln7v7ty4jzk6pp6axj6gufusv45grk.py":32:18)
#loc24 = loc("/mnt/g/GitHub/VAE_ca_proj/Thermal/.compile_cache/nw/cnw2bzl7jv3kkq25dhvjsiln7v7ty4jzk6pp6axj6gufusv45grk.py":34:39)
#loc25 = loc("/mnt/g/GitHub/VAE_ca_proj/Thermal/.compile_cache/nw/cnw2bzl7jv3kkq25dhvjsiln7v7ty4jzk6pp6axj6gufusv45grk.py":35:25)
#loc26 = loc("/mnt/g/GitHub/VAE_ca_proj/Thermal/.compile_cache/nw/cnw2bzl7jv3kkq25dhvjsiln7v7ty4jzk6pp6axj6gufusv45grk.py":35:36)
#loc27 = loc("/mnt/g/GitHub/VAE_ca_proj/Thermal/.compile_cache/nw/cnw2bzl7jv3kkq25dhvjsiln7v7ty4jzk6pp6axj6gufusv45grk.py":35:4)
#loc33 = loc("tmp6"(#loc2))
#loc34 = loc("x0"(#loc4))
#loc35 = loc("xoffset"(#loc5))
#loc36 = loc("xoffset"(#loc6))
#loc37 = loc("xindex"(#loc7))
#loc38 = loc("xindex"(#loc8))
#loc39 = loc("tmp0"(#loc9))
#loc40 = loc("tmp0"(#loc10))
#loc41 = loc("tmp0"(#loc11))
#loc42 = loc("tmp1"(#loc12))
#loc43 = loc("tmp1"(#loc13))
#loc44 = loc("tmp1"(#loc14))
#loc45 = loc("tmp3"(#loc15))
#loc46 = loc("tmp3"(#loc16))
#loc47 = loc("tmp3"(#loc17))
#loc48 = loc("tmp2"(#loc18))
#loc49 = loc("tmp4"(#loc19))
#loc50 = loc("tmp7"(#loc23))
#loc51 = loc(callsite(#loc1 at #loc33))
#loc52 = loc(callsite(#loc3 at #loc33))
#loc53 = loc(callsite(#loc20 at #loc33))
#loc54 = loc(callsite(#loc21 at #loc33))
#loc55 = loc(callsite(#loc22 at #loc33))
