#loc = loc("./.compile_cache/v5/cv53llgr3hhqlwscdodjejrblclbijpjr3k4aio4efdkc4m7bvbv.py":18:0)
#loc76 = loc("/home/xy/miniconda3/envs/cu128/lib/python3.12/site-packages/triton/language/standard.py":47:0)
#loc83 = loc("in_out_ptr0"(#loc))
#loc84 = loc("in_out_ptr1"(#loc))
#loc85 = loc("in_ptr0"(#loc))
#loc86 = loc("in_ptr1"(#loc))
#loc87 = loc("in_ptr2"(#loc))
#loc88 = loc("in_ptr3"(#loc))
#loc89 = loc("in_ptr4"(#loc))
#loc90 = loc("in_ptr5"(#loc))
#loc91 = loc("in_ptr6"(#loc))
#loc92 = loc("in_ptr7"(#loc))
#loc93 = loc("in_ptr8"(#loc))
#loc94 = loc("xnumel"(#loc))
#loc165 = loc("x"(#loc76))
module {
  tt.func public @triton_poi_fused_add_convolution_native_group_norm_silu_split_with_sizes_view_67(%in_out_ptr0: !tt.ptr<f32> {tt.divisibility = 16 : i32} loc("in_out_ptr0"(#loc)), %in_out_ptr1: !tt.ptr<f32> {tt.divisibility = 16 : i32} loc("in_out_ptr1"(#loc)), %in_ptr0: !tt.ptr<f32> {tt.divisibility = 16 : i32} loc("in_ptr0"(#loc)), %in_ptr1: !tt.ptr<f32> {tt.divisibility = 16 : i32} loc("in_ptr1"(#loc)), %in_ptr2: !tt.ptr<f32> {tt.divisibility = 16 : i32} loc("in_ptr2"(#loc)), %in_ptr3: !tt.ptr<f32> {tt.divisibility = 16 : i32} loc("in_ptr3"(#loc)), %in_ptr4: !tt.ptr<f32> {tt.divisibility = 16 : i32} loc("in_ptr4"(#loc)), %in_ptr5: !tt.ptr<f32> {tt.divisibility = 16 : i32} loc("in_ptr5"(#loc)), %in_ptr6: !tt.ptr<f32> {tt.divisibility = 16 : i32} loc("in_ptr6"(#loc)), %in_ptr7: !tt.ptr<f32> {tt.divisibility = 16 : i32} loc("in_ptr7"(#loc)), %in_ptr8: !tt.ptr<f32> {tt.divisibility = 16 : i32} loc("in_ptr8"(#loc)), %xnumel: i32 {tt.divisibility = 16 : i32} loc("xnumel"(#loc))) attributes {noinline = false} {
    %xnumel_0 = arith.constant 786432 : i32 loc(#loc95)
    %xoffset = tt.get_program_id x : i32 loc(#loc96)
    %xoffset_1 = arith.constant 512 : i32 loc(#loc97)
    %xoffset_2 = arith.constant 512 : i32 loc(#loc97)
    %xoffset_3 = arith.muli %xoffset, %xoffset_2 : i32 loc(#loc97)
    %xindex = tt.make_range {end = 512 : i32, start = 0 : i32} : tensor<512xi32> loc(#loc98)
    %xindex_4 = tt.splat %xoffset_3 : i32 -> tensor<512xi32> loc(#loc99)
    %xindex_5 = arith.addi %xindex_4, %xindex : tensor<512xi32> loc(#loc99)
    %xmask = arith.constant true loc(#loc100)
    %xmask_6 = arith.constant dense<true> : tensor<512xi1> loc(#loc100)
    %x0 = arith.constant 128 : i32 loc(#loc101)
    %x0_7 = arith.constant 128 : i32 loc(#loc101)
    %x0_8 = arith.constant dense<128> : tensor<512xi32> loc(#loc101)
    %x0_9 = arith.remsi %xindex_5, %x0_8 : tensor<512xi32> loc(#loc101)
    %x2 = arith.constant 131072 : i32 loc(#loc102)
    %x2_10 = arith.constant 131072 : i32 loc(#loc102)
    %x2_11 = arith.constant dense<131072> : tensor<512xi32> loc(#loc102)
    %x2_12 = arith.divsi %xindex_5, %x2_11 : tensor<512xi32> loc(#loc102)
    %tmp0 = tt.splat %in_out_ptr0 : !tt.ptr<f32> -> tensor<512x!tt.ptr<f32>> loc(#loc103)
    %tmp0_13 = tt.addptr %tmp0, %xindex_5 : tensor<512x!tt.ptr<f32>>, tensor<512xi32> loc(#loc103)
    %tmp0_14 = tt.load %tmp0_13 : tensor<512x!tt.ptr<f32>> loc(#loc104)
    %tmp1 = tt.splat %in_ptr0 : !tt.ptr<f32> -> tensor<512x!tt.ptr<f32>> loc(#loc105)
    %tmp1_15 = tt.addptr %tmp1, %x0_9 : tensor<512x!tt.ptr<f32>>, tensor<512xi32> loc(#loc105)
    %tmp1_16 = tt.load %tmp1_15 evictionPolicy = evict_last : tensor<512x!tt.ptr<f32>> loc(#loc106)
    %tmp3 = tt.splat %in_ptr1 : !tt.ptr<f32> -> tensor<512x!tt.ptr<f32>> loc(#loc107)
    %tmp3_17 = tt.addptr %tmp3, %xindex_5 : tensor<512x!tt.ptr<f32>>, tensor<512xi32> loc(#loc107)
    %tmp3_18 = tt.load %tmp3_17 : tensor<512x!tt.ptr<f32>> loc(#loc108)
    %tmp7 = arith.constant 32 : i32 loc(#loc109)
    %tmp7_19 = arith.constant 32 : i32 loc(#loc109)
    %tmp7_20 = arith.constant dense<32> : tensor<512xi32> loc(#loc109)
    %tmp7_21 = arith.muli %tmp7_20, %x2_12 : tensor<512xi32> loc(#loc109)
    %tmp7_22 = arith.constant 4 : i32 loc(#loc110)
    %tmp7_23 = arith.constant 4 : i32 loc(#loc110)
    %tmp7_24 = arith.constant dense<4> : tensor<512xi32> loc(#loc110)
    %tmp7_25 = arith.divsi %x0_9, %tmp7_24 : tensor<512xi32> loc(#loc110)
    %tmp7_26 = arith.addi %tmp7_21, %tmp7_25 : tensor<512xi32> loc(#loc111)
    %tmp7_27 = tt.splat %in_ptr2 : !tt.ptr<f32> -> tensor<512x!tt.ptr<f32>> loc(#loc112)
    %tmp7_28 = tt.addptr %tmp7_27, %tmp7_26 : tensor<512x!tt.ptr<f32>>, tensor<512xi32> loc(#loc112)
    %tmp7_29 = tt.load %tmp7_28 evictionPolicy = evict_last : tensor<512x!tt.ptr<f32>> loc(#loc113)
    %tmp9 = arith.constant 32 : i32 loc(#loc114)
    %tmp9_30 = arith.constant 32 : i32 loc(#loc114)
    %tmp9_31 = arith.constant dense<32> : tensor<512xi32> loc(#loc114)
    %tmp9_32 = arith.muli %tmp9_31, %x2_12 : tensor<512xi32> loc(#loc114)
    %tmp9_33 = arith.constant 4 : i32 loc(#loc115)
    %tmp9_34 = arith.constant 4 : i32 loc(#loc115)
    %tmp9_35 = arith.constant dense<4> : tensor<512xi32> loc(#loc115)
    %tmp9_36 = arith.divsi %x0_9, %tmp9_35 : tensor<512xi32> loc(#loc115)
    %tmp9_37 = arith.addi %tmp9_32, %tmp9_36 : tensor<512xi32> loc(#loc116)
    %tmp9_38 = tt.splat %in_ptr3 : !tt.ptr<f32> -> tensor<512x!tt.ptr<f32>> loc(#loc117)
    %tmp9_39 = tt.addptr %tmp9_38, %tmp9_37 : tensor<512x!tt.ptr<f32>>, tensor<512xi32> loc(#loc117)
    %tmp9_40 = tt.load %tmp9_39 evictionPolicy = evict_last : tensor<512x!tt.ptr<f32>> loc(#loc118)
    %tmp16 = tt.splat %in_ptr4 : !tt.ptr<f32> -> tensor<512x!tt.ptr<f32>> loc(#loc119)
    %tmp16_41 = tt.addptr %tmp16, %x0_9 : tensor<512x!tt.ptr<f32>>, tensor<512xi32> loc(#loc119)
    %tmp16_42 = tt.load %tmp16_41 evictionPolicy = evict_last : tensor<512x!tt.ptr<f32>> loc(#loc120)
    %tmp18 = tt.splat %in_ptr5 : !tt.ptr<f32> -> tensor<512x!tt.ptr<f32>> loc(#loc121)
    %tmp18_43 = tt.addptr %tmp18, %x0_9 : tensor<512x!tt.ptr<f32>>, tensor<512xi32> loc(#loc121)
    %tmp18_44 = tt.load %tmp18_43 evictionPolicy = evict_last : tensor<512x!tt.ptr<f32>> loc(#loc122)
    %tmp22 = tt.splat %in_out_ptr1 : !tt.ptr<f32> -> tensor<512x!tt.ptr<f32>> loc(#loc123)
    %tmp22_45 = tt.addptr %tmp22, %xindex_5 : tensor<512x!tt.ptr<f32>>, tensor<512xi32> loc(#loc123)
    %tmp22_46 = tt.load %tmp22_45 : tensor<512x!tt.ptr<f32>> loc(#loc124)
    %tmp24 = tt.splat %in_ptr6 : !tt.ptr<f32> -> tensor<512x!tt.ptr<f32>> loc(#loc125)
    %tmp24_47 = tt.addptr %tmp24, %xindex_5 : tensor<512x!tt.ptr<f32>>, tensor<512xi32> loc(#loc125)
    %tmp24_48 = tt.load %tmp24_47 : tensor<512x!tt.ptr<f32>> loc(#loc126)
    %tmp28 = arith.constant 32 : i32 loc(#loc127)
    %tmp28_49 = arith.constant 32 : i32 loc(#loc127)
    %tmp28_50 = arith.constant dense<32> : tensor<512xi32> loc(#loc127)
    %tmp28_51 = arith.muli %tmp28_50, %x2_12 : tensor<512xi32> loc(#loc127)
    %tmp28_52 = arith.constant 4 : i32 loc(#loc128)
    %tmp28_53 = arith.constant 4 : i32 loc(#loc128)
    %tmp28_54 = arith.constant dense<4> : tensor<512xi32> loc(#loc128)
    %tmp28_55 = arith.divsi %x0_9, %tmp28_54 : tensor<512xi32> loc(#loc128)
    %tmp28_56 = arith.addi %tmp28_51, %tmp28_55 : tensor<512xi32> loc(#loc129)
    %tmp28_57 = tt.splat %in_ptr7 : !tt.ptr<f32> -> tensor<512x!tt.ptr<f32>> loc(#loc130)
    %tmp28_58 = tt.addptr %tmp28_57, %tmp28_56 : tensor<512x!tt.ptr<f32>>, tensor<512xi32> loc(#loc130)
    %tmp28_59 = tt.load %tmp28_58 evictionPolicy = evict_last : tensor<512x!tt.ptr<f32>> loc(#loc131)
    %tmp30 = arith.constant 32 : i32 loc(#loc132)
    %tmp30_60 = arith.constant 32 : i32 loc(#loc132)
    %tmp30_61 = arith.constant dense<32> : tensor<512xi32> loc(#loc132)
    %tmp30_62 = arith.muli %tmp30_61, %x2_12 : tensor<512xi32> loc(#loc132)
    %tmp30_63 = arith.constant 4 : i32 loc(#loc133)
    %tmp30_64 = arith.constant 4 : i32 loc(#loc133)
    %tmp30_65 = arith.constant dense<4> : tensor<512xi32> loc(#loc133)
    %tmp30_66 = arith.divsi %x0_9, %tmp30_65 : tensor<512xi32> loc(#loc133)
    %tmp30_67 = arith.addi %tmp30_62, %tmp30_66 : tensor<512xi32> loc(#loc134)
    %tmp30_68 = tt.splat %in_ptr8 : !tt.ptr<f32> -> tensor<512x!tt.ptr<f32>> loc(#loc135)
    %tmp30_69 = tt.addptr %tmp30_68, %tmp30_67 : tensor<512x!tt.ptr<f32>>, tensor<512xi32> loc(#loc135)
    %tmp30_70 = tt.load %tmp30_69 evictionPolicy = evict_last : tensor<512x!tt.ptr<f32>> loc(#loc136)
    %tmp2 = arith.addf %tmp0_14, %tmp1_16 : tensor<512xf32> loc(#loc137)
    %tmp4 = arith.addf %tmp2, %tmp3_18 : tensor<512xf32> loc(#loc138)
    %tmp5 = tt.call @triton.language.standard.sigmoid__fp32S512S__(%tmp4) : (tensor<512xf32>) -> tensor<512xf32> loc(#loc139)
    %tmp6 = arith.mulf %tmp4, %tmp5 : tensor<512xf32> loc(#loc140)
    %tmp8 = arith.subf %tmp6, %tmp7_29 : tensor<512xf32> loc(#loc141)
    %tmp10 = arith.constant 4.096000e+03 : f32 loc(#loc142)
    %tmp11 = arith.constant dense<4.096000e+03> : tensor<512xf32> loc(#loc143)
    %tmp11_71 = arith.divf %tmp9_40, %tmp11 : tensor<512xf32> loc(#loc143)
    %tmp12 = arith.constant 9.99999974E-6 : f32 loc(#loc144)
    %tmp13 = arith.constant dense<9.99999974E-6> : tensor<512xf32> loc(#loc145)
    %tmp13_72 = arith.addf %tmp11_71, %tmp13 : tensor<512xf32> loc(#loc145)
    %tmp14 = tt.extern_elementwise %tmp13_72 {libname = "", libpath = "", pure = true, symbol = "__nv_rsqrtf"} : (tensor<512xf32>) -> tensor<512xf32> loc(#loc146)
    %tmp15 = arith.mulf %tmp8, %tmp14 : tensor<512xf32> loc(#loc147)
    %tmp17 = arith.mulf %tmp15, %tmp16_42 : tensor<512xf32> loc(#loc148)
    %tmp19 = arith.addf %tmp17, %tmp18_44 : tensor<512xf32> loc(#loc149)
    %tmp20 = tt.call @triton.language.standard.sigmoid__fp32S512S__(%tmp19) : (tensor<512xf32>) -> tensor<512xf32> loc(#loc150)
    %tmp21 = arith.mulf %tmp19, %tmp20 : tensor<512xf32> loc(#loc151)
    %tmp23 = arith.addf %tmp22_46, %tmp1_16 : tensor<512xf32> loc(#loc152)
    %tmp25 = arith.addf %tmp23, %tmp24_48 : tensor<512xf32> loc(#loc153)
    %tmp26 = tt.call @triton.language.standard.sigmoid__fp32S512S__(%tmp25) : (tensor<512xf32>) -> tensor<512xf32> loc(#loc154)
    %tmp27 = arith.mulf %tmp25, %tmp26 : tensor<512xf32> loc(#loc155)
    %tmp29 = arith.subf %tmp27, %tmp28_59 : tensor<512xf32> loc(#loc156)
    %tmp31 = arith.constant dense<4.096000e+03> : tensor<512xf32> loc(#loc157)
    %tmp31_73 = arith.divf %tmp30_70, %tmp31 : tensor<512xf32> loc(#loc157)
    %tmp32 = arith.constant dense<9.99999974E-6> : tensor<512xf32> loc(#loc158)
    %tmp32_74 = arith.addf %tmp31_73, %tmp32 : tensor<512xf32> loc(#loc158)
    %tmp33 = tt.extern_elementwise %tmp32_74 {libname = "", libpath = "", pure = true, symbol = "__nv_rsqrtf"} : (tensor<512xf32>) -> tensor<512xf32> loc(#loc159)
    %tmp34 = arith.mulf %tmp29, %tmp33 : tensor<512xf32> loc(#loc160)
    %tmp35 = arith.mulf %tmp34, %tmp16_42 : tensor<512xf32> loc(#loc161)
    %tmp36 = arith.addf %tmp35, %tmp18_44 : tensor<512xf32> loc(#loc162)
    %tmp37 = tt.call @triton.language.standard.sigmoid__fp32S512S__(%tmp36) : (tensor<512xf32>) -> tensor<512xf32> loc(#loc163)
    %tmp38 = arith.mulf %tmp36, %tmp37 : tensor<512xf32> loc(#loc164)
    %0 = tt.splat %in_out_ptr0 : !tt.ptr<f32> -> tensor<512x!tt.ptr<f32>> loc(#loc71)
    %1 = tt.addptr %0, %xindex_5 : tensor<512x!tt.ptr<f32>>, tensor<512xi32> loc(#loc71)
    tt.store %1, %tmp21 : tensor<512x!tt.ptr<f32>> loc(#loc72)
    %2 = tt.splat %in_out_ptr1 : !tt.ptr<f32> -> tensor<512x!tt.ptr<f32>> loc(#loc73)
    %3 = tt.addptr %2, %xindex_5 : tensor<512x!tt.ptr<f32>>, tensor<512xi32> loc(#loc73)
    tt.store %3, %tmp38 : tensor<512x!tt.ptr<f32>> loc(#loc74)
    tt.return loc(#loc75)
  } loc(#loc)
  tt.func private @triton.language.standard.sigmoid__fp32S512S__(%x: tensor<512xf32> loc("x"(#loc76))) -> tensor<512xf32> attributes {noinline = false} {
    %cst = arith.constant 0.000000e+00 : f32 loc(#loc77)
    %cst_0 = arith.constant dense<0.000000e+00> : tensor<512xf32> loc(#loc77)
    %0 = arith.subf %cst_0, %x : tensor<512xf32> loc(#loc77)
    %1 = math.exp %0 : tensor<512xf32> loc(#loc78)
    %c1_i32 = arith.constant 1 : i32 loc(#loc79)
    %cst_1 = arith.constant 1.000000e+00 : f32 loc(#loc79)
    %cst_2 = arith.constant dense<1.000000e+00> : tensor<512xf32> loc(#loc79)
    %2 = arith.addf %cst_2, %1 : tensor<512xf32> loc(#loc79)
    %c1_i32_3 = arith.constant 1 : i32 loc(#loc80)
    %cst_4 = arith.constant 1.000000e+00 : f32 loc(#loc80)
    %cst_5 = arith.constant dense<1.000000e+00> : tensor<512xf32> loc(#loc80)
    %3 = arith.divf %cst_5, %2 : tensor<512xf32> loc(#loc80)
    tt.return %3 : tensor<512xf32> loc(#loc81)
  ^bb1:  // no predecessors
    %4 = ub.poison : tensor<512xf32> loc(#loc82)
    tt.return %4 : tensor<512xf32> loc(#loc82)
  } loc(#loc76)
} loc(#loc)
#loc1 = loc("./.compile_cache/v5/cv53llgr3hhqlwscdodjejrblclbijpjr3k4aio4efdkc4m7bvbv.py":19:13)
#loc2 = loc("./.compile_cache/v5/cv53llgr3hhqlwscdodjejrblclbijpjr3k4aio4efdkc4m7bvbv.py":20:28)
#loc3 = loc("./.compile_cache/v5/cv53llgr3hhqlwscdodjejrblclbijpjr3k4aio4efdkc4m7bvbv.py":20:33)
#loc4 = loc("./.compile_cache/v5/cv53llgr3hhqlwscdodjejrblclbijpjr3k4aio4efdkc4m7bvbv.py":21:36)
#loc5 = loc("./.compile_cache/v5/cv53llgr3hhqlwscdodjejrblclbijpjr3k4aio4efdkc4m7bvbv.py":21:23)
#loc6 = loc("./.compile_cache/v5/cv53llgr3hhqlwscdodjejrblclbijpjr3k4aio4efdkc4m7bvbv.py":22:36)
#loc7 = loc("./.compile_cache/v5/cv53llgr3hhqlwscdodjejrblclbijpjr3k4aio4efdkc4m7bvbv.py":24:19)
#loc8 = loc("./.compile_cache/v5/cv53llgr3hhqlwscdodjejrblclbijpjr3k4aio4efdkc4m7bvbv.py":25:19)
#loc9 = loc("./.compile_cache/v5/cv53llgr3hhqlwscdodjejrblclbijpjr3k4aio4efdkc4m7bvbv.py":26:34)
#loc10 = loc("./.compile_cache/v5/cv53llgr3hhqlwscdodjejrblclbijpjr3k4aio4efdkc4m7bvbv.py":26:39)
#loc11 = loc("./.compile_cache/v5/cv53llgr3hhqlwscdodjejrblclbijpjr3k4aio4efdkc4m7bvbv.py":27:30)
#loc12 = loc("./.compile_cache/v5/cv53llgr3hhqlwscdodjejrblclbijpjr3k4aio4efdkc4m7bvbv.py":27:35)
#loc13 = loc("./.compile_cache/v5/cv53llgr3hhqlwscdodjejrblclbijpjr3k4aio4efdkc4m7bvbv.py":28:30)
#loc14 = loc("./.compile_cache/v5/cv53llgr3hhqlwscdodjejrblclbijpjr3k4aio4efdkc4m7bvbv.py":28:35)
#loc15 = loc("./.compile_cache/v5/cv53llgr3hhqlwscdodjejrblclbijpjr3k4aio4efdkc4m7bvbv.py":29:33)
#loc16 = loc("./.compile_cache/v5/cv53llgr3hhqlwscdodjejrblclbijpjr3k4aio4efdkc4m7bvbv.py":29:45)
#loc17 = loc("./.compile_cache/v5/cv53llgr3hhqlwscdodjejrblclbijpjr3k4aio4efdkc4m7bvbv.py":29:39)
#loc18 = loc("./.compile_cache/v5/cv53llgr3hhqlwscdodjejrblclbijpjr3k4aio4efdkc4m7bvbv.py":29:30)
#loc19 = loc("./.compile_cache/v5/cv53llgr3hhqlwscdodjejrblclbijpjr3k4aio4efdkc4m7bvbv.py":29:50)
#loc20 = loc("./.compile_cache/v5/cv53llgr3hhqlwscdodjejrblclbijpjr3k4aio4efdkc4m7bvbv.py":30:33)
#loc21 = loc("./.compile_cache/v5/cv53llgr3hhqlwscdodjejrblclbijpjr3k4aio4efdkc4m7bvbv.py":30:45)
#loc22 = loc("./.compile_cache/v5/cv53llgr3hhqlwscdodjejrblclbijpjr3k4aio4efdkc4m7bvbv.py":30:39)
#loc23 = loc("./.compile_cache/v5/cv53llgr3hhqlwscdodjejrblclbijpjr3k4aio4efdkc4m7bvbv.py":30:30)
#loc24 = loc("./.compile_cache/v5/cv53llgr3hhqlwscdodjejrblclbijpjr3k4aio4efdkc4m7bvbv.py":30:50)
#loc25 = loc("./.compile_cache/v5/cv53llgr3hhqlwscdodjejrblclbijpjr3k4aio4efdkc4m7bvbv.py":31:31)
#loc26 = loc("./.compile_cache/v5/cv53llgr3hhqlwscdodjejrblclbijpjr3k4aio4efdkc4m7bvbv.py":31:36)
#loc27 = loc("./.compile_cache/v5/cv53llgr3hhqlwscdodjejrblclbijpjr3k4aio4efdkc4m7bvbv.py":32:31)
#loc28 = loc("./.compile_cache/v5/cv53llgr3hhqlwscdodjejrblclbijpjr3k4aio4efdkc4m7bvbv.py":32:36)
#loc29 = loc("./.compile_cache/v5/cv53llgr3hhqlwscdodjejrblclbijpjr3k4aio4efdkc4m7bvbv.py":33:35)
#loc30 = loc("./.compile_cache/v5/cv53llgr3hhqlwscdodjejrblclbijpjr3k4aio4efdkc4m7bvbv.py":33:40)
#loc31 = loc("./.compile_cache/v5/cv53llgr3hhqlwscdodjejrblclbijpjr3k4aio4efdkc4m7bvbv.py":34:31)
#loc32 = loc("./.compile_cache/v5/cv53llgr3hhqlwscdodjejrblclbijpjr3k4aio4efdkc4m7bvbv.py":34:36)
#loc33 = loc("./.compile_cache/v5/cv53llgr3hhqlwscdodjejrblclbijpjr3k4aio4efdkc4m7bvbv.py":35:34)
#loc34 = loc("./.compile_cache/v5/cv53llgr3hhqlwscdodjejrblclbijpjr3k4aio4efdkc4m7bvbv.py":35:46)
#loc35 = loc("./.compile_cache/v5/cv53llgr3hhqlwscdodjejrblclbijpjr3k4aio4efdkc4m7bvbv.py":35:40)
#loc36 = loc("./.compile_cache/v5/cv53llgr3hhqlwscdodjejrblclbijpjr3k4aio4efdkc4m7bvbv.py":35:31)
#loc37 = loc("./.compile_cache/v5/cv53llgr3hhqlwscdodjejrblclbijpjr3k4aio4efdkc4m7bvbv.py":35:51)
#loc38 = loc("./.compile_cache/v5/cv53llgr3hhqlwscdodjejrblclbijpjr3k4aio4efdkc4m7bvbv.py":36:34)
#loc39 = loc("./.compile_cache/v5/cv53llgr3hhqlwscdodjejrblclbijpjr3k4aio4efdkc4m7bvbv.py":36:46)
#loc40 = loc("./.compile_cache/v5/cv53llgr3hhqlwscdodjejrblclbijpjr3k4aio4efdkc4m7bvbv.py":36:40)
#loc41 = loc("./.compile_cache/v5/cv53llgr3hhqlwscdodjejrblclbijpjr3k4aio4efdkc4m7bvbv.py":36:31)
#loc42 = loc("./.compile_cache/v5/cv53llgr3hhqlwscdodjejrblclbijpjr3k4aio4efdkc4m7bvbv.py":36:51)
#loc43 = loc("./.compile_cache/v5/cv53llgr3hhqlwscdodjejrblclbijpjr3k4aio4efdkc4m7bvbv.py":37:18)
#loc44 = loc("./.compile_cache/v5/cv53llgr3hhqlwscdodjejrblclbijpjr3k4aio4efdkc4m7bvbv.py":38:18)
#loc45 = loc("./.compile_cache/v5/cv53llgr3hhqlwscdodjejrblclbijpjr3k4aio4efdkc4m7bvbv.py":39:22)
#loc46 = loc("./.compile_cache/v5/cv53llgr3hhqlwscdodjejrblclbijpjr3k4aio4efdkc4m7bvbv.py":40:18)
#loc47 = loc("./.compile_cache/v5/cv53llgr3hhqlwscdodjejrblclbijpjr3k4aio4efdkc4m7bvbv.py":41:18)
#loc48 = loc("./.compile_cache/v5/cv53llgr3hhqlwscdodjejrblclbijpjr3k4aio4efdkc4m7bvbv.py":42:12)
#loc49 = loc("./.compile_cache/v5/cv53llgr3hhqlwscdodjejrblclbijpjr3k4aio4efdkc4m7bvbv.py":43:20)
#loc50 = loc("./.compile_cache/v5/cv53llgr3hhqlwscdodjejrblclbijpjr3k4aio4efdkc4m7bvbv.py":44:12)
#loc51 = loc("./.compile_cache/v5/cv53llgr3hhqlwscdodjejrblclbijpjr3k4aio4efdkc4m7bvbv.py":45:20)
#loc52 = loc("./.compile_cache/v5/cv53llgr3hhqlwscdodjejrblclbijpjr3k4aio4efdkc4m7bvbv.py":46:28)
#loc53 = loc("./.compile_cache/v5/cv53llgr3hhqlwscdodjejrblclbijpjr3k4aio4efdkc4m7bvbv.py":47:19)
#loc54 = loc("./.compile_cache/v5/cv53llgr3hhqlwscdodjejrblclbijpjr3k4aio4efdkc4m7bvbv.py":48:20)
#loc55 = loc("./.compile_cache/v5/cv53llgr3hhqlwscdodjejrblclbijpjr3k4aio4efdkc4m7bvbv.py":49:20)
#loc56 = loc("./.compile_cache/v5/cv53llgr3hhqlwscdodjejrblclbijpjr3k4aio4efdkc4m7bvbv.py":50:23)
#loc57 = loc("./.compile_cache/v5/cv53llgr3hhqlwscdodjejrblclbijpjr3k4aio4efdkc4m7bvbv.py":51:20)
#loc58 = loc("./.compile_cache/v5/cv53llgr3hhqlwscdodjejrblclbijpjr3k4aio4efdkc4m7bvbv.py":52:20)
#loc59 = loc("./.compile_cache/v5/cv53llgr3hhqlwscdodjejrblclbijpjr3k4aio4efdkc4m7bvbv.py":53:20)
#loc60 = loc("./.compile_cache/v5/cv53llgr3hhqlwscdodjejrblclbijpjr3k4aio4efdkc4m7bvbv.py":54:23)
#loc61 = loc("./.compile_cache/v5/cv53llgr3hhqlwscdodjejrblclbijpjr3k4aio4efdkc4m7bvbv.py":55:20)
#loc62 = loc("./.compile_cache/v5/cv53llgr3hhqlwscdodjejrblclbijpjr3k4aio4efdkc4m7bvbv.py":56:20)
#loc63 = loc("./.compile_cache/v5/cv53llgr3hhqlwscdodjejrblclbijpjr3k4aio4efdkc4m7bvbv.py":57:21)
#loc64 = loc("./.compile_cache/v5/cv53llgr3hhqlwscdodjejrblclbijpjr3k4aio4efdkc4m7bvbv.py":58:20)
#loc65 = loc("./.compile_cache/v5/cv53llgr3hhqlwscdodjejrblclbijpjr3k4aio4efdkc4m7bvbv.py":59:28)
#loc66 = loc("./.compile_cache/v5/cv53llgr3hhqlwscdodjejrblclbijpjr3k4aio4efdkc4m7bvbv.py":60:20)
#loc67 = loc("./.compile_cache/v5/cv53llgr3hhqlwscdodjejrblclbijpjr3k4aio4efdkc4m7bvbv.py":61:20)
#loc68 = loc("./.compile_cache/v5/cv53llgr3hhqlwscdodjejrblclbijpjr3k4aio4efdkc4m7bvbv.py":62:20)
#loc69 = loc("./.compile_cache/v5/cv53llgr3hhqlwscdodjejrblclbijpjr3k4aio4efdkc4m7bvbv.py":63:23)
#loc70 = loc("./.compile_cache/v5/cv53llgr3hhqlwscdodjejrblclbijpjr3k4aio4efdkc4m7bvbv.py":64:20)
#loc71 = loc("./.compile_cache/v5/cv53llgr3hhqlwscdodjejrblclbijpjr3k4aio4efdkc4m7bvbv.py":65:28)
#loc72 = loc("./.compile_cache/v5/cv53llgr3hhqlwscdodjejrblclbijpjr3k4aio4efdkc4m7bvbv.py":65:40)
#loc73 = loc("./.compile_cache/v5/cv53llgr3hhqlwscdodjejrblclbijpjr3k4aio4efdkc4m7bvbv.py":66:28)
#loc74 = loc("./.compile_cache/v5/cv53llgr3hhqlwscdodjejrblclbijpjr3k4aio4efdkc4m7bvbv.py":66:40)
#loc75 = loc("./.compile_cache/v5/cv53llgr3hhqlwscdodjejrblclbijpjr3k4aio4efdkc4m7bvbv.py":66:4)
#loc77 = loc("/home/xy/miniconda3/envs/cu128/lib/python3.12/site-packages/triton/language/standard.py":48:30)
#loc78 = loc("/home/xy/miniconda3/envs/cu128/lib/python3.12/site-packages/triton/language/standard.py":48:29)
#loc79 = loc("/home/xy/miniconda3/envs/cu128/lib/python3.12/site-packages/triton/language/standard.py":48:20)
#loc80 = loc("/home/xy/miniconda3/envs/cu128/lib/python3.12/site-packages/triton/language/standard.py":48:16)
#loc81 = loc("/home/xy/miniconda3/envs/cu128/lib/python3.12/site-packages/triton/language/standard.py":48:11)
#loc82 = loc("/home/xy/miniconda3/envs/cu128/lib/python3.12/site-packages/triton/language/standard.py":48:4)
#loc95 = loc("xnumel"(#loc1))
#loc96 = loc("xoffset"(#loc2))
#loc97 = loc("xoffset"(#loc3))
#loc98 = loc("xindex"(#loc4))
#loc99 = loc("xindex"(#loc5))
#loc100 = loc("xmask"(#loc6))
#loc101 = loc("x0"(#loc7))
#loc102 = loc("x2"(#loc8))
#loc103 = loc("tmp0"(#loc9))
#loc104 = loc("tmp0"(#loc10))
#loc105 = loc("tmp1"(#loc11))
#loc106 = loc("tmp1"(#loc12))
#loc107 = loc("tmp3"(#loc13))
#loc108 = loc("tmp3"(#loc14))
#loc109 = loc("tmp7"(#loc15))
#loc110 = loc("tmp7"(#loc16))
#loc111 = loc("tmp7"(#loc17))
#loc112 = loc("tmp7"(#loc18))
#loc113 = loc("tmp7"(#loc19))
#loc114 = loc("tmp9"(#loc20))
#loc115 = loc("tmp9"(#loc21))
#loc116 = loc("tmp9"(#loc22))
#loc117 = loc("tmp9"(#loc23))
#loc118 = loc("tmp9"(#loc24))
#loc119 = loc("tmp16"(#loc25))
#loc120 = loc("tmp16"(#loc26))
#loc121 = loc("tmp18"(#loc27))
#loc122 = loc("tmp18"(#loc28))
#loc123 = loc("tmp22"(#loc29))
#loc124 = loc("tmp22"(#loc30))
#loc125 = loc("tmp24"(#loc31))
#loc126 = loc("tmp24"(#loc32))
#loc127 = loc("tmp28"(#loc33))
#loc128 = loc("tmp28"(#loc34))
#loc129 = loc("tmp28"(#loc35))
#loc130 = loc("tmp28"(#loc36))
#loc131 = loc("tmp28"(#loc37))
#loc132 = loc("tmp30"(#loc38))
#loc133 = loc("tmp30"(#loc39))
#loc134 = loc("tmp30"(#loc40))
#loc135 = loc("tmp30"(#loc41))
#loc136 = loc("tmp30"(#loc42))
#loc137 = loc("tmp2"(#loc43))
#loc138 = loc("tmp4"(#loc44))
#loc139 = loc("tmp5"(#loc45))
#loc140 = loc("tmp6"(#loc46))
#loc141 = loc("tmp8"(#loc47))
#loc142 = loc("tmp10"(#loc48))
#loc143 = loc("tmp11"(#loc49))
#loc144 = loc("tmp12"(#loc50))
#loc145 = loc("tmp13"(#loc51))
#loc146 = loc("tmp14"(#loc52))
#loc147 = loc("tmp15"(#loc53))
#loc148 = loc("tmp17"(#loc54))
#loc149 = loc("tmp19"(#loc55))
#loc150 = loc("tmp20"(#loc56))
#loc151 = loc("tmp21"(#loc57))
#loc152 = loc("tmp23"(#loc58))
#loc153 = loc("tmp25"(#loc59))
#loc154 = loc("tmp26"(#loc60))
#loc155 = loc("tmp27"(#loc61))
#loc156 = loc("tmp29"(#loc62))
#loc157 = loc("tmp31"(#loc63))
#loc158 = loc("tmp32"(#loc64))
#loc159 = loc("tmp33"(#loc65))
#loc160 = loc("tmp34"(#loc66))
#loc161 = loc("tmp35"(#loc67))
#loc162 = loc("tmp36"(#loc68))
#loc163 = loc("tmp37"(#loc69))
#loc164 = loc("tmp38"(#loc70))
