#loc = loc("/mnt/g/GitHub/VAE_ca_proj/Thermal/.compile_cache/m6/cm6wh2utu2lsmutgllfizc6vpefk45gyyxnmet2f72psmo6fveap.py":18:0)
#loc18 = loc("in_ptr0"(#loc))
#loc19 = loc("out_ptr0"(#loc))
#loc20 = loc("xnumel"(#loc))
module {
  tt.func public @triton_poi_fused_silu_3(%in_ptr0: !tt.ptr<bf16> {tt.divisibility = 16 : i32} loc("in_ptr0"(#loc)), %out_ptr0: !tt.ptr<bf16> {tt.divisibility = 16 : i32} loc("out_ptr0"(#loc)), %xnumel: i32 {tt.divisibility = 16 : i32} loc("xnumel"(#loc))) attributes {noinline = false} {
    %tmp2 = arith.constant dense<0.000000e+00> : tensor<512xf32> loc(#loc30)
    %tmp2_0 = arith.constant dense<1.000000e+00> : tensor<512xf32> loc(#loc31)
    %c512_i32 = arith.constant 512 : i32 loc(#loc3)
    %xoffset = tt.get_program_id x : i32 loc(#loc22)
    %xoffset_1 = arith.muli %xoffset, %c512_i32 : i32 loc(#loc23)
    %xindex = tt.make_range {end = 512 : i32, start = 0 : i32} : tensor<512xi32> loc(#loc24)
    %xindex_2 = tt.splat %xoffset_1 : i32 -> tensor<512xi32> loc(#loc25)
    %xindex_3 = arith.addi %xindex_2, %xindex : tensor<512xi32> loc(#loc25)
    %tmp0 = tt.splat %in_ptr0 : !tt.ptr<bf16> -> tensor<512x!tt.ptr<bf16>> loc(#loc26)
    %tmp0_4 = tt.addptr %tmp0, %xindex_3 : tensor<512x!tt.ptr<bf16>>, tensor<512xi32> loc(#loc26)
    %tmp0_5 = tt.load %tmp0_4 : tensor<512x!tt.ptr<bf16>> loc(#loc27)
    %tmp0_6 = arith.extf %tmp0_5 : tensor<512xbf16> to tensor<512xf32> loc(#loc28)
    %tmp2_7 = arith.subf %tmp2, %tmp0_6 : tensor<512xf32> loc(#loc30)
    %tmp2_8 = math.exp %tmp2_7 : tensor<512xf32> loc(#loc32)
    %tmp2_9 = arith.addf %tmp2_8, %tmp2_0 : tensor<512xf32> loc(#loc33)
    %tmp2_10 = arith.divf %tmp2_0, %tmp2_9 : tensor<512xf32> loc(#loc34)
    %tmp3 = arith.mulf %tmp0_6, %tmp2_10 : tensor<512xf32> loc(#loc29)
    %0 = tt.splat %out_ptr0 : !tt.ptr<bf16> -> tensor<512x!tt.ptr<bf16>> loc(#loc15)
    %1 = tt.addptr %0, %xindex_3 : tensor<512x!tt.ptr<bf16>>, tensor<512xi32> loc(#loc15)
    %2 = arith.truncf %tmp3 : tensor<512xf32> to tensor<512xbf16> loc(#loc16)
    tt.store %1, %2 : tensor<512x!tt.ptr<bf16>> loc(#loc16)
    tt.return loc(#loc17)
  } loc(#loc)
} loc(#loc)
#loc1 = loc("/home/xy/miniconda3/envs/cu128/lib/python3.12/site-packages/triton/language/standard.py":48:30)
#loc2 = loc("/mnt/g/GitHub/VAE_ca_proj/Thermal/.compile_cache/m6/cm6wh2utu2lsmutgllfizc6vpefk45gyyxnmet2f72psmo6fveap.py":26:22)
#loc3 = loc(unknown)
#loc4 = loc("/mnt/g/GitHub/VAE_ca_proj/Thermal/.compile_cache/m6/cm6wh2utu2lsmutgllfizc6vpefk45gyyxnmet2f72psmo6fveap.py":20:28)
#loc5 = loc("/mnt/g/GitHub/VAE_ca_proj/Thermal/.compile_cache/m6/cm6wh2utu2lsmutgllfizc6vpefk45gyyxnmet2f72psmo6fveap.py":20:33)
#loc6 = loc("/mnt/g/GitHub/VAE_ca_proj/Thermal/.compile_cache/m6/cm6wh2utu2lsmutgllfizc6vpefk45gyyxnmet2f72psmo6fveap.py":21:36)
#loc7 = loc("/mnt/g/GitHub/VAE_ca_proj/Thermal/.compile_cache/m6/cm6wh2utu2lsmutgllfizc6vpefk45gyyxnmet2f72psmo6fveap.py":21:23)
#loc8 = loc("/mnt/g/GitHub/VAE_ca_proj/Thermal/.compile_cache/m6/cm6wh2utu2lsmutgllfizc6vpefk45gyyxnmet2f72psmo6fveap.py":24:30)
#loc9 = loc("/mnt/g/GitHub/VAE_ca_proj/Thermal/.compile_cache/m6/cm6wh2utu2lsmutgllfizc6vpefk45gyyxnmet2f72psmo6fveap.py":24:35)
#loc10 = loc("/mnt/g/GitHub/VAE_ca_proj/Thermal/.compile_cache/m6/cm6wh2utu2lsmutgllfizc6vpefk45gyyxnmet2f72psmo6fveap.py":24:44)
#loc11 = loc("/home/xy/miniconda3/envs/cu128/lib/python3.12/site-packages/triton/language/standard.py":48:29)
#loc12 = loc("/home/xy/miniconda3/envs/cu128/lib/python3.12/site-packages/triton/language/standard.py":48:20)
#loc13 = loc("/home/xy/miniconda3/envs/cu128/lib/python3.12/site-packages/triton/language/standard.py":48:16)
#loc14 = loc("/mnt/g/GitHub/VAE_ca_proj/Thermal/.compile_cache/m6/cm6wh2utu2lsmutgllfizc6vpefk45gyyxnmet2f72psmo6fveap.py":27:18)
#loc15 = loc("/mnt/g/GitHub/VAE_ca_proj/Thermal/.compile_cache/m6/cm6wh2utu2lsmutgllfizc6vpefk45gyyxnmet2f72psmo6fveap.py":29:25)
#loc16 = loc("/mnt/g/GitHub/VAE_ca_proj/Thermal/.compile_cache/m6/cm6wh2utu2lsmutgllfizc6vpefk45gyyxnmet2f72psmo6fveap.py":29:36)
#loc17 = loc("/mnt/g/GitHub/VAE_ca_proj/Thermal/.compile_cache/m6/cm6wh2utu2lsmutgllfizc6vpefk45gyyxnmet2f72psmo6fveap.py":29:4)
#loc21 = loc("tmp2"(#loc2))
#loc22 = loc("xoffset"(#loc4))
#loc23 = loc("xoffset"(#loc5))
#loc24 = loc("xindex"(#loc6))
#loc25 = loc("xindex"(#loc7))
#loc26 = loc("tmp0"(#loc8))
#loc27 = loc("tmp0"(#loc9))
#loc28 = loc("tmp0"(#loc10))
#loc29 = loc("tmp3"(#loc14))
#loc30 = loc(callsite(#loc1 at #loc21))
#loc31 = loc(callsite(#loc3 at #loc21))
#loc32 = loc(callsite(#loc11 at #loc21))
#loc33 = loc(callsite(#loc12 at #loc21))
#loc34 = loc(callsite(#loc13 at #loc21))
