#loc = loc("/mnt/g/GitHub/VAE_ca_proj/Thermal/.compile_cache/w3/cw3hflsgjyiijf6v3wssxwsvnjlzvpny4mssndswmsflrsraxqeb.py":18:0)
#loc18 = loc("in_out_ptr0"(#loc))
#loc19 = loc("in_ptr0"(#loc))
#loc20 = loc("xnumel"(#loc))
module {
  tt.func public @triton_poi_fused__to_copy_convolution_29(%in_out_ptr0: !tt.ptr<bf16> {tt.divisibility = 16 : i32} loc("in_out_ptr0"(#loc)), %in_ptr0: !tt.ptr<bf16> {tt.divisibility = 16 : i32} loc("in_ptr0"(#loc)), %xnumel: i32 {tt.divisibility = 16 : i32} loc("xnumel"(#loc))) attributes {noinline = false} {
    %xnumel_0 = arith.constant 8388608 : i32 loc(#loc21)
    %xoffset = tt.get_program_id x : i32 loc(#loc22)
    %xoffset_1 = arith.constant 1024 : i32 loc(#loc23)
    %xoffset_2 = arith.constant 1024 : i32 loc(#loc23)
    %xoffset_3 = arith.muli %xoffset, %xoffset_2 : i32 loc(#loc23)
    %xindex = tt.make_range {end = 1024 : i32, start = 0 : i32} : tensor<1024xi32> loc(#loc24)
    %xindex_4 = tt.splat %xoffset_3 : i32 -> tensor<1024xi32> loc(#loc25)
    %xindex_5 = arith.addi %xindex_4, %xindex : tensor<1024xi32> loc(#loc25)
    %xmask = arith.constant true loc(#loc26)
    %xmask_6 = arith.constant dense<true> : tensor<1024xi1> loc(#loc26)
    %x0 = arith.constant 256 : i32 loc(#loc27)
    %x0_7 = arith.constant 256 : i32 loc(#loc27)
    %x0_8 = arith.constant dense<256> : tensor<1024xi32> loc(#loc27)
    %x0_9 = arith.remsi %xindex_5, %x0_8 : tensor<1024xi32> loc(#loc27)
    %tmp0 = tt.splat %in_out_ptr0 : !tt.ptr<bf16> -> tensor<1024x!tt.ptr<bf16>> loc(#loc28)
    %tmp0_10 = tt.addptr %tmp0, %xindex_5 : tensor<1024x!tt.ptr<bf16>>, tensor<1024xi32> loc(#loc28)
    %tmp0_11 = tt.load %tmp0_10 : tensor<1024x!tt.ptr<bf16>> loc(#loc29)
    %tmp0_12 = arith.extf %tmp0_11 : tensor<1024xbf16> to tensor<1024xf32> loc(#loc30)
    %tmp1 = tt.splat %in_ptr0 : !tt.ptr<bf16> -> tensor<1024x!tt.ptr<bf16>> loc(#loc31)
    %tmp1_13 = tt.addptr %tmp1, %x0_9 : tensor<1024x!tt.ptr<bf16>>, tensor<1024xi32> loc(#loc31)
    %tmp1_14 = tt.load %tmp1_13 evictionPolicy = evict_last : tensor<1024x!tt.ptr<bf16>> loc(#loc32)
    %tmp1_15 = arith.extf %tmp1_14 : tensor<1024xbf16> to tensor<1024xf32> loc(#loc33)
    %tmp2 = arith.addf %tmp0_12, %tmp1_15 : tensor<1024xf32> loc(#loc34)
    %0 = tt.splat %in_out_ptr0 : !tt.ptr<bf16> -> tensor<1024x!tt.ptr<bf16>> loc(#loc15)
    %1 = tt.addptr %0, %xindex_5 : tensor<1024x!tt.ptr<bf16>>, tensor<1024xi32> loc(#loc15)
    %2 = arith.truncf %tmp2 : tensor<1024xf32> to tensor<1024xbf16> loc(#loc16)
    tt.store %1, %2 : tensor<1024x!tt.ptr<bf16>> loc(#loc16)
    tt.return loc(#loc17)
  } loc(#loc)
} loc(#loc)
#loc1 = loc("/mnt/g/GitHub/VAE_ca_proj/Thermal/.compile_cache/w3/cw3hflsgjyiijf6v3wssxwsvnjlzvpny4mssndswmsflrsraxqeb.py":19:13)
#loc2 = loc("/mnt/g/GitHub/VAE_ca_proj/Thermal/.compile_cache/w3/cw3hflsgjyiijf6v3wssxwsvnjlzvpny4mssndswmsflrsraxqeb.py":20:28)
#loc3 = loc("/mnt/g/GitHub/VAE_ca_proj/Thermal/.compile_cache/w3/cw3hflsgjyiijf6v3wssxwsvnjlzvpny4mssndswmsflrsraxqeb.py":20:33)
#loc4 = loc("/mnt/g/GitHub/VAE_ca_proj/Thermal/.compile_cache/w3/cw3hflsgjyiijf6v3wssxwsvnjlzvpny4mssndswmsflrsraxqeb.py":21:36)
#loc5 = loc("/mnt/g/GitHub/VAE_ca_proj/Thermal/.compile_cache/w3/cw3hflsgjyiijf6v3wssxwsvnjlzvpny4mssndswmsflrsraxqeb.py":21:23)
#loc6 = loc("/mnt/g/GitHub/VAE_ca_proj/Thermal/.compile_cache/w3/cw3hflsgjyiijf6v3wssxwsvnjlzvpny4mssndswmsflrsraxqeb.py":22:36)
#loc7 = loc("/mnt/g/GitHub/VAE_ca_proj/Thermal/.compile_cache/w3/cw3hflsgjyiijf6v3wssxwsvnjlzvpny4mssndswmsflrsraxqeb.py":24:19)
#loc8 = loc("/mnt/g/GitHub/VAE_ca_proj/Thermal/.compile_cache/w3/cw3hflsgjyiijf6v3wssxwsvnjlzvpny4mssndswmsflrsraxqeb.py":25:34)
#loc9 = loc("/mnt/g/GitHub/VAE_ca_proj/Thermal/.compile_cache/w3/cw3hflsgjyiijf6v3wssxwsvnjlzvpny4mssndswmsflrsraxqeb.py":25:39)
#loc10 = loc("/mnt/g/GitHub/VAE_ca_proj/Thermal/.compile_cache/w3/cw3hflsgjyiijf6v3wssxwsvnjlzvpny4mssndswmsflrsraxqeb.py":25:48)
#loc11 = loc("/mnt/g/GitHub/VAE_ca_proj/Thermal/.compile_cache/w3/cw3hflsgjyiijf6v3wssxwsvnjlzvpny4mssndswmsflrsraxqeb.py":26:30)
#loc12 = loc("/mnt/g/GitHub/VAE_ca_proj/Thermal/.compile_cache/w3/cw3hflsgjyiijf6v3wssxwsvnjlzvpny4mssndswmsflrsraxqeb.py":26:35)
#loc13 = loc("/mnt/g/GitHub/VAE_ca_proj/Thermal/.compile_cache/w3/cw3hflsgjyiijf6v3wssxwsvnjlzvpny4mssndswmsflrsraxqeb.py":26:74)
#loc14 = loc("/mnt/g/GitHub/VAE_ca_proj/Thermal/.compile_cache/w3/cw3hflsgjyiijf6v3wssxwsvnjlzvpny4mssndswmsflrsraxqeb.py":27:18)
#loc15 = loc("/mnt/g/GitHub/VAE_ca_proj/Thermal/.compile_cache/w3/cw3hflsgjyiijf6v3wssxwsvnjlzvpny4mssndswmsflrsraxqeb.py":28:28)
#loc16 = loc("/mnt/g/GitHub/VAE_ca_proj/Thermal/.compile_cache/w3/cw3hflsgjyiijf6v3wssxwsvnjlzvpny4mssndswmsflrsraxqeb.py":28:39)
#loc17 = loc("/mnt/g/GitHub/VAE_ca_proj/Thermal/.compile_cache/w3/cw3hflsgjyiijf6v3wssxwsvnjlzvpny4mssndswmsflrsraxqeb.py":28:4)
#loc21 = loc("xnumel"(#loc1))
#loc22 = loc("xoffset"(#loc2))
#loc23 = loc("xoffset"(#loc3))
#loc24 = loc("xindex"(#loc4))
#loc25 = loc("xindex"(#loc5))
#loc26 = loc("xmask"(#loc6))
#loc27 = loc("x0"(#loc7))
#loc28 = loc("tmp0"(#loc8))
#loc29 = loc("tmp0"(#loc9))
#loc30 = loc("tmp0"(#loc10))
#loc31 = loc("tmp1"(#loc11))
#loc32 = loc("tmp1"(#loc12))
#loc33 = loc("tmp1"(#loc13))
#loc34 = loc("tmp2"(#loc14))
