#loc = loc("/mnt/g/GitHub/VAE_ca_proj/Thermal/.compile_cache/im/cimfaprsp7eqzr5o22oulujowaz7ytv2lfsuzbnfd6344bzdk6if.py":18:0)
#loc16 = loc("in_ptr0"(#loc))
#loc17 = loc("out_ptr0"(#loc))
#loc18 = loc("xnumel"(#loc))
module {
  tt.func public @triton_poi_fused_clone_expand_split_transpose_unsqueeze_view_24(%in_ptr0: !tt.ptr<bf16> {tt.divisibility = 16 : i32} loc("in_ptr0"(#loc)), %out_ptr0: !tt.ptr<bf16> {tt.divisibility = 16 : i32} loc("out_ptr0"(#loc)), %xnumel: i32 {tt.divisibility = 16 : i32} loc("xnumel"(#loc))) attributes {noinline = false} {
    %xoffset = tt.get_program_id x : i32 loc(#loc19)
    %xoffset_0 = arith.constant 128 : i32 loc(#loc20)
    %xoffset_1 = arith.constant 128 : i32 loc(#loc20)
    %xoffset_2 = arith.muli %xoffset, %xoffset_1 : i32 loc(#loc20)
    %xindex = tt.make_range {end = 128 : i32, start = 0 : i32} : tensor<128xi32> loc(#loc21)
    %xindex_3 = tt.splat %xoffset_2 : i32 -> tensor<128xi32> loc(#loc22)
    %xindex_4 = arith.addi %xindex_3, %xindex : tensor<128xi32> loc(#loc22)
    %xmask = tt.splat %xnumel : i32 -> tensor<128xi32> loc(#loc23)
    %xmask_5 = arith.cmpi slt, %xindex_4, %xmask : tensor<128xi32> loc(#loc23)
    %x0 = arith.constant 256 : i32 loc(#loc24)
    %x0_6 = arith.constant 256 : i32 loc(#loc24)
    %x0_7 = arith.constant dense<256> : tensor<128xi32> loc(#loc24)
    %x0_8 = arith.remsi %xindex_4, %x0_7 : tensor<128xi32> loc(#loc24)
    %x1 = arith.constant 256 : i32 loc(#loc25)
    %x1_9 = arith.constant 256 : i32 loc(#loc25)
    %x1_10 = arith.constant dense<256> : tensor<128xi32> loc(#loc25)
    %x1_11 = arith.divsi %xindex_4, %x1_10 : tensor<128xi32> loc(#loc25)
    %tmp0 = arith.constant 512 : i32 loc(#loc26)
    %tmp0_12 = arith.constant 512 : i32 loc(#loc26)
    %tmp0_13 = arith.constant dense<512> : tensor<128xi32> loc(#loc26)
    %tmp0_14 = arith.muli %tmp0_13, %x1_11 : tensor<128xi32> loc(#loc26)
    %tmp0_15 = arith.addi %x0_8, %tmp0_14 : tensor<128xi32> loc(#loc27)
    %tmp0_16 = tt.splat %in_ptr0 : !tt.ptr<bf16> -> tensor<128x!tt.ptr<bf16>> loc(#loc28)
    %tmp0_17 = tt.addptr %tmp0_16, %tmp0_15 : tensor<128x!tt.ptr<bf16>>, tensor<128xi32> loc(#loc28)
    %tmp0_18 = tt.load %tmp0_17, %xmask_5 : tensor<128x!tt.ptr<bf16>> loc(#loc29)
    %tmp0_19 = arith.extf %tmp0_18 : tensor<128xbf16> to tensor<128xf32> loc(#loc30)
    %0 = tt.splat %out_ptr0 : !tt.ptr<bf16> -> tensor<128x!tt.ptr<bf16>> loc(#loc13)
    %1 = tt.addptr %0, %xindex_4 : tensor<128x!tt.ptr<bf16>>, tensor<128xi32> loc(#loc13)
    %2 = arith.truncf %tmp0_19 : tensor<128xf32> to tensor<128xbf16> loc(#loc14)
    tt.store %1, %2, %xmask_5 : tensor<128x!tt.ptr<bf16>> loc(#loc14)
    tt.return loc(#loc15)
  } loc(#loc)
} loc(#loc)
#loc1 = loc("/mnt/g/GitHub/VAE_ca_proj/Thermal/.compile_cache/im/cimfaprsp7eqzr5o22oulujowaz7ytv2lfsuzbnfd6344bzdk6if.py":19:28)
#loc2 = loc("/mnt/g/GitHub/VAE_ca_proj/Thermal/.compile_cache/im/cimfaprsp7eqzr5o22oulujowaz7ytv2lfsuzbnfd6344bzdk6if.py":19:33)
#loc3 = loc("/mnt/g/GitHub/VAE_ca_proj/Thermal/.compile_cache/im/cimfaprsp7eqzr5o22oulujowaz7ytv2lfsuzbnfd6344bzdk6if.py":20:36)
#loc4 = loc("/mnt/g/GitHub/VAE_ca_proj/Thermal/.compile_cache/im/cimfaprsp7eqzr5o22oulujowaz7ytv2lfsuzbnfd6344bzdk6if.py":20:23)
#loc5 = loc("/mnt/g/GitHub/VAE_ca_proj/Thermal/.compile_cache/im/cimfaprsp7eqzr5o22oulujowaz7ytv2lfsuzbnfd6344bzdk6if.py":21:21)
#loc6 = loc("/mnt/g/GitHub/VAE_ca_proj/Thermal/.compile_cache/im/cimfaprsp7eqzr5o22oulujowaz7ytv2lfsuzbnfd6344bzdk6if.py":22:19)
#loc7 = loc("/mnt/g/GitHub/VAE_ca_proj/Thermal/.compile_cache/im/cimfaprsp7eqzr5o22oulujowaz7ytv2lfsuzbnfd6344bzdk6if.py":23:19)
#loc8 = loc("/mnt/g/GitHub/VAE_ca_proj/Thermal/.compile_cache/im/cimfaprsp7eqzr5o22oulujowaz7ytv2lfsuzbnfd6344bzdk6if.py":25:39)
#loc9 = loc("/mnt/g/GitHub/VAE_ca_proj/Thermal/.compile_cache/im/cimfaprsp7eqzr5o22oulujowaz7ytv2lfsuzbnfd6344bzdk6if.py":25:35)
#loc10 = loc("/mnt/g/GitHub/VAE_ca_proj/Thermal/.compile_cache/im/cimfaprsp7eqzr5o22oulujowaz7ytv2lfsuzbnfd6344bzdk6if.py":25:30)
#loc11 = loc("/mnt/g/GitHub/VAE_ca_proj/Thermal/.compile_cache/im/cimfaprsp7eqzr5o22oulujowaz7ytv2lfsuzbnfd6344bzdk6if.py":25:44)
#loc12 = loc("/mnt/g/GitHub/VAE_ca_proj/Thermal/.compile_cache/im/cimfaprsp7eqzr5o22oulujowaz7ytv2lfsuzbnfd6344bzdk6if.py":25:54)
#loc13 = loc("/mnt/g/GitHub/VAE_ca_proj/Thermal/.compile_cache/im/cimfaprsp7eqzr5o22oulujowaz7ytv2lfsuzbnfd6344bzdk6if.py":26:25)
#loc14 = loc("/mnt/g/GitHub/VAE_ca_proj/Thermal/.compile_cache/im/cimfaprsp7eqzr5o22oulujowaz7ytv2lfsuzbnfd6344bzdk6if.py":26:36)
#loc15 = loc("/mnt/g/GitHub/VAE_ca_proj/Thermal/.compile_cache/im/cimfaprsp7eqzr5o22oulujowaz7ytv2lfsuzbnfd6344bzdk6if.py":26:4)
#loc19 = loc("xoffset"(#loc1))
#loc20 = loc("xoffset"(#loc2))
#loc21 = loc("xindex"(#loc3))
#loc22 = loc("xindex"(#loc4))
#loc23 = loc("xmask"(#loc5))
#loc24 = loc("x0"(#loc6))
#loc25 = loc("x1"(#loc7))
#loc26 = loc("tmp0"(#loc8))
#loc27 = loc("tmp0"(#loc9))
#loc28 = loc("tmp0"(#loc10))
#loc29 = loc("tmp0"(#loc11))
#loc30 = loc("tmp0"(#loc12))
