#loc = loc("/mnt/g/GitHub/VAE_ca_proj/Thermal/.compile_cache/5u/c5ugnlrsbhafmxw3u7ufnlc4647pjjhfrp7syl67zrcpd5g6b5te.py":18:0)
#loc30 = loc("in_ptr0"(#loc))
#loc31 = loc("in_ptr1"(#loc))
#loc32 = loc("out_ptr0"(#loc))
#loc33 = loc("xnumel"(#loc))
module {
  tt.func public @triton_poi_fused__to_copy_embedding_dense_backward_slice_86(%in_ptr0: !tt.ptr<i64> {tt.divisibility = 16 : i32} loc("in_ptr0"(#loc)), %in_ptr1: !tt.ptr<bf16> {tt.divisibility = 16 : i32} loc("in_ptr1"(#loc)), %out_ptr0: !tt.ptr<f32> {tt.divisibility = 16 : i32} loc("out_ptr0"(#loc)), %xnumel: i32 {tt.divisibility = 16 : i32} loc("xnumel"(#loc))) attributes {noinline = false} {
    %cst = arith.constant dense<0> : tensor<128xi64> loc(#loc1)
    %cst_0 = arith.constant dense<4> : tensor<128xi64> loc(#loc1)
    %cst_1 = arith.constant dense<256> : tensor<128xi64> loc(#loc2)
    %tmp11 = arith.constant dense<0.000000e+00> : tensor<128xf32> loc(#loc34)
    %tmp7 = arith.constant dense<-1> : tensor<128xi64> loc(#loc35)
    %tmp8 = arith.constant dense<512> : tensor<128xi32> loc(#loc36)
    %cst_2 = arith.constant dense<256> : tensor<128xi32> loc(#loc1)
    %cst_3 = arith.constant dense<true> : tensor<128xi1> loc(#loc1)
    %c128_i32 = arith.constant 128 : i32 loc(#loc1)
    %xoffset = tt.get_program_id x : i32 loc(#loc37)
    %xoffset_4 = arith.muli %xoffset, %c128_i32 : i32 loc(#loc38)
    %xindex = tt.make_range {end = 128 : i32, start = 0 : i32} : tensor<128xi32> loc(#loc39)
    %xindex_5 = tt.splat %xoffset_4 : i32 -> tensor<128xi32> loc(#loc40)
    %xindex_6 = arith.addi %xindex_5, %xindex : tensor<128xi32> loc(#loc40)
    %x1 = arith.divsi %xindex_6, %cst_2 : tensor<128xi32> loc(#loc41)
    %x0 = arith.remsi %xindex_6, %cst_2 : tensor<128xi32> loc(#loc42)
    %tmp0 = tt.splat %in_ptr0 : !tt.ptr<i64> -> tensor<128x!tt.ptr<i64>> loc(#loc43)
    %tmp0_7 = tt.addptr %tmp0, %x1 : tensor<128x!tt.ptr<i64>>, tensor<128xi32> loc(#loc43)
    %tmp0_8 = tt.load %tmp0_7 evictionPolicy = evict_last : tensor<128x!tt.ptr<i64>> loc(#loc44)
    %tmp8_9 = arith.addi %x0, %cst_2 : tensor<128xi32> loc(#loc45)
    %tmp8_10 = arith.muli %x1, %tmp8 : tensor<128xi32> loc(#loc36)
    %tmp8_11 = arith.addi %tmp8_9, %tmp8_10 : tensor<128xi32> loc(#loc46)
    %tmp8_12 = tt.splat %in_ptr1 : !tt.ptr<bf16> -> tensor<128x!tt.ptr<bf16>> loc(#loc47)
    %tmp8_13 = tt.addptr %tmp8_12, %tmp8_11 : tensor<128x!tt.ptr<bf16>>, tensor<128xi32> loc(#loc47)
    %tmp8_14 = tt.load %tmp8_13 : tensor<128x!tt.ptr<bf16>> loc(#loc48)
    %tmp8_15 = arith.extf %tmp8_14 : tensor<128xbf16> to tensor<128xf32> loc(#loc49)
    %tmp2 = arith.addi %tmp0_8, %cst_0 : tensor<128xi64> loc(#loc50)
    %tmp3 = arith.cmpi slt, %tmp0_8, %cst : tensor<128xi64> loc(#loc51)
    %tmp4 = arith.select %tmp3, %tmp2, %tmp0_8 : tensor<128xi1>, tensor<128xi64> loc(#loc52)
    %0 = arith.cmpi sge, %tmp4, %cst : tensor<128xi64> loc(#loc22)
    %1 = arith.cmpi slt, %tmp4, %cst_0 : tensor<128xi64> loc(#loc23)
    %2 = arith.andi %0, %1 : tensor<128xi1> loc(#loc24)
    tt.assert %2, "index out of bounds: 0 <= tmp4 < 4" : tensor<128xi1> loc(#loc25)
    %tmp7_16 = arith.cmpi eq, %tmp0_8, %tmp7 : tensor<128xi64> loc(#loc35)
    %tmp11_17 = arith.select %tmp7_16, %tmp11, %tmp8_15 : tensor<128xi1>, tensor<128xf32> loc(#loc34)
    %3 = arith.muli %tmp4, %cst_1 : tensor<128xi64> loc(#loc2)
    %4 = arith.extsi %x0 : tensor<128xi32> to tensor<128xi64> loc(#loc26)
    %5 = arith.addi %4, %3 : tensor<128xi64> loc(#loc26)
    %6 = tt.splat %out_ptr0 : !tt.ptr<f32> -> tensor<128x!tt.ptr<f32>> loc(#loc27)
    %7 = tt.addptr %6, %5 : tensor<128x!tt.ptr<f32>>, tensor<128xi64> loc(#loc27)
    %8 = tt.atomic_rmw fadd, relaxed, gpu, %7, %tmp11_17, %cst_3 : (tensor<128x!tt.ptr<f32>>, tensor<128xf32>, tensor<128xi1>) -> tensor<128xf32> loc(#loc28)
    tt.return loc(#loc29)
  } loc(#loc)
} loc(#loc)
#loc1 = loc(unknown)
#loc2 = loc("/mnt/g/GitHub/VAE_ca_proj/Thermal/.compile_cache/5u/c5ugnlrsbhafmxw3u7ufnlc4647pjjhfrp7syl67zrcpd5g6b5te.py":37:39)
#loc3 = loc("/mnt/g/GitHub/VAE_ca_proj/Thermal/.compile_cache/5u/c5ugnlrsbhafmxw3u7ufnlc4647pjjhfrp7syl67zrcpd5g6b5te.py":36:34)
#loc4 = loc("/mnt/g/GitHub/VAE_ca_proj/Thermal/.compile_cache/5u/c5ugnlrsbhafmxw3u7ufnlc4647pjjhfrp7syl67zrcpd5g6b5te.py":33:19)
#loc5 = loc("/mnt/g/GitHub/VAE_ca_proj/Thermal/.compile_cache/5u/c5ugnlrsbhafmxw3u7ufnlc4647pjjhfrp7syl67zrcpd5g6b5te.py":26:45)
#loc6 = loc("/mnt/g/GitHub/VAE_ca_proj/Thermal/.compile_cache/5u/c5ugnlrsbhafmxw3u7ufnlc4647pjjhfrp7syl67zrcpd5g6b5te.py":20:28)
#loc7 = loc("/mnt/g/GitHub/VAE_ca_proj/Thermal/.compile_cache/5u/c5ugnlrsbhafmxw3u7ufnlc4647pjjhfrp7syl67zrcpd5g6b5te.py":20:33)
#loc8 = loc("/mnt/g/GitHub/VAE_ca_proj/Thermal/.compile_cache/5u/c5ugnlrsbhafmxw3u7ufnlc4647pjjhfrp7syl67zrcpd5g6b5te.py":21:36)
#loc9 = loc("/mnt/g/GitHub/VAE_ca_proj/Thermal/.compile_cache/5u/c5ugnlrsbhafmxw3u7ufnlc4647pjjhfrp7syl67zrcpd5g6b5te.py":21:23)
#loc10 = loc("/mnt/g/GitHub/VAE_ca_proj/Thermal/.compile_cache/5u/c5ugnlrsbhafmxw3u7ufnlc4647pjjhfrp7syl67zrcpd5g6b5te.py":23:19)
#loc11 = loc("/mnt/g/GitHub/VAE_ca_proj/Thermal/.compile_cache/5u/c5ugnlrsbhafmxw3u7ufnlc4647pjjhfrp7syl67zrcpd5g6b5te.py":24:19)
#loc12 = loc("/mnt/g/GitHub/VAE_ca_proj/Thermal/.compile_cache/5u/c5ugnlrsbhafmxw3u7ufnlc4647pjjhfrp7syl67zrcpd5g6b5te.py":25:30)
#loc13 = loc("/mnt/g/GitHub/VAE_ca_proj/Thermal/.compile_cache/5u/c5ugnlrsbhafmxw3u7ufnlc4647pjjhfrp7syl67zrcpd5g6b5te.py":25:35)
#loc14 = loc("/mnt/g/GitHub/VAE_ca_proj/Thermal/.compile_cache/5u/c5ugnlrsbhafmxw3u7ufnlc4647pjjhfrp7syl67zrcpd5g6b5te.py":26:36)
#loc15 = loc("/mnt/g/GitHub/VAE_ca_proj/Thermal/.compile_cache/5u/c5ugnlrsbhafmxw3u7ufnlc4647pjjhfrp7syl67zrcpd5g6b5te.py":26:41)
#loc16 = loc("/mnt/g/GitHub/VAE_ca_proj/Thermal/.compile_cache/5u/c5ugnlrsbhafmxw3u7ufnlc4647pjjhfrp7syl67zrcpd5g6b5te.py":26:30)
#loc17 = loc("/mnt/g/GitHub/VAE_ca_proj/Thermal/.compile_cache/5u/c5ugnlrsbhafmxw3u7ufnlc4647pjjhfrp7syl67zrcpd5g6b5te.py":26:50)
#loc18 = loc("/mnt/g/GitHub/VAE_ca_proj/Thermal/.compile_cache/5u/c5ugnlrsbhafmxw3u7ufnlc4647pjjhfrp7syl67zrcpd5g6b5te.py":26:59)
#loc19 = loc("/mnt/g/GitHub/VAE_ca_proj/Thermal/.compile_cache/5u/c5ugnlrsbhafmxw3u7ufnlc4647pjjhfrp7syl67zrcpd5g6b5te.py":28:18)
#loc20 = loc("/mnt/g/GitHub/VAE_ca_proj/Thermal/.compile_cache/5u/c5ugnlrsbhafmxw3u7ufnlc4647pjjhfrp7syl67zrcpd5g6b5te.py":29:18)
#loc21 = loc("/mnt/g/GitHub/VAE_ca_proj/Thermal/.compile_cache/5u/c5ugnlrsbhafmxw3u7ufnlc4647pjjhfrp7syl67zrcpd5g6b5te.py":30:32)
#loc22 = loc("/mnt/g/GitHub/VAE_ca_proj/Thermal/.compile_cache/5u/c5ugnlrsbhafmxw3u7ufnlc4647pjjhfrp7syl67zrcpd5g6b5te.py":31:27)
#loc23 = loc("/mnt/g/GitHub/VAE_ca_proj/Thermal/.compile_cache/5u/c5ugnlrsbhafmxw3u7ufnlc4647pjjhfrp7syl67zrcpd5g6b5te.py":31:43)
#loc24 = loc("/mnt/g/GitHub/VAE_ca_proj/Thermal/.compile_cache/5u/c5ugnlrsbhafmxw3u7ufnlc4647pjjhfrp7syl67zrcpd5g6b5te.py":31:36)
#loc25 = loc("/mnt/g/GitHub/VAE_ca_proj/Thermal/.compile_cache/5u/c5ugnlrsbhafmxw3u7ufnlc4647pjjhfrp7syl67zrcpd5g6b5te.py":31:47)
#loc26 = loc("/mnt/g/GitHub/VAE_ca_proj/Thermal/.compile_cache/5u/c5ugnlrsbhafmxw3u7ufnlc4647pjjhfrp7syl67zrcpd5g6b5te.py":37:35)
#loc27 = loc("/mnt/g/GitHub/VAE_ca_proj/Thermal/.compile_cache/5u/c5ugnlrsbhafmxw3u7ufnlc4647pjjhfrp7syl67zrcpd5g6b5te.py":37:30)
#loc28 = loc("/mnt/g/GitHub/VAE_ca_proj/Thermal/.compile_cache/5u/c5ugnlrsbhafmxw3u7ufnlc4647pjjhfrp7syl67zrcpd5g6b5te.py":37:53)
#loc29 = loc("/mnt/g/GitHub/VAE_ca_proj/Thermal/.compile_cache/5u/c5ugnlrsbhafmxw3u7ufnlc4647pjjhfrp7syl67zrcpd5g6b5te.py":37:4)
#loc34 = loc("tmp11"(#loc3))
#loc35 = loc("tmp7"(#loc4))
#loc36 = loc("tmp8"(#loc5))
#loc37 = loc("xoffset"(#loc6))
#loc38 = loc("xoffset"(#loc7))
#loc39 = loc("xindex"(#loc8))
#loc40 = loc("xindex"(#loc9))
#loc41 = loc("x1"(#loc10))
#loc42 = loc("x0"(#loc11))
#loc43 = loc("tmp0"(#loc12))
#loc44 = loc("tmp0"(#loc13))
#loc45 = loc("tmp8"(#loc14))
#loc46 = loc("tmp8"(#loc15))
#loc47 = loc("tmp8"(#loc16))
#loc48 = loc("tmp8"(#loc17))
#loc49 = loc("tmp8"(#loc18))
#loc50 = loc("tmp2"(#loc19))
#loc51 = loc("tmp3"(#loc20))
#loc52 = loc("tmp4"(#loc21))
