#loc = loc("./.compile_cache/cb/ccbvsjze3es4errmf4wyjfdff22ztnodohi3nffklhhwiis6jukp.py":18:0)
#loc25 = loc("in_out_ptr0"(#loc))
#loc26 = loc("in_ptr0"(#loc))
#loc27 = loc("in_ptr1"(#loc))
#loc28 = loc("xnumel"(#loc))
module {
  tt.func public @triton_poi_fused_add_addmm_convolution_native_group_norm_silu_split_with_sizes_transpose_view_60(%in_out_ptr0: !tt.ptr<f32> {tt.divisibility = 16 : i32} loc("in_out_ptr0"(#loc)), %in_ptr0: !tt.ptr<f32> {tt.divisibility = 16 : i32} loc("in_ptr0"(#loc)), %in_ptr1: !tt.ptr<f32> {tt.divisibility = 16 : i32} loc("in_ptr1"(#loc)), %xnumel: i32 {tt.divisibility = 16 : i32} loc("xnumel"(#loc))) attributes {noinline = false} {
    %cst = arith.constant dense<0.000000e+00> : tensor<1024xf32> loc(#loc1)
    %cst_0 = arith.constant dense<1.000000e+00> : tensor<1024xf32> loc(#loc1)
    %x0 = arith.constant dense<256> : tensor<1024xi32> loc(#loc29)
    %c1024_i32 = arith.constant 1024 : i32 loc(#loc1)
    %xoffset = tt.get_program_id x : i32 loc(#loc30)
    %xoffset_1 = arith.muli %xoffset, %c1024_i32 : i32 loc(#loc31)
    %xindex = tt.make_range {end = 1024 : i32, start = 0 : i32} : tensor<1024xi32> loc(#loc32)
    %xindex_2 = tt.splat %xoffset_1 : i32 -> tensor<1024xi32> loc(#loc33)
    %xindex_3 = arith.addi %xindex_2, %xindex : tensor<1024xi32> loc(#loc33)
    %x0_4 = arith.remsi %xindex_3, %x0 : tensor<1024xi32> loc(#loc29)
    %tmp0 = tt.splat %in_out_ptr0 : !tt.ptr<f32> -> tensor<1024x!tt.ptr<f32>> loc(#loc34)
    %tmp0_5 = tt.addptr %tmp0, %xindex_3 : tensor<1024x!tt.ptr<f32>>, tensor<1024xi32> loc(#loc34)
    %tmp0_6 = tt.load %tmp0_5 : tensor<1024x!tt.ptr<f32>> loc(#loc35)
    %tmp1 = tt.splat %in_ptr0 : !tt.ptr<f32> -> tensor<1024x!tt.ptr<f32>> loc(#loc36)
    %tmp1_7 = tt.addptr %tmp1, %x0_4 : tensor<1024x!tt.ptr<f32>>, tensor<1024xi32> loc(#loc36)
    %tmp1_8 = tt.load %tmp1_7 evictionPolicy = evict_last : tensor<1024x!tt.ptr<f32>> loc(#loc37)
    %tmp3 = tt.splat %in_ptr1 : !tt.ptr<f32> -> tensor<1024x!tt.ptr<f32>> loc(#loc38)
    %tmp3_9 = tt.addptr %tmp3, %xindex_3 : tensor<1024x!tt.ptr<f32>>, tensor<1024xi32> loc(#loc38)
    %tmp3_10 = tt.load %tmp3_9 : tensor<1024x!tt.ptr<f32>> loc(#loc39)
    %tmp2 = arith.addf %tmp0_6, %tmp1_8 : tensor<1024xf32> loc(#loc40)
    %tmp4 = arith.subf %cst, %tmp3_10 : tensor<1024xf32> loc(#loc46)
    %tmp4_11 = math.exp %tmp4 : tensor<1024xf32> loc(#loc47)
    %tmp4_12 = arith.addf %tmp4_11, %cst_0 : tensor<1024xf32> loc(#loc48)
    %tmp4_13 = arith.divf %cst_0, %tmp4_12 : tensor<1024xf32> loc(#loc49)
    %tmp5 = arith.mulf %tmp3_10, %tmp4_13 : tensor<1024xf32> loc(#loc42)
    %tmp6 = arith.addf %tmp2, %tmp5 : tensor<1024xf32> loc(#loc43)
    %tmp7 = arith.subf %cst, %tmp6 : tensor<1024xf32> loc(#loc50)
    %tmp7_14 = math.exp %tmp7 : tensor<1024xf32> loc(#loc51)
    %tmp7_15 = arith.addf %tmp7_14, %cst_0 : tensor<1024xf32> loc(#loc52)
    %tmp7_16 = arith.divf %cst_0, %tmp7_15 : tensor<1024xf32> loc(#loc53)
    %tmp8 = arith.mulf %tmp6, %tmp7_16 : tensor<1024xf32> loc(#loc45)
    tt.store %tmp0_5, %tmp8 : tensor<1024x!tt.ptr<f32>> loc(#loc23)
    tt.return loc(#loc24)
  } loc(#loc)
} loc(#loc)
#loc1 = loc(unknown)
#loc2 = loc("./.compile_cache/cb/ccbvsjze3es4errmf4wyjfdff22ztnodohi3nffklhhwiis6jukp.py":24:19)
#loc3 = loc("./.compile_cache/cb/ccbvsjze3es4errmf4wyjfdff22ztnodohi3nffklhhwiis6jukp.py":20:28)
#loc4 = loc("./.compile_cache/cb/ccbvsjze3es4errmf4wyjfdff22ztnodohi3nffklhhwiis6jukp.py":20:33)
#loc5 = loc("./.compile_cache/cb/ccbvsjze3es4errmf4wyjfdff22ztnodohi3nffklhhwiis6jukp.py":21:36)
#loc6 = loc("./.compile_cache/cb/ccbvsjze3es4errmf4wyjfdff22ztnodohi3nffklhhwiis6jukp.py":21:23)
#loc7 = loc("./.compile_cache/cb/ccbvsjze3es4errmf4wyjfdff22ztnodohi3nffklhhwiis6jukp.py":25:34)
#loc8 = loc("./.compile_cache/cb/ccbvsjze3es4errmf4wyjfdff22ztnodohi3nffklhhwiis6jukp.py":25:39)
#loc9 = loc("./.compile_cache/cb/ccbvsjze3es4errmf4wyjfdff22ztnodohi3nffklhhwiis6jukp.py":26:30)
#loc10 = loc("./.compile_cache/cb/ccbvsjze3es4errmf4wyjfdff22ztnodohi3nffklhhwiis6jukp.py":26:35)
#loc11 = loc("./.compile_cache/cb/ccbvsjze3es4errmf4wyjfdff22ztnodohi3nffklhhwiis6jukp.py":27:30)
#loc12 = loc("./.compile_cache/cb/ccbvsjze3es4errmf4wyjfdff22ztnodohi3nffklhhwiis6jukp.py":27:35)
#loc13 = loc("./.compile_cache/cb/ccbvsjze3es4errmf4wyjfdff22ztnodohi3nffklhhwiis6jukp.py":28:18)
#loc14 = loc("/home/xy/miniconda3/envs/cu128/lib/python3.12/site-packages/triton/language/standard.py":48:30)
#loc15 = loc("./.compile_cache/cb/ccbvsjze3es4errmf4wyjfdff22ztnodohi3nffklhhwiis6jukp.py":29:22)
#loc16 = loc("/home/xy/miniconda3/envs/cu128/lib/python3.12/site-packages/triton/language/standard.py":48:29)
#loc17 = loc("/home/xy/miniconda3/envs/cu128/lib/python3.12/site-packages/triton/language/standard.py":48:20)
#loc18 = loc("/home/xy/miniconda3/envs/cu128/lib/python3.12/site-packages/triton/language/standard.py":48:16)
#loc19 = loc("./.compile_cache/cb/ccbvsjze3es4errmf4wyjfdff22ztnodohi3nffklhhwiis6jukp.py":30:18)
#loc20 = loc("./.compile_cache/cb/ccbvsjze3es4errmf4wyjfdff22ztnodohi3nffklhhwiis6jukp.py":31:18)
#loc21 = loc("./.compile_cache/cb/ccbvsjze3es4errmf4wyjfdff22ztnodohi3nffklhhwiis6jukp.py":32:22)
#loc22 = loc("./.compile_cache/cb/ccbvsjze3es4errmf4wyjfdff22ztnodohi3nffklhhwiis6jukp.py":33:18)
#loc23 = loc("./.compile_cache/cb/ccbvsjze3es4errmf4wyjfdff22ztnodohi3nffklhhwiis6jukp.py":34:39)
#loc24 = loc("./.compile_cache/cb/ccbvsjze3es4errmf4wyjfdff22ztnodohi3nffklhhwiis6jukp.py":34:4)
#loc29 = loc("x0"(#loc2))
#loc30 = loc("xoffset"(#loc3))
#loc31 = loc("xoffset"(#loc4))
#loc32 = loc("xindex"(#loc5))
#loc33 = loc("xindex"(#loc6))
#loc34 = loc("tmp0"(#loc7))
#loc35 = loc("tmp0"(#loc8))
#loc36 = loc("tmp1"(#loc9))
#loc37 = loc("tmp1"(#loc10))
#loc38 = loc("tmp3"(#loc11))
#loc39 = loc("tmp3"(#loc12))
#loc40 = loc("tmp2"(#loc13))
#loc41 = loc("tmp4"(#loc15))
#loc42 = loc("tmp5"(#loc19))
#loc43 = loc("tmp6"(#loc20))
#loc44 = loc("tmp7"(#loc21))
#loc45 = loc("tmp8"(#loc22))
#loc46 = loc(callsite(#loc14 at #loc41))
#loc47 = loc(callsite(#loc16 at #loc41))
#loc48 = loc(callsite(#loc17 at #loc41))
#loc49 = loc(callsite(#loc18 at #loc41))
#loc50 = loc(callsite(#loc14 at #loc44))
#loc51 = loc(callsite(#loc16 at #loc44))
#loc52 = loc(callsite(#loc17 at #loc44))
#loc53 = loc(callsite(#loc18 at #loc44))
